checkpoint_actor.pth (torch_old, 548358 bytes, 10 tensors)

fc1.weight f4 [400, 33]
000000 13 3e 35 3d 59 9a 6d 3f 0f e6 fc 3e 88 16 9f be
       0.04424865 0.9281364 0.4939427 -0.31071877
000010 6f 15 4b bf 36 89 7b 3e d0 ff 90 3f 57 e1 13 3f
       -0.7932958 0.2456406 1.1328068 0.57765716
000020 e7 b8 e4 3e e8 2a 24 bf e9 2d e2 be 70 bf 16 be
       0.4467232 -0.6412797 -0.44175652 -0.14721465
000030 2a 6d c9 3d eb 78 fb 3d c2 04 53 bf ee 2f fb be
       0.098352745 0.12278923 -0.82429135 -0.49060005
000040 dc 19 72 3f 9f 63 20 bf 9d 35 67 bf 22 63 67 3f
       0.9457071 -0.6265201 -0.9031618 0.9038564
000050 a3 d5 62 3e 57 77 32 be 63 9f 8c 3d d5 f4 8b be
       0.22151808 -0.17428337 0.06866338 -0.2733523
000060 f7 fb bb be 84 52 9d bf bc 1e 10 be 77 cd 3e 3f
       -0.3671567 -1.2290807 -0.14074224 0.74532264
000070 2d f4 24 be 81 44 39 3d 60 fb 32 bf f0 35 a1 bc
       -0.1610877 0.045231346 -0.6991482 -0.01967904
000080 0b 4b 00 bb 57 2b 16 3f f7 aa e3 be fe 14 aa 3e
       -0.001957598 0.5865988 -0.44466373 0.3321914
000090 69 46 6b be 47 ac d5 be 71 21 50 3f cf 4a 3e 3f
       -0.22976078 -0.41733 0.8130103 0.743329
0000a0 4a 15 8e 3e 1d 8f b1 be 8f 22 f7 3e bd 77 90 3e
       0.27750617 -0.346795 0.48268554 0.28216353
0000b0 1a 51 94 3d 16 ff da 3e b6 c2 0c 3d c5 bc c8 3e
       0.072420314 0.4277274 0.03436538 0.3920652
0000c0 10 e3 72 bd 53 77 ce bf fa 67 0b c0 39 4b 63 3f
       -0.059298575 -1.6130165 -2.1782212 0.88786656
0000d0 ad 58 8e 3f 2a e3 43 3e 8c c2 8b 3e f5 46 11 be
       1.1120812 0.19129625 0.27296865 -0.14187224
0000e0 b8 2a ab 3e 1f b5 64 be 66 ac 97 3d fd 12 47 be
       0.3343103 -0.22334717 0.07405929 -0.19440837
0000f0 66 f5 b0 3f d7 19 2c bf 08 46 30 bd 02 af b7 bf
       1.382489 -0.6722693 -0.043035537 -1.4350283
000100 be ba 05 bd 35 ac fc 3e fb 15 be be 0e c2 a4 bd
       -0.032648794 0.49350134 -0.37126145 -0.080448255
000110 46 fa 25 be 20 b7 4d 3f 63 b2 e4 bf 9c 1b aa 3f
       -0.16208753 0.8035755 -1.7866939 1.3289676
000120 c6 e4 fc 3f 90 ad a3 bc 1c ab c1 be de a6 b7 bc
       1.9757316 -0.019980222 -0.3782586 -0.022418436
000130 b1 43 e1 ba 64 82 1e bf 32 2f c2 be 03 3b ee 3e
       -0.0017186311 -0.6191771 -0.37926632 0.46529397
000140 62 bd da be 43 bc a6 be 54 5c 27 3f 67 5e 18 c0
       -0.42722613 -0.32565507 0.65375257 -2.3807619
000150 a4 6a 10 c0 f3 ca f7 3f 98 71 3b be a6 2f 25 bd
       -2.2565088 1.935881 -0.18305051 -0.040328644
000160 b3 10 3e be 4a 8e 0f be c6 c8 49 3e b9 0c c8 3c
       -0.18561058 -0.14019123 0.19705495 0.02442013
000170 52 5d ee bd 76 47 ac 3e c4 45 c5 3d 31 92 3d 3d
       -0.11638893 0.3364827 0.09632447 0.046281997
000180 3a 98 9d be 07 14 42 3d c8 d8 d3 3e 76 ad d7 3e
       -0.30780202 0.04738238 0.41376328 0.42124528
000190 57 90 a7 be ad 43 56 3f e7 0b 8e bf d1 6a 58 3f
       -0.3272731 0.83697015 -1.1097382 0.8453799
0001a0 e5 d6 c7 be 3e 7c a1 bf ea 69 34 be 61 71 70 bf
       -0.3903114 -1.2616041 -0.17618528 -0.93923
0001b0 b1 83 95 3e 1d 4e 0d 3f 41 f9 ae 3e 5d f0 5d 3f
       0.29202035 0.55197316 0.3417454 0.8669489
0001c0 51 dd b4 3d 77 76 ea be 08 92 29 3e 9c 06 a2 3d
       0.08831275 -0.45793507 0.16559613 0.07911417
0001d0 76 c3 e6 3e 42 70 eb bf f3 62 d4 be d1 20 9e be
       0.45071 -1.8393633 -0.41481742 -0.30884412
0001e0 3f e4 89 3d ec 56 ad 3d dd ec ab 3e 5e 28 b7 3d
       0.067329876 0.08463845 0.3357915 0.08943246
0001f0 ab 29 61 3e 0b 43 85 bd 50 49 38 3f a2 50 17 bf
       0.21988551 -0.06506928 0.71986866 -0.5910741
000200 2d 90 14 bd 78 79 4a bf df a7 2f 3d ba c4 fe 3f
       -0.03627031 -0.79091597 0.042884704 1.9903786
000210 50 9b f7 3b fa 1c 42 be 7d df e5 bd c5 b6 a7 bd
       0.0075563565 -0.18956366 -0.11224268 -0.081891574
000220 92 71 85 bf a5 49 e0 bf 00 05 0a 3f 72 c1 2e be
       -1.0425284 -1.7522475 0.5391388 -0.17065981
000230 db cb aa bd 4d d6 35 bf fd d1 85 3d c5 9a d5 3e
       -0.083396636 -0.7103012 0.06534193 0.41719642
000240 69 31 2f 3e a9 bf 86 3f 26 20 95 3c 4b 96 ee 3e
       0.17108692 1.052724 0.018203806 0.4659904
000250 86 ff 92 be 67 55 5e bf 98 e6 60 3e 52 ee e8 3e
       -0.28710574 -0.86849064 0.21962965 0.45494324
000260 e9 40 e3 bd e0 26 66 be 95 6f 5f 3e 5b c5 01 3f
       -0.11096365 -0.22475767 0.21819909 0.50691766
000270 d6 64 c4 be 17 e9 d5 be cb f9 14 bf 1f 9f 32 3f
       -0.38358182 -0.41779396 -0.58193654 0.6977405
000280 9a 5e 0a be d0 13 41 bd 64 78 27 bf d5 dd 34 bd
       -0.1351265 -0.047138035 -0.65418077 -0.044156868
000290 cf 4f 93 3f ba e6 82 3d 32 6f 21 3f 82 c4 f0 be
       1.1508731 0.06391664 0.63060296 -0.47024924
0002a0 51 10 c9 bd 83 d3 df 3f 90 19 8a be 6f 1a c0 bf
       -0.09817565 1.7486423 -0.26972628 -1.5008067
0002b0 65 f3 15 bd f0 dc b5 bd bf 4d 41 3e f4 d2 c7 be
       -0.036609072 -0.08880031 0.18877314 -0.39028132
0002c0 0d 48 72 3e 30 e1 a1 be aa 1b 12 3e 7e 5e 67 3f
       0.23660298 -0.31617117 0.14268366 0.9037856
0002d0 d7 af d7 bd d9 6c ed be ce 42 80 bf 61 26 bf bf
       -0.10531586 -0.46372107 -1.0020387 -1.4933587
0002e0 51 2d bf bf cf e9 97 be 4b a4 e2 bd a6 23 46 3e
       -1.4935704 -0.2967057 -0.11066493 0.19349536
0002f0 6e 4c 99 be ba d8 cd 3e 80 63 c6 be e5 6e 3c be
       -0.29941124 0.40204412 -0.38747787 -0.18401678
000300 6d f6 19 3f 00 3a 1a 3f 80 a5 d5 b9 74 67 1b bf
       0.6014164 0.6024475 -0.00040749833 -0.6070473
000310 e8 00 38 bd 66 b0 8b bf 8c 18 77 3f 2b fb de 3e
       -0.04492274 -1.0913208 0.9652183 0.43551
000320 ed 89 9c bd 0c d5 ea be e4 1f b5 be 25 94 d9 bd
       -0.07643495 -0.45865667 -0.35375893 -0.106239595
000330 e5 3c 0e 3f 15 ee 30 bf 99 34 fd bf 79 7b dc 3d
       0.5556167 -0.69113284 -1.9781677 0.10765738
000340 3a 4e 77 3e ae ae a7 3e 4f 6a 3b be 6f 9c 00 bf
       0.24150935 0.32750458 -0.18302272 -0.502387
000350 ed 11 2c bf 79 a5 19 3f ea 19 72 3e e4 73 1a 3f
       -0.6721485 0.60018116 0.23642698 0.60333085
000360 47 0a f9 be 04 7f a7 be b0 f2 0e be 7c f9 12 3e
       -0.48640653 -0.32714093 -0.13959765 0.14352983
000370 ff d5 ac 3f 82 39 8e 3d 2f 83 a1 be 58 98 cd 3e
       1.3502806 0.069445625 -0.31545398 0.40155292
000380 4d b4 e6 bd 59 7b 60 3f 3e 14 27 3e 80 9c 65 ba
       -0.112648584 0.87688214 0.16316316 -0.0008758977
000390 20 fd 71 bf 00 56 a7 3b 05 b6 2d 3f fd eb 66 3e
       -0.94526863 0.0051066875 0.67855865 0.2255096
0003a0 a4 36 86 bc 29 bd 87 bd 4b dc a3 be f5 16 a0 3e
       -0.016383477 -0.06627876 -0.32004008 0.31267515
0003b0 33 eb f3 3b 19 08 07 be 11 fe 9b bd 1c 42 ad be
       0.0074438094 -0.13186683 -0.07616819 -0.338395
0003c0 02 0d 1f 3e 1b 0d 63 3e ce e9 ed 3e d1 6a 84 3e
       0.15532306 0.22172968 0.4646744 0.25862744
0003d0 dd 1e 8f bf be 68 36 be d9 3f ea 3e 83 0c 92 bf
       -1.1181294 -0.17813393 0.45751837 -1.1410068
0003e0 32 34 85 3f 63 41 3d 3e 4a ab ca 3e 7b 5e 13 bd
       1.0406554 0.18481974 0.39583808 -0.035978775
0003f0 6d 0e 08 3d 7c a7 92 be 80 7e 1e bf 2c d6 e9 be
       0.033216882 -0.28643405 -0.61911774 -0.45671213

fc1.bias f4 [400]
000000 90 9c 15 bf 26 f1 a1 bf b3 f7 af be 75 bd 65 bf
       -0.5844202 -1.2651718 -0.34368667 -0.89742213
000010 af e4 51 bf 4b 04 e8 be 07 98 65 bf 1c 37 8b bf
       -0.8198957 -0.45315775 -0.896851 -1.0876193
000020 51 a2 8a bf ad 42 26 be ae 75 52 bf e5 42 1f bf
       -1.0830785 -0.16236372 -0.82210815 -0.6221145
000030 64 13 f1 be fe 17 2a bf 34 2c b8 bd c3 da a2 bf
       -0.47085106 -0.6644286 -0.08992806 -1.2723011
000040 ee 76 6d bf 7e 7b 58 bf 14 dd a2 bf 68 bb 8d bf
       -0.927596 -0.84563434 -1.2723718 -1.1072817
000050 bb 59 a2 bf 53 30 4d bf d6 74 2d bf 48 52 9c bf
       -1.2683634 -0.8015186 -0.677564 -1.221261
000060 a5 da 93 bf 2e d4 4c bf 3d d9 ca be 6c 03 07 bf
       -1.15511 -0.8001126 -0.39618865 -0.52739596
000070 26 81 e1 be 67 4d 56 bf 07 49 27 bf 98 de ad 3d
       -0.44043845 -0.83711857 -0.65345806 0.08489722
000080 b1 ec 81 bf 1b ca 1d bf eb 7f 94 bf 61 f1 c2 be
       -1.0150357 -0.61636513 -1.1601537 -0.38074782
000090 ae df 36 bf fd f7 6c bf 81 e9 d2 bf 70 6a 73 bf
       -0.7143506 -0.925659 -1.647751 -0.95084286
0000a0 99 ed 9b bf 68 d3 76 bf 81 fa 22 bf 7e b9 30 bf
       -1.2181884 -0.9641633 -0.6366349 -0.6903304
0000b0 cd 0e 9e be f6 74 44 bf b8 45 5f bf 9c a5 87 bf
       -0.30870667 -0.7674097 -0.8721576 -1.0597415
0000c0 7d 99 67 bf ee 59 81 bf 96 51 5e bf 58 52 02 bf
       -0.9046858 -1.0105569 -0.8684324 -0.50906897
0000d0 7e 0c df be 9e 16 6e bf 96 9c 19 bf b1 c1 85 bf
       -0.43564218 -0.9300326 -0.60004556 -1.0449735
0000e0 20 77 86 bf 8b a5 91 be d4 83 05 bf c6 ab 8c bf
       -1.0505104 -0.28446612 -0.5215428 -1.0989921
0000f0 42 08 46 bf f1 f4 28 bf 28 25 ab bf c4 c5 44 bf
       -0.7735635 -0.6599875 -1.3370714 -0.76864266
000100 50 d8 f1 be 53 32 08 bf 9c 07 e4 be 50 8e 39 bf
       -0.47235346 -0.5320179 -0.44537055 -0.72482777
000110 87 a9 63 bf 3a e3 1a bf e5 ac 97 bf 20 5f 8f bf
       -0.88930553 -0.6050297 -1.1849638 -1.1200905
000120 5e 6f 8d bf 9a db 60 bf 20 a6 74 bf 2e 84 a5 bf
       -1.1049612 -0.87835085 -0.95565987 -1.2930963
000130 8c 3a 74 be 25 ec 27 bf f2 31 48 bf 64 26 0c bf
       -0.23850459 -0.655947 -0.7820121 -0.5474608
000140 58 d5 12 bf 20 37 72 bf f5 65 25 bd 4e 0e 8b 3d
       -0.57356787 -0.94615364 -0.040380437 0.06789838
000150 2d 08 97 bf fd 91 aa bf 27 a8 89 bf f7 9a 16 bf
       -1.179937 -1.3325802 -1.0754441 -0.5883021
000160 0c 82 50 bf 98 31 82 bf b8 41 a3 bf d9 4f 57 bf
       -0.81448436 -1.0171385 -1.2754431 -0.8410621
000170 15 c3 a2 bd a4 6b 39 bf ea 1d 72 bf 9a fb 96 bf
       -0.07947365 -0.7242987 -0.94576895 -1.1795533
000180 64 70 02 bf 51 56 67 3d c6 b2 27 bf 00 0a ce bf
       -0.50952744 0.056478802 -0.6550716 -1.6096802
000190 69 de 31 bf 7c df a1 be fb 5f 96 bf 1a 91 e7 be
       -0.69479996 -0.31615818 -1.1748041 -0.4522789
0001a0 8a af ce bf 8b fc ab be af 98 6a bf 6f 3b 8a bf
       -1.614732 -0.33591112 -0.91639227 -1.0799388
0001b0 20 29 60 bf 62 e7 98 bf 5e a9 3f bf 08 4b 95 bf
       -0.8756275 -1.1945612 -0.7486781 -1.1663523
0001c0 ad 24 f6 3d 88 3f 63 bf 38 3e 05 bf 2f f5 89 be
       0.12018714 -0.88768816 -0.52048063 -0.26944873
0001d0 6f ad 95 bf 0b 82 b6 3e fd b7 4f bf ec c2 33 bf
       -1.1693553 0.3564609 -0.8114012 -0.702193
0001e0 2f 6e bf bf c9 09 3d bf a3 73 17 be 81 9e 0e bf
       -1.49555 -0.73843056 -0.14790206 -0.5571061
0001f0 31 93 47 bf 2a 78 df be 6c 06 5c bf a7 26 33 bf
       -0.7795897 -0.43646365 -0.859473 -0.69980854
000200 c1 81 46 bf 98 ae ce be 3c 23 cc 3e 9d 14 69 bf
       -0.7754174 -0.4036758 0.39870632 -0.9104708
000210 67 b2 b1 be e3 2b bd bd 22 fe 86 be ce a0 13 bf
       -0.34706423 -0.09236886 -0.26365763 -0.57667243
000220 e8 cf 6a bf 00 a4 5b bf 07 be ac bf e7 c1 99 bf
       -0.9172349 -0.8579712 -1.3495492 -1.2012299
000230 c4 43 b8 bd 0c da cd bf 27 0f bc be cb 44 44 3d
       -0.089973 -1.6082168 -0.3673031 0.04791717
000240 93 21 b1 bf 2c c5 aa bf 3d 32 10 bf fc 57 57 bf
       -1.3838371 -1.3341422 -0.5632666 -0.8411863
000250 89 8e 3f be 2c c2 2c bf ae bc b6 bf b3 db 07 3d
       -0.18706717 -0.6748378 -1.427633 0.033168506
000260 99 f0 51 bf e4 c4 6c bf d4 a1 da be 95 96 df be
       -0.8200775 -0.9248793 -0.4270159 -0.43669572
000270 3d 4e 52 bf a7 c6 51 bf 20 69 9a bf 1e 3a 39 bf
       -0.8215063 -0.81943744 -1.2063332 -0.72354305
000280 dc fe 5f bf 08 fd 95 be 8c 0c 17 bf eb f2 9b be
       -0.8749826 -0.2929461 -0.5900352 -0.3045877
000290 57 69 9a bf 13 ea 3f bf 96 ce 46 bf af a6 6a be
       -1.2063397 -0.74966544 -0.77658975 -0.22915147
0002a0 11 3f 07 bf 7d f6 41 bf 75 2d e0 be 12 26 31 bf
       -0.52830607 -0.75766736 -0.4378468 -0.69198716
0002b0 9d 73 a4 bf 00 12 ee be 10 ae 66 bf fc 70 89 bf
       -1.2847782 -0.46498108 -0.9010935 -1.0737605
0002c0 ed 52 06 bf 7f f2 8f bf af 1f 25 bd bb 04 1a be
       -0.52470285 -1.1245879 -0.04031342 -0.15040867
0002d0 d4 00 2a be 72 29 72 3d af d8 77 bf f3 81 c2 bf
       -0.16601878 0.059121557 -0.9681501 -1.5195907
0002e0 93 44 fe be ed e9 06 bf cd 38 84 bf 0d 56 9c bf
       -0.49661693 -0.5270069 -1.0329834 -1.2213761
0002f0 52 1f e0 bd 1d 18 c9 bf 2d ba a7 bf d8 65 eb be
       -0.10943474 -1.5710484 -1.3103691 -0.45976138
000300 12 a4 85 bf 3b 27 33 bf 3a bc 75 bf a9 0a 60 bf
       -1.0440695 -0.69981736 -0.95990336 -0.87516266
000310 64 ab 4b bf 4b cb 6f bf 63 69 be be b6 47 71 bf
       -0.79558396 -0.93669575 -0.3718978 -0.9425005
000320 8b e5 06 bf 45 90 57 3e 01 8e 57 bf 7e 88 1a bf
       -0.52694005 0.21051128 -0.84201056 -0.6036452
000330 1c 24 cc be 24 db 8e be 7f 8c 5c bf eb 28 bb bf
       -0.398713 -0.27901566 -0.8615188 -1.4621862
000340 a8 be 81 bf f0 b0 b1 bf 15 2d 23 bf 38 67 87 bf
       -1.0136309 -1.3882122 -0.63740665 -1.0578375
000350 c4 fa 68 bf 6b 98 ac bf db ee 25 bf 3d 8a ed be
       -0.9100764 -1.3484014 -0.6481759 -0.4639453
000360 02 a6 25 bf 08 0a 8c bf 92 c2 e3 be 75 2e 19 bf
       -0.6470643 -1.0940561 -0.44484383 -0.5983651
000370 39 e4 b5 be 96 30 a5 bc b4 f7 96 bf fe 66 ad bf
       -0.35525683 -0.02016477 -1.1794343 -1.3547056
000380 8b 6a 8c bf 25 b7 9b be 50 16 64 bf a8 fe 24 bf
       -1.0970014 -0.30413166 -0.89096546 -0.64451075
000390 41 10 23 bf 43 eb 69 bf 3a 08 3a bf d2 3c 42 bf
       -0.63696676 -0.91374606 -0.726688 -0.75874054
0003a0 55 16 7b bf 1f 52 17 bf 1e a5 27 bf 8c 50 8e bf
       -0.9808095 -0.5910968 -0.65486324 -1.1118331
0003b0 51 29 16 bf 8a aa ba bf 38 9f 8a bf a7 ae 85 bf
       -0.58656794 -1.4583294 -1.082984 -1.0443925
0003c0 08 93 32 bf a0 d8 94 3e 41 06 63 be 30 21 a4 be
       -0.697556 0.29071522 -0.22170354 -0.3205657
0003d0 9b 74 2b bf 6d b7 c4 be 1a b0 0f bf d2 84 bc bf
       -0.669748 -0.38421193 -0.56128085 -1.4728034
0003e0 6f 96 77 bf 1b f0 24 bf d3 5c 07 bf 8e b7 80 bf
       -0.9671392 -0.6442887 -0.52876014 -1.0056016
0003f0 69 40 9a bf af 12 96 bf 6b c7 39 bf 10 6a 52 bf
       -1.2050906 -1.1724452 -0.7256991 -0.8219309

bn1.weight f4 [400]
000000 a3 ed c8 3e 9d ae df be f3 6f b6 3e 80 af be 3e
       0.39243802 -0.43687907 0.35632285 0.3724327
000010 fd ae be 3e a9 80 6e 3e 2b 2a 36 3e 67 7a 90 3e
       0.3724288 0.23291267 0.17789523 0.28218386
000020 5e 45 c6 3e 17 10 c3 3e d3 cf 8a 3e c2 3d 93 3e
       0.38724798 0.38098213 0.27111682 0.28758055
000030 57 e5 a2 3e b5 6e b6 3e 72 83 9c 3e ff 42 7d 3e
       0.31815597 0.35631338 0.30569035 0.24732588
000040 c3 4d b0 3e 03 c5 91 3e 30 a8 ac 3e 45 85 a7 3e
       0.34434327 0.2847062 0.33722067 0.32718864
000050 08 84 88 3e b0 be 76 3e 07 72 04 3f 8b 05 9f 3e
       0.26663232 0.24096179 0.5173649 0.31058916
000060 87 cd a6 3e 46 08 25 3e ba 3a 9f 3e fd e1 08 3f
       0.3257868 0.16116437 0.31099492 0.5346983
000070 1b f9 b5 3e c4 ec 39 3f 1b 7e fe 3e 98 f6 ad 3f
       0.35541615 0.726269 0.49705586 1.359088
000080 8c a0 5e 3e 92 20 82 3e b8 ab e4 3e 77 8a 95 3e
       0.21740931 0.25415474 0.4466226 0.29207203
000090 93 bf ad 3e 75 aa 52 3f 36 12 67 3e 7a 27 48 3e
       0.33935222 0.82291347 0.2256554 0.19546309
0000a0 e6 1e 7f 3f bf 93 22 3f f6 61 93 3e 0b ea 18 3e
       0.9965652 0.6350669 0.28785676 0.1493303
0000b0 d9 ab a4 3e 6f 22 6c 3e 03 a6 81 3e b3 cf 83 3e
       0.3216236 0.2306001 0.2532197 0.257444
0000c0 5b 62 d9 3e f2 83 cc 3e b1 76 8f 3e 65 ea 84 3e
       0.42457852 0.39944416 0.28020242 0.2596008
0000d0 53 fd b5 3e af 98 57 3e ee d3 59 3e c8 35 16 3e
       0.35544834 0.21054338 0.21272251 0.14668953
0000e0 e1 9b 4c 3e 62 d4 f7 3e fc 3b b2 3e a9 f8 2f 3f
       0.19981338 0.48404223 0.3481139 0.687388
0000f0 87 a8 8d 3e 3d 7b 83 3e 9a 7c 94 3e ca c1 b3 3e
       0.2766764 0.2567996 0.29001313 0.35108787
000100 6c 31 a0 3e e2 83 2e 3f 2d 59 ce 3e c2 d2 92 be
       0.31287706 0.6816999 0.4030241 -0.2867642
000110 ed fa 84 3e 0d 59 94 3e 02 99 91 3e a1 a7 5d 3e
       0.2597269 0.2897419 0.28437048 0.21645977
000120 96 c7 a5 3e fd 93 94 3e d7 a8 aa 3e fc ca f9 3e
       0.32378834 0.29019156 0.3333194 0.48787677
000130 d6 9b b5 3e bb b6 db 3e 1a 42 b0 3e 04 89 ec 3e
       0.35470456 0.4291285 0.3442543 0.46198285
000140 7d 8f 13 3f 87 2e 19 3f 05 46 f0 3e 44 33 8c 3e
       0.5764082 0.5983662 0.4692842 0.27382863
000150 42 33 4d 3f 74 7b c2 3e 4c 99 20 3f 54 0b 8b 3e
       0.8015634 0.37984812 0.6273391 0.2715708
000160 92 53 ae 3e f0 cb 9e 3e 89 49 81 3e 14 73 9c 3e
       0.34048134 0.31014967 0.25251415 0.30556548
000170 b3 e1 7e 3e 45 2b b7 3e 9f 2c 55 3e a3 d3 85 3e
       0.24890785 0.357752 0.20817803 0.26138029
000180 9f 29 bc 3e 19 81 7f 3e 8b 5d 45 3e 86 48 b6 be
       0.36750504 0.2495159 0.19273965 -0.35602206
000190 a7 2b 96 3e 53 a7 bf 3e c2 bb ec 3e 38 eb af 3e
       0.2933018 0.37432346 0.46236998 0.34359145
0001a0 32 68 a9 3e 10 f5 ca 3e a6 07 89 3e 9f 99 9d 3e
       0.33087307 0.39640093 0.26763648 0.30781266
0001b0 67 7c a4 3e 16 19 f2 3d b9 12 61 3e df 66 a6 3e
       0.3212616 0.11821191 0.21979798 0.3250036
0001c0 c7 27 e9 3e db 0c 8a 3e 11 58 45 3f 94 4d 95 3e
       0.4553816 0.26962933 0.77087504 0.2916075
0001d0 3b 73 b7 3e 92 85 80 3f 64 eb f7 3e fc 9c ac 3e
       0.358301 1.0040762 0.48421776 0.3371352
0001e0 c7 f2 dc 3e 09 49 a6 3e db 7f 81 3e 60 e6 f8 3e
       0.43153974 0.32477596 0.25292858 0.48613262
0001f0 88 17 99 3e 03 8e 59 3e 38 ca e4 3e 43 d3 45 3f
       0.29900765 0.2124558 0.4468553 0.77275485
000200 23 3a b7 3e 60 18 94 3e b7 14 13 3f 17 f3 a6 3e
       0.35786542 0.28924847 0.57453483 0.32607338
000210 4f d7 91 3e 6a fa 0b 3f 08 7b ea 3e 8c 79 bd 3e
       0.2848458 0.54678977 0.4579699 0.37006795
000220 08 83 d2 3e 68 17 bd 3e d3 69 8b 3e 43 06 fb 3d
       0.41115594 0.3693192 0.27229175 0.12257054
000230 00 fe 90 3e 18 bf 8b 3e e4 8a cb 3e 9a c0 9b 3e
       0.28318787 0.2729423 0.39754403 0.3042038
000240 34 cb 6f 3e 04 aa 05 3f 72 74 be 3e 99 c4 ae 3e
       0.2341736 0.5221255 0.37198216 0.34134367
000250 db 61 63 3e d2 56 9e 3e a9 da dc 3e 1b 55 82 3e
       0.22205298 0.30925614 0.43135574 0.25455555
000260 93 a5 d0 3e 57 19 b5 3e 89 fd 90 3e f2 06 c3 3e
       0.40751323 0.35370895 0.28318432 0.38091236
000270 58 a2 ca 3e 92 a8 7e 3e 5b 1f 9d 3e ef 1e de 3f
       0.39576983 0.24868992 0.30687985 1.735319
000280 08 e6 bd 3e 70 15 a4 3e 8c bf 65 3e 3f 7e e3 3e
       0.37089562 0.32047606 0.2243635 0.44432256
000290 05 48 ab 3e 09 d4 8a 3e 04 aa c5 3e d5 a6 3a 3e
       0.33453384 0.27114895 0.38606274 0.18227704
0002a0 73 cd 24 3f cc 6e 90 3e e6 c9 a8 3e be f4 f4 3e
       0.6437599 0.2820953 0.32966536 0.47842973
0002b0 1e 06 9c 3e e8 61 94 3e 8f f1 f0 3e 90 69 48 3e
       0.30473417 0.28980947 0.47059295 0.19571519
0002c0 a2 fb a6 3e 76 ed 8b 3e 4e 7d 90 3e 40 ea 06 3f
       0.32613856 0.27329606 0.282206 0.5270119
0002d0 00 93 83 3e 68 3a c2 3e 2c 2a ac 3e f4 38 88 3e
       0.2569809 0.37935185 0.33625925 0.26605952
0002e0 58 de 73 3f 9e c0 35 3f ae d2 81 3e 9d 6b 3c 3e
       0.95261145 0.70997036 0.25356048 0.18400426
0002f0 c8 61 ac 3e a2 99 8d 3e aa 2e 60 3e ff 69 9e 3e
       0.3366835 0.27656275 0.21892801 0.30940244
000300 5c 6d 3d 3e d4 10 a9 3e c4 fc 9b 3e 36 23 59 3e
       0.18498749 0.3302065 0.30466282 0.21204838
000310 06 81 65 3e bd 58 cf 3d 21 66 cb 3e 78 48 39 3e
       0.224125 0.10124347 0.39726356 0.18094051
000320 a7 9f 70 3e 49 e4 bc 3e 33 66 c7 3e bf 2c da 3d
       0.23498403 0.36892918 0.3894516 0.10653066
000330 ed 00 9c 3e 0e 6b 9e 3e f7 b8 eb 3e 47 f2 09 3f
       0.30469456 0.3094105 0.46039554 0.5388531
000340 7b 99 a2 3e 62 73 bc 3e 28 9d a9 3e 0b 5d 06 3f
       0.3175772 0.3680678 0.33127713 0.5248572
000350 a0 77 d7 3e fa 3a ac 3e 39 f9 db 3e 7b 99 83 3e
       0.42083454 0.33638746 0.4296358 0.25703034
000360 65 44 12 3e f7 02 08 3f 1c df 16 3f a2 0c b6 3e
       0.14283903 0.53129524 0.5893419 0.35556513
000370 c9 7e d5 3e 34 27 79 3f b3 59 c5 3e 53 26 cf 3e
       0.41698292 0.97325444 0.38544998 0.40458927
000380 e0 8b 99 3e aa 7b a4 3e 37 15 af 3e 25 6d aa 3e
       0.2998953 0.32125598 0.34195873 0.33286396
000390 fc 71 e8 3e c2 91 c6 3e ce 3f 91 3e f9 44 23 3e
       0.45399463 0.3878308 0.28368992 0.1594428
0003a0 d7 91 72 3e df 5c f1 3e cf 75 98 3e 27 ab 9f 3e
       0.23688446 0.47141168 0.2977738 0.31185266
0003b0 ae a8 bf 3e 9f 08 3c 3e 58 c7 08 3f 4e 3d 09 3f
       0.3743338 0.18362664 0.53429174 0.5360917
0003c0 22 e1 a4 3e 7f 91 9c 3e 64 e4 ef 3e b9 3f a4 3e
       0.32203013 0.30579755 0.46853936 0.32079867
0003d0 22 62 c3 3f e4 ac e7 3e 76 f8 90 3e db 3d 5d 3e
       1.5264323 0.45249093 0.2831456 0.21605627
0003e0 bd a7 7a 3e cb 7d b8 3e 06 50 09 3f 57 fe 9d 3e
       0.2447805 0.36033472 0.5363773 0.30858108
0003f0 ec d0 a0 3e 33 85 a0 3e 68 e1 b3 3e 6a b1 71 3e
       0.31409395 0.31351623 0.3513291 0.23602834

bn1.bias f4 [400]
000000 ec 8b 20 3e 03 7f b2 be 1e 87 1d 3d 9b 54 ea 3d
       0.15678376 -0.34862527 0.038458936 0.114419185
000010 2c 0d bd 3d 6f 5c 90 3b e2 23 0b bd 22 ba 49 bd
       0.09231028 0.00440555 -0.033969767 -0.049249776
000020 64 b4 af 3d 7a 1a a8 3d fa ef 3e 3c 89 b9 a4 3d
       0.08579329 0.08208175 0.011653895 0.080432005
000030 11 23 ac 3d 70 04 0b 3e 47 46 8b 3d 5b d8 bd bb
       0.08405126 0.13575912 0.06800514 -0.005793614
000040 b1 09 9e 3d c7 e9 8e 3d 89 54 2f 3e 01 38 35 3d
       0.07716692 0.06978183 0.17122091 0.044242863
000050 60 b0 5a 3d 57 ab 97 3d a5 04 f6 3d 3c 13 70 bd
       0.05339086 0.07405727 0.120126046 -0.058612093
000060 f9 90 58 3e 3d 0c 96 ba f0 f9 0d 3e 33 43 d7 3e
       0.21149053 -0.0011447739 0.13864875 0.42043456
000070 a6 94 2a 3d 77 f7 fe 3e ea f0 96 3e 4f ce 3d 3f
       0.04164567 0.49798176 0.29480678 0.74142927
000080 32 b3 f4 bd 2d 16 5a 3d a6 39 9b 3d ad ab fb 3b
       -0.11948241 0.053243805 0.07579355 0.0076803775
000090 30 a6 7c 3d 16 52 bf 3e c7 b5 c8 3c 85 c8 96 bd
       0.061681926 0.37367314 0.02450074 -0.07362465
0000a0 66 6a df 3e a6 53 dc 3e 98 f2 ce 3d 0f f2 1d 3d
       0.43635863 0.4303257 0.10104865 0.038560923
0000b0 bd a4 0c 3e 10 f6 41 bd 3f d4 c2 3d fa 56 ff bc
       0.13734718 -0.047353804 0.09513139 -0.031169403
0000c0 99 0d 16 3e cc 6f 3a 3e f3 04 7b bd ec 62 a4 3d
       0.14653625 0.1820671 -0.061284017 0.0802668
0000d0 7f f9 ec 3c da be 18 3d e4 72 ee 3d 89 71 43 3c
       0.028927563 0.037291385 0.116430074 0.011928924
0000e0 aa aa fb 3b b2 4f 1e 3e 36 ac 3f bd a8 37 2c 3f
       0.007680257 0.15460089 -0.046795093 0.67272425
0000f0 c8 c0 ac bd 5f 01 5e 3d ad b3 87 bc e2 87 29 3e
       -0.084352076 0.054200526 -0.016565168 0.16555741
000100 56 e9 f5 3d b0 0c 13 3f 52 87 77 3e 7b f9 c1 bd
       0.12007396 0.57441235 0.24172714 -0.09471413
000110 0b de 51 3d 83 25 74 3d 72 d9 af bc d4 c1 6c 3d
       0.051237147 0.059606086 -0.02146599 0.057802036
000120 ad dc 82 3d 71 c4 7a 3d 2f fa 24 bc 28 83 c6 3d
       0.06389747 0.061222497 -0.010069414 0.09692985
000130 09 ae c6 3d fb bb 40 3e 4c bd 1c 3d 12 3f 1b 3e
       0.09701163 0.18821709 0.038266465 0.15160778
000140 c0 5e 8e 3e 85 f0 93 3e 49 4c be 3d 59 09 2a 3d
       0.27806664 0.2889444 0.09291894 0.04151282
000150 b9 4f 94 3e cc 7d 44 3d 19 f4 4a 3e 67 f4 39 3c
       0.28967074 0.04797153 0.19819678 0.011349774
000160 5a 6f b8 3d ba ac 6e 3b 10 06 4d 3d 80 b9 9f 3d
       0.090056136 0.003641887 0.05005461 0.07799053
000170 22 2d c5 3d 2f ef f8 3d de 0d 5d bc e6 1d cf 3a
       0.09627749 0.12154996 -0.013492076 0.0015801757
000180 a9 bd 9c 3e 98 74 0d 3d 02 7e 68 bc a7 a6 1a be
       0.3061345 0.03453502 -0.014190199 -0.15102635
000190 1d 81 89 bc d1 cb d1 bc bc 83 4a 3e 5d 99 fa 3d
       -0.016785199 -0.025609883 0.19776815 0.12236283
0001a0 e8 2d 4e 3d 91 4d 3c 3d d8 9d 9b bc e8 44 e9 3d
       0.05033675 0.04597241 -0.018996164 0.11390096
0001b0 c1 cc b8 3d 54 89 eb 3c 43 71 a3 bd 83 1f 21 3e
       0.09023429 0.028752007 -0.07980587 0.15734677
0001c0 8f 95 32 3f 52 4c 3c 3d cd c3 e8 3e 1c 4b 12 3e
       0.6975946 0.045971222 0.45461884 0.14286464
0001d0 1d ee 7f 3d c5 30 a3 3e e9 b6 68 ba 71 d8 b9 3d
       0.062482942 0.31873146 -0.00088773534 0.09074486
0001e0 bc 76 29 be c0 0f b5 3d 6b 7a 44 bc a9 3e 57 3e
       -0.165492 0.08840895 -0.011992077 0.21019997
0001f0 2c 5b 30 3d a6 48 91 3d be 84 d9 3d bc 33 84 3f
       0.0430557 0.07093935 0.10621022 1.0328288
000200 40 4d d8 3d 94 aa 95 3d f0 a5 d3 3e fd 60 7e 3d
       0.10561609 0.07307926 0.41337538 0.062104214
000210 ee ce 02 3e b4 b8 9e 3e a9 d0 fd 3d 66 d9 4c 3e
       0.1277425 0.31000292 0.123933144 0.20004806
000220 23 39 26 bd 11 dd 13 3e 1f 9f bb 3c 91 9f 1b bd
       -0.040581834 0.14439799 0.022903023 -0.03799397
000230 d1 ae 05 3e ca 25 f4 3c 90 fc a2 3d 49 e3 81 3c
       0.13054968 0.029803175 0.07958329 0.015855448
000240 73 39 84 bd 70 24 2c 3e 8c 44 2a 3e 11 e9 12 3e
       -0.0645627 0.16810775 0.16627711 0.1434672
000250 79 73 a4 3c 45 a6 2c 3d e5 6b 8b 3e d3 c7 0d bb
       0.020074593 0.042150754 0.27230754 -0.0021633997
000260 80 82 0d 3f 16 1c 3e 3e 52 df 52 3e 04 30 86 bd
       0.5527725 0.18565401 0.20593002 -0.06552127
000270 b1 c2 11 3d b1 86 5b 3d ea a2 76 3d 18 14 c1 3f
       0.035586063 0.05359525 0.06021396 1.5084257
000280 89 f0 fb 3d 67 5f a9 3c 47 f5 b7 3d 04 9a c5 3e
       0.12301738 0.020675374 0.0898233 0.38594067
000290 c0 96 46 bd e8 c8 28 3e 66 40 2b 3e ce 6c 83 3d
       -0.04848361 0.1648289 0.16723785 0.06417237
0002a0 40 2a 0d 3e 28 ea 02 3e 1e 48 6f 3e 56 f3 9c 3e
       0.13785648 0.12784636 0.23367354 0.306544
0002b0 4a d8 97 3d 07 38 05 3e 58 ba 9b 3d 25 aa 0e 3d
       0.07414301 0.13009654 0.076039016 0.03483023
0002c0 ea 9e df 3d dc f9 e2 3c 05 a2 8c 3d ef 85 e2 bd
       0.10918982 0.027707033 0.0686684 -0.11060702
0002d0 49 bc 06 3c fb fb 11 3e df 9c 83 3d 60 81 15 ba
       0.008223602 0.14256279 0.06426405 -0.00057031773
0002e0 94 39 e2 3e b4 73 8e 3f 63 2d 76 3d 5a a4 bb bc
       0.44184554 1.112906 0.060101878 -0.022905517
0002f0 2f 2e dc 3d 5d d7 06 3d 12 69 b8 bc 2a 29 dc bd
       0.10750996 0.03292023 -0.022511039 -0.10750039
000300 f1 0b a0 3d d1 d8 dc 3d 46 c2 e3 bd 75 37 b4 bd
       0.07814778 0.10783542 -0.11121039 -0.0879964
000310 6d 3a 0f 3e e2 28 b6 bc 17 bb 04 3e 7a bc 1b bc
       0.13987131 -0.022236291 0.12961994 -0.0095053855
000320 3b 50 22 3d fa 07 06 bb 4f a6 30 3e bc b1 12 bd
       0.039627295 -0.0020451532 0.17250942 -0.035814032
000330 29 e7 74 3d 0e 15 a4 3d d5 09 3d 3e 42 8f 86 3e
       0.059790764 0.08011828 0.18460782 0.26281172
000340 db 61 00 3e 1c ac 27 3d 8d 7e 37 3e 84 3c 2d 3e
       0.12537329 0.04093562 0.17919369 0.16917616
000350 7b 94 05 3e cc 7b 3b bd e5 4c ea 3d 2e 7c b7 bd
       0.13044922 -0.04577236 0.11440448 -0.08959232
000360 a7 af 0d 3d f0 14 03 3e bd 97 8f 3e b3 5a 1f 3d
       0.034591343 0.12800956 0.28045455 0.038904857
000370 31 db 49 3e 0d 15 f4 3e 53 fd c1 3d d4 7d 9e 3c
       0.19712521 0.4767231 0.09472146 0.019347109
000380 5a 7c 64 be 92 d1 36 3c bb 52 03 3e 77 23 3b 3e
       -0.22313061 0.011158364 0.12824528 0.18275248
000390 f1 f3 2a 3e cb 3e 45 bc d9 af e1 3d 0d 27 8e bc
       0.16694619 -0.012038897 0.110198684 -0.017352605
0003a0 70 c4 b0 3d c4 6c 97 3d bf 14 4b bd 63 16 73 3d
       0.086312175 0.07393792 -0.049580332 0.05934752
0003b0 df 47 09 3e a9 d1 5e bd 27 d7 c9 3e a7 f2 af 3e
       0.13406323 -0.054399166 0.3942196 0.34364817
0003c0 00 9a 50 3e 8d 82 bd bd d7 1b ca 3d f7 4f be bd
       0.20371246 -0.09253416 0.09868591 -0.09292596
0003d0 6a 89 75 3f ef ec 1e 3e 44 18 65 3e f7 ea 7f 3c
       0.959128 0.1552007 0.22372538 0.015619985
0003e0 5f 44 3e 3d 3c 21 23 3e 5c 57 a1 3e 3a 8d 51 bc
       0.046451923 0.15930647 0.31511962 -0.012790019
0003f0 92 fe 33 3d e5 ea 13 3e 26 92 12 3e e2 50 8f 3c
       0.04394395 0.14445074 0.14313564 0.017494623

bn1.running_mean f4 [400]
000000 b5 39 d0 3f 69 72 4f 3e a5 b7 e4 3f 68 99 78 3f
       1.6267611 0.20258488 1.7868544 0.9710908
000010 05 bb 0f 3f fc a7 90 3e b4 ee 74 3f 04 2e f8 3f
       0.56144744 0.28253162 0.9567673 1.9389043
000020 04 b3 b3 3e 9b f9 9f 3f ba 0d 0d 3f 7a f4 35 3f
       0.35097516 1.2498049 0.5509907 0.71076167
000030 3e a9 f1 3f e2 93 2e 3f f9 0b d7 3f bb 65 de 3e
       1.8879774 0.681944 1.6800529 0.4343699
000040 70 aa 3d 3f ed 7d 54 3f da c7 41 3f 19 7c ee 3e
       0.7408819 0.8300465 0.75695574 0.46579054
000050 62 a5 42 3f 6f ef 1b 3f a7 11 39 3f dd 01 fd 3e
       0.76033604 0.6091222 0.7229256 0.49415484
000060 ad 62 9a 3f 98 d7 83 3f 2f 12 c0 3f 4f 05 ba 3f
       1.2061363 1.0300169 1.5005549 1.453287
000070 13 c2 a1 3f bf 28 26 3f b5 cd 07 40 f0 3b ec 3f
       1.2637352 0.64905924 2.1219304 1.8455791
000080 2a 55 23 3f 32 2b 11 3f 46 fa db 3e c8 e1 08 3f
       0.63801825 0.56706536 0.4296438 0.53469515
000090 ab d2 09 3f 69 29 99 3e 7e b2 12 3f a9 11 cf 3e
       0.5383708 0.29914406 0.5730361 0.4044316
0000a0 be 2e 0e 3f dd a2 ad 3f 0a a6 c6 3e 26 b6 0a 3f
       0.5554007 1.3565327 0.38798553 0.54184186
0000b0 15 86 a1 3f 24 93 88 3e 4a 7b 41 3f 02 9a ba 3e
       1.2619044 0.2667476 0.7557875 0.36445624
0000c0 1e b1 d8 3e 0e 36 47 3f 54 01 21 3f 6a df 8e 3e
       0.4232263 0.77816856 0.6289265 0.27904826
0000d0 4e dd 8b 3e 91 2f 66 3f 6a 9d 7f 3f 4c 6d f6 3e
       0.2731728 0.8991633 0.9984957 0.48130262
0000e0 9c b8 96 3e 52 b5 81 3f 8f 25 c9 3e ee 3c fd 3e
       0.2943772 1.013346 0.39286467 0.49460548
0000f0 7d 1d cc 3e 24 8a 9e 3f ff 59 0a 3f ee 93 16 3f
       0.39866248 1.2385907 0.54043573 0.5881947
000100 87 d4 ae 3f 01 2f 0e 40 78 ed a5 3f 37 ec 1d 40
       1.3658608 2.221619 1.2963095 2.4675424
000110 53 aa 0f 3f 70 d4 c8 3f fb 98 ce 3e bf f6 7e 3d
       0.5611927 1.5689831 0.4035109 0.062247034
000120 77 a1 81 3e 15 72 bb 3e 5a 81 83 3f d7 31 e5 3e
       0.253185 0.36610475 1.027385 0.44764587
000130 2f cd d2 3f 24 02 66 3f df 7f 46 3f 82 a9 df 3e
       1.6468867 0.89847016 0.77538866 0.43684012
000140 0e 77 19 3f 60 c2 de 3e ff 03 62 3f ed 52 50 3f
       0.5994729 0.4350767 0.8828735 0.81376535
000150 86 26 30 3f 31 2b 80 3e 76 fc f8 3e b1 f4 f7 3e
       0.6880878 0.25032952 0.48630112 0.48428872
000160 2f 82 a2 3f 39 59 db 3e 65 84 91 3e 3b 94 e2 3e
       1.2695979 0.4284151 0.28421322 0.44253716
000170 84 18 0f 3f aa eb 02 3f 71 c3 47 3f e3 31 8b 3e
       0.5589678 0.51140845 0.78032595 0.27186498
000180 63 99 27 3f a2 43 0d 40 d7 9a 5d 3f 99 0d 0b 3f
       0.65468425 2.207253 0.8656439 0.54317623
000190 df d6 98 3e 8d 14 9c 3f b0 f0 db 3e f2 07 e8 3e
       0.29851434 1.2193772 0.42957067 0.45318562
0001a0 aa 72 0a 3e b3 13 95 3f 83 a8 90 3e ee 28 21 3f
       0.13520303 1.1646637 0.28253564 0.6295308
0001b0 d5 a4 0c 3e d4 dd 6a 3f 3e 1b 31 3e 69 26 0f 3f
       0.13734753 0.9174473 0.17295548 0.55917984
0001c0 63 28 fd 3f e4 25 12 3e 95 4f 8b 3f 55 45 ca 3f
       1.977795 0.14272267 1.0883662 1.5802408
0001d0 bd af fb 3e ee af 34 40 a5 ec a9 3f 4a e2 59 3f
       0.49157515 2.823238 1.3275343 0.85110915
0001e0 6d 82 f8 3e 1a 93 a9 3f 23 fd 60 3f f8 86 38 3f
       0.48537007 1.3248017 0.87886256 0.72080946
0001f0 6e 6e 4b 3f 72 a9 45 3f 00 0f 95 3e e8 d3 83 3f
       0.7946538 0.7721168 0.29113007 1.0299044
000200 34 23 63 3f eb e2 25 3f 02 00 05 40 26 4b 6b 3e
       0.8872559 0.64799374 2.0781255 0.22977886
000210 9e 25 e6 3e ca 03 b4 3f 84 15 1e 3f a4 61 59 3f
       0.44950575 1.4063656 0.6175158 0.8491461
000220 1d 24 4e 3f d3 ed f4 3e cd c8 70 3e 23 f6 56 3d
       0.80523854 0.47837695 0.235141 0.052480828
000230 13 09 12 40 22 b7 96 3e 26 3c b1 3f 41 b9 63 3f
       2.2818038 0.29436594 1.3846481 0.8895455
000240 79 be 83 3d 4b f2 1f 3f 84 07 66 3f 91 64 16 3f
       0.06432814 0.62479085 0.8985522 0.587472
000250 9e a3 2e 3f d2 3d 29 3f b3 ae 8e 3f 44 49 81 3f
       0.6821841 0.66109955 1.1147064 1.0100484
000260 d1 08 b9 3f 07 26 60 3f 48 59 a8 3f 9d 62 89 3f
       1.4455816 0.87558025 1.3152246 1.0733219
000270 bb 52 0a 3f a5 34 d0 3e e3 e6 da 3e 31 e2 50 3f
       0.54032487 0.40665165 0.42754278 0.8159514
000280 18 bf cf 3e 20 3d e2 3e 9f 51 21 3f f0 fd 97 3f
       0.4057548 0.4418726 0.6301517 1.187437
000290 93 ee e8 3e 5b 3e a0 3f 74 f9 00 40 ef 5a be 3f
       0.45494518 1.2519029 2.0152254 1.4871501
0002a0 e9 86 58 3f 79 04 70 3f 36 7a c8 3f 44 ac 13 3f
       0.84580857 0.93756825 1.5662296 0.5768473
0002b0 1c 8c f6 3e 45 3c 9d 3f 3c af 04 3f c5 f9 0e 3e
       0.4815377 1.2284018 0.51829886 0.13962467
0002c0 3c 53 84 3f 33 1a 2e 3e 3b e7 b4 3e 8a 5f 48 3f
       1.0337901 0.17002182 0.35332665 0.7827078
0002d0 ad 70 1f 3f de 21 f9 3e ca f8 b5 3e 39 1f b0 3e
       0.62281305 0.4865865 0.35541373 0.3439882
0002e0 dd 55 77 3f 56 cd 10 40 e3 37 3a 3f 89 b7 e1 3e
       0.9661539 2.2625327 0.72741526 0.4408534
0002f0 ad 8a 99 3f 76 d6 ac 3e 41 50 03 3f c4 84 7c 3f
       1.1995445 0.3375737 0.5129433 0.98640084
000300 7f d5 3c 3f 6a 89 9b 3f f9 21 c0 3f 5f 69 0d 3f
       0.7376327 1.215131 1.5010368 0.5523891
000310 d5 13 b5 3f 93 80 69 3e 73 e6 f3 3e 5e a4 c3 3e
       1.4146677 0.22802953 0.47636756 0.3821134
000320 b3 2b ce 3e c1 97 80 3f 17 4d 04 3f 1a bd 9f 3f
       0.40267715 1.0046312 0.5168013 1.2479584
000330 f1 b9 30 3f a2 69 60 3e cd 4e 71 3f e7 48 84 3f
       0.69033724 0.21915296 0.94260865 1.0334748
000340 78 26 f7 3e 14 fb b5 3e 15 1c 1c 3f 14 93 b7 3e
       0.48271537 0.3554312 0.6098035 0.358544
000350 67 c7 87 3f b6 07 e0 3e c4 4b 33 3f 9a 74 63 3f
       1.0607728 0.43755883 0.70037484 0.88849795
000360 22 53 fa 3e 6e 71 b6 3e 53 8f 64 3f a5 7f 9b 3e
       0.4889155 0.35633415 0.89281195 0.30370823
000370 a2 e7 b2 3f 48 a7 c1 3f 56 2c b0 3e c2 e0 e9 3e
       1.3976939 1.5129175 0.34408826 0.4567929
000380 6e 16 e0 3f d3 ea 38 3f 4d 94 21 3f 28 2f 93 3f
       1.7506845 0.72233313 0.63116914 1.1498766
000390 fa 58 0a 3f ab ca b2 3f 32 ef 5f 3f 61 29 f6 3e
       0.5404202 1.3968099 0.8747436 0.48078445
0003a0 ca 64 ba 3f 1f 91 ca 3e eb 0e 47 3f d9 1b d6 3e
       1.4562008 0.39563844 0.7775714 0.4181812
0003b0 de 35 32 3f f7 7e e8 3e 87 39 8d 3f 9e a0 82 3f
       0.69613445 0.45409366 1.1033181 1.0205266
0003c0 89 91 7a 3f f8 80 84 3f 97 1c f8 3e 47 56 95 3f
       0.9787832 1.0351858 0.48459312 1.1666955
0003d0 b4 e0 79 3f d4 05 5f 3f 4d 64 4d 3f 60 1d 93 3e
       0.97608495 0.8711827 0.8023117 0.2873335
0003e0 ce a0 37 3e 45 d5 c9 3f 42 ca 53 3f fb 3f d1 3e
       0.17932436 1.576821 0.82730496 0.40869126
0003f0 79 2b 2b 3f 19 65 e7 3f f2 84 38 40 18 06 d5 3e
       0.6686321 1.8077728 2.8831143 0.41606212

bn1.running_var f4 [400]
000000 72 81 37 41 21 7d 6e 3f f2 e5 98 40 d4 92 83 40
       11.469103 0.9315968 4.7780695 4.1116734
000010 b3 be 40 40 36 59 0a 40 7f 04 66 40 db ea 2d 41
       3.0116394 2.161695 3.5940244 10.869838
000020 fc 32 9e 3f f8 d4 69 40 69 b3 32 40 73 1d 37 40
       1.2359309 3.6536236 2.7922003 2.8611724
000030 b4 fb c1 40 e7 3a 17 40 fb da 62 41 38 ed dc 3f
       6.0619755 2.36297 14.178462 1.7259893
000040 1b a9 41 40 eb c7 44 40 c2 c0 85 40 3d 6d 1a 40
       3.0259464 3.074702 4.17978 2.4129174
000050 29 0b 6c 40 2e 1a 11 40 b9 2f 0d 40 a1 1c cf 3f
       3.6881812 2.267223 2.2060378 1.6180612
000060 06 85 0b 41 93 14 88 40 2e 44 95 40 f5 ec ea 40
       8.719976 4.2525115 4.6645727 7.3414254
000070 05 c5 9d 40 97 47 38 40 f4 2c 11 41 f5 0d db 40
       4.9303 2.8793695 9.073475 6.8454537
000080 03 8b 72 40 f8 bd 44 40 b5 96 3b 40 1f 8b 24 40
       3.7897346 3.0740948 2.9310734 2.5709913
000090 44 95 10 40 e2 5f 67 3f 6f df 1b 40 51 d7 cf 3f
       2.2591105 0.9038068 2.4355123 1.6237584
0000a0 20 a1 06 40 d2 41 a3 40 15 23 fa 3f 35 32 29 40
       2.1035843 5.1017847 1.9541956 2.6436894
0000b0 7c a6 91 40 ce bc 78 3f a1 fb 7d 40 ee ed ba 3f
       4.551573 0.97163093 3.9684832 1.460386
0000c0 2b e8 f6 3f 7a 1b 41 40 99 f9 22 40 95 55 ec 3f
       1.9289602 3.017302 2.5464842 1.8463618
0000d0 1d 70 83 3f 74 4c 91 40 61 a4 a1 40 dd 49 eb 3f
       1.0268589 4.5405827 5.051316 1.8381916
0000e0 57 62 f1 3f ea 25 98 40 91 93 9f 3f d0 56 ec 3f
       1.8858136 4.754628 1.2466909 1.8463993
0000f0 0b bd 21 40 32 69 be 40 40 0b 41 40 99 37 16 40
       2.5271633 5.950341 3.0163116 2.3471434
000100 a0 a7 c1 40 e2 30 4b 41 d0 5b c0 40 45 9e 79 41
       6.051712 12.699434 6.0112076 15.60114
000110 71 9f 1d 40 d6 c3 e2 40 43 1b 28 40 02 d9 21 3f
       2.4628565 7.0864058 2.626664 0.6322175
000120 fd 96 85 3f b5 d0 e5 3f 0b 4c 92 40 76 f9 d9 3f
       1.0436703 1.7954317 4.5717826 1.7029254
000130 e4 09 01 41 90 53 3c 40 7c 28 58 40 33 d3 9c 3f
       8.064915 2.9426003 3.377471 1.2251953
000140 9b c8 e0 3f f5 7e 08 40 d7 bb 14 40 e4 91 3a 40
       1.756122 2.1327488 2.3239648 2.9151545
000150 8c 15 26 40 33 a2 79 3f 71 4e cd 3f a6 a4 fa 3f
       2.595065 0.9751312 1.6039563 1.9581497
000160 65 2e c5 40 1c 43 0b 40 00 c2 13 40 79 61 21 40
       6.1619134 2.175971 2.3087158 2.5215743
000170 d8 ab 89 40 36 48 2c 40 68 d8 ae 40 f1 00 6e 3f
       4.302227 2.6919074 5.463917 0.92970186
000180 81 37 15 40 7f a7 22 41 95 9a 58 40 b9 f0 0e 40
       2.3315127 10.165893 3.384435 2.2334425
000190 53 49 4a 3f 63 9c 64 40 b4 9a db 3f 29 8c fa 3f
       0.79018134 3.572045 1.7156587 1.9574023
0001a0 81 61 da 3e 36 95 54 40 eb 85 9a 3f 1e a1 3d 40
       0.42652515 3.321607 1.2072119 2.9629588
0001b0 36 9d c3 3f 69 a5 87 40 00 b2 15 3f 50 b9 09 40
       1.5282352 4.2389417 0.5847473 2.1519356
0001c0 ee 35 da 40 9d 18 a6 3f c0 ad 52 40 8b f6 bc 40
       6.819083 1.2976261 3.2918549 5.9050956
0001d0 de fa bc 3f a9 32 13 41 d2 4c b6 40 52 18 51 40
       1.4764059 9.199868 5.6968775 3.2671094
0001e0 a4 e2 d4 3f f6 e2 dc 40 a0 6a 09 40 35 74 2f 40
       1.6631665 6.902705 2.1471329 2.7414677
0001f0 3b 56 ae 40 51 99 79 40 49 56 fd 3f a9 19 93 40
       5.448026 3.8999827 1.9791957 4.5968823
000200 50 3e 70 40 ec 8c 4f 40 44 ca ae 40 b6 43 b6 3f
       3.7538033 3.2429762 5.4621906 1.4239414
000210 18 87 25 40 6a 9e c0 40 62 91 f3 3f db 82 33 40
       2.5863705 6.0193377 1.9028742 2.8048618
000220 04 e8 3c 40 b8 47 f2 3f bd c4 90 3f 84 94 0d 3f
       2.951661 1.8928137 1.131004 0.5530474
000230 74 4b fa 40 ef 9d 86 3f 82 c5 c0 40 dd ff 55 40
       7.8217106 1.0516948 6.02411 3.3437417
000240 c6 69 f2 3e fd 21 1c 40 5d f6 3f 40 1e 75 5b 40
       0.47346324 2.4395745 2.9994118 3.4290233
000250 d8 33 ff 3f 59 0a 15 40 81 87 8f 40 3d 7b ba 40
       1.9937696 2.3287566 4.485291 5.8275437
000260 f4 08 a8 40 4f 51 9d 40 33 c9 a9 40 1e be a2 40
       5.251093 4.9161754 5.3058105 5.0857077
000270 53 70 d6 3f b3 59 30 40 1b f2 52 40 dd cd 2c 40
       1.6753029 2.7554748 3.296027 2.700065
000280 46 5a cd 3f 01 5c 75 40 1f cb 56 40 02 e8 ca 40
       1.6043174 3.8337405 3.3561475 6.3408213
000290 33 38 0d 40 ad b4 b1 40 7e 3a 02 41 48 86 06 41
       2.2065551 5.553305 8.13928 8.4077835
0002a0 3b 99 46 40 6e 5c 9e 40 a9 d3 d7 40 d4 9d a5 3f
       3.1031024 4.948783 6.7445874 1.293879
0002b0 ce d2 e2 3f 4e 69 9f 40 15 64 e7 3f ad 53 be 3f
       1.7720582 4.9816046 1.8077418 1.4869286
0002c0 84 0a d0 40 f9 e0 91 3f 68 f7 99 3f 30 44 24 40
       6.5012836 1.1396781 1.2028627 2.5666618
0002d0 e3 dd 6c 40 e3 3d 02 40 26 0d c2 3f 6e 32 bf 3f
       3.701043 2.0350273 1.5160263 1.4937265
0002e0 66 0b 22 40 76 10 43 41 fd c3 86 40 16 9e c6 3f
       2.5319457 12.191519 4.2114244 1.5516994
0002f0 4e 7e 8c 40 7f 47 eb 3f fb 04 32 40 15 d6 de 40
       4.390418 1.8381194 2.781554 6.963633
000300 81 91 85 40 ce 77 83 40 57 78 b3 40 ca 34 06 40
       4.1740117 4.1083746 5.60844 2.096972
000310 85 18 b6 40 d7 83 76 3f 9e b1 fb 3f 60 34 b1 3f
       5.690493 0.9629492 1.966358 1.3844109
000320 78 89 0a 40 0b 1d 65 40 53 c9 61 40 27 17 95 40
       2.1646404 3.5798976 3.5279129 4.659076
000330 68 b7 16 40 58 7e 9c 3f 22 50 49 40 e4 db 81 40
       2.3549442 1.2226057 3.145516 4.058092
000340 e6 84 c8 3f 05 f6 a9 3f df fb da 3f 06 1f 12 40
       1.5665557 1.3278204 1.7108115 2.2831435
000350 c3 87 37 40 1a 27 9d 3f f9 29 46 40 f0 bc a1 40
       2.8676612 1.2277558 3.0963118 5.0543137
000360 dd 60 3c 40 70 b1 e6 3f fd 45 a0 40 6f 4c 89 3f
       2.943412 1.80229 5.0085435 1.0726451
000370 cf c4 b2 40 c9 73 9b 40 bb ba af 3f 73 34 f9 3f
       5.5865245 4.857884 1.3728861 1.9469131
000380 f6 50 ec 40 bf ab 74 40 b2 4d 03 40 de 00 9b 40
       7.384883 3.8229825 2.0516171 4.843856
000390 43 38 df 3f a5 7f 8e 40 48 2b 69 40 50 e8 21 40
       1.7439045 4.4530816 3.6432667 2.5298042
0003a0 21 57 0a 41 a4 12 10 40 21 05 4a 40 da 02 a4 3f
       8.646272 2.2511377 3.156563 1.281337
0003b0 99 f8 1a 40 3e a9 39 40 09 4e cc 40 37 4f b4 40
       2.4214232 2.9009547 6.384526 5.63467
0003c0 2f 9b 57 40 99 e1 47 40 53 89 20 40 c5 72 dc 40
       3.3688467 3.1231444 2.5083816 6.88901
0003d0 19 46 29 40 0c 25 43 40 ee fd 65 40 9c c7 98 3f
       2.6449034 3.0491362 3.5936236 1.1935916
0003e0 59 88 82 3f 03 18 04 41 83 ff 6c 40 08 2f 59 40
       1.019786 8.255862 3.7030952 3.3934956
0003f0 da e6 42 40 65 f3 37 41 ae 3a 39 41 6f 3e ed 3f
       3.04534 11.4969225 11.576826 1.8534678

fc2.weight f4 [300, 400]
000000 c6 6a 3b be 1d f0 4b 3e 89 c3 0a be bc b5 5a b9
       -0.1830245 0.19915815 -0.13551153 -0.00020857801
000010 d7 af b3 be 26 a8 3c 3f e0 7d ea 3e 8c 7a bd be
       -0.35095093 0.73694074 0.4579916 -0.37007558
000020 cf 01 c6 3e b7 7d 00 bf 2d 57 76 3f b8 c5 51 bd
       0.38673255 -0.50191826 0.9622677 -0.05121395
000030 b5 ec 93 bf db 49 16 3e 4f 64 b6 be 35 7d b4 bc
       -1.1556612 0.14676611 -0.35623404 -0.02203236
000040 0e 1b 37 bf 1b cc 2f bf cf 76 89 bf f1 60 8b be
       -0.7152566 -0.68670815 -1.0739383 -0.27222398
000050 f4 fe d8 be fb 3e de 3d f7 e0 7f be 21 df d2 bd
       -0.42382014 0.10851856 -0.24988161 -0.10296465
000060 ed 93 77 3e 94 6e 9d 3e 8e ef b0 be 7d 5f 80 3e
       0.24177523 0.30748427 -0.34557766 0.25072852
000070 59 99 fc be d1 45 83 bf 08 cf 12 be ec 90 f0 be
       -0.49335745 -1.0255681 -0.14336789 -0.46985567
000080 7b 9a a2 3e bb 83 c0 3e 46 ea 0d be b8 2a 8b be
       0.31758484 0.37600502 -0.138589 -0.2718103
000090 b0 03 1e 3f fc 26 26 be a4 c7 f6 3e 79 52 af bd
       0.61724377 -0.16225809 0.4819919 -0.08560652
0000a0 6b 5f 22 bf 3d 46 f0 bd 17 f8 01 be c2 2d d3 be
       -0.63426846 -0.11732147 -0.12692295 -0.41245848
0000b0 97 28 28 3e f3 fd fe be 5a 30 09 3e f3 18 84 3d
       0.16421734 -0.49803123 0.13397351 0.06450071
0000c0 c8 2f 05 3f 9b a0 e6 bd 70 11 8c be a0 c5 9a 3e
       0.52026033 -0.11261102 -0.27357054 0.302289
0000d0 fb 77 48 3f cf 77 4c be 82 70 04 be 3a 47 aa 3e
       0.78308076 -0.19967578 -0.12933543 0.33257467
0000e0 8f 13 32 3f 69 f3 fd bd 45 6b 1f 3e 9b 15 be be
       0.69561094 -0.123999424 0.15568264 -0.3712586
0000f0 f1 79 5e bd 92 5e 35 bf 76 e2 86 3e 04 48 80 bc
       -0.05431551 -0.7084743 0.2634465 -0.01565934
000100 5f 43 81 3e 8a 10 43 3f 1a 31 99 3e d4 6f 87 bd
       0.25246713 0.7619711 0.29920274 -0.066131264
000110 b9 6f 65 3e a5 34 21 3f 48 64 9c bf 47 ce 15 3f
       0.224059 0.62970954 -1.2218103 0.5851788
000120 20 d2 d3 3d a9 88 7e be 8f 08 d5 be 74 5d 52 3f
       0.103428125 -0.24856819 -0.41608092 0.8217385
000130 2b 8c dd be ce 94 8e 3d 5d 20 b6 be e8 c8 2c bf
       -0.43271002 0.06961976 -0.35571566 -0.6749406
000140 2c fc c9 be 17 50 d8 bc b2 57 29 3e c4 4d 9d 3e
       -0.39450204 -0.026405377 0.1653736 0.30723393
000150 06 24 ff 3e 4d f5 0d bf 06 22 04 be dd 74 00 bf
       0.4983217 -0.55452424 -0.12903604 -0.5017832
000160 29 63 08 3f a7 44 db bc f8 ce 7c bf 27 92 10 be
       0.53276306 -0.026766134 -0.9875331 -0.14118253
000170 5f ee f2 be cf 67 1b be 1c a5 9e be 5b ad f6 3d
       -0.47447488 -0.15176319 -0.30985343 0.12044784
000180 0d 28 8d 3e e4 a6 24 3f fc 10 42 bd 27 70 05 3f
       0.2756962 0.64317155 -0.04737948 0.52124256
000190 ed 27 75 3f bf ec 87 3e 3b cd 97 be c4 82 18 3f
       0.95764047 0.2654781 -0.29648766 0.5957453
0001a0 05 b2 8b 3e 5c 2c 0f be 13 a8 2b be aa 38 17 bf
       0.27284256 -0.13981766 -0.16763334 -0.5907084
0001b0 88 b7 58 be 93 d9 76 3d 8c 16 2b bf 03 2b 86 3d
       -0.21163762 0.06026609 -0.6683128 0.065511726
0001c0 a8 c9 c8 be 8f 42 5e 3d b4 43 7b be 22 0d 1a bf
       -0.39216352 0.054262694 -0.24537545 -0.6017629
0001d0 1d f7 a2 bd b4 a0 7a 3d c1 39 b3 3e b4 15 ea be
       -0.07957289 0.061188415 0.35005 -0.45719683
0001e0 c4 ef ed be bf 2e f6 be 6c b5 50 bf 02 0c cf be
       -0.4647199 -0.4808254 -0.8152683 -0.4043885
0001f0 3c f4 8d 3d a9 a3 11 bf 02 9f 25 bf 3d 68 25 bf
       0.0693135 -0.5689035 -0.6469575 -0.6461218
000200 7a 41 9d be e6 59 7d bf b7 0c ce 3c fb 03 d3 3e
       -0.30714017 -0.989653 0.025152547 0.41213974
000210 41 28 13 bf ae 29 bf be f5 67 61 bf 50 92 9b be
       -0.574833 -0.37336487 -0.8804925 -0.30385065
000220 28 7c 06 3f fe 27 67 3d 83 f4 2c 3f 85 03 52 3e
       0.525332 0.056434624 0.67560595 0.20509155
000230 f8 27 26 3f c4 c0 f4 3d 0f d9 4b 3f 37 83 fe be
       0.6490474 0.119508296 0.7962808 -0.49709484
000240 6c 7f 22 3e e8 2b ce 3e 88 4c c8 be 27 3b b7 be
       0.1586892 0.40267873 -0.3912089 -0.35787317
000250 da 4f ac be be 6d 5c 3f 22 db ff be 5c a9 dc 3d
       -0.33654672 0.86104953 -0.49971873 0.1077449
000260 a4 a8 52 bf 5c e2 ad 3d cc d2 38 bc b8 f2 c7 bc
       -0.82288575 0.0849044 -0.011280727 -0.02440773
000270 ef 10 e8 3e b0 b6 07 be 00 1c c2 3e cd 15 27 bf
       0.4532542 -0.13253284 0.37911987 -0.6526764
000280 f2 05 61 3f e8 53 7f be 73 b0 96 be 71 3a 19 bf
       0.87899697 -0.24934351 -0.29431495 -0.598548
000290 59 0c 32 be b6 89 b0 be 0b 5c d5 bc ea 6a a8 bf
       -0.17387523 -0.34480065 -0.026044866 -1.3157628
0002a0 14 e1 38 bf cf df 4b 3f 7d ef 07 be 7b 7c a7 be
       -0.7221844 0.7963838 -0.13274951 -0.3271216
0002b0 62 d7 bb bd d8 90 02 bf 75 47 64 bf 58 a2 f0 3e
       -0.091719404 -0.51002264 -0.89171535 0.46998858
0002c0 2f 68 88 bf dc a5 33 bf 49 6f 5c bf 8a 3a 91 be
       -1.0656794 -0.70174956 -0.8610731 -0.28364974
0002d0 ac a4 4f 3b 62 58 aa 3d 1a da 23 bf 24 30 40 bf
       0.0031683845 0.08317639 -0.6400467 -0.75073457
0002e0 0e 79 97 bf 5c f1 0f bf 23 7f ac 3e 9c 2b 95 3c
       -1.1833818 -0.5622766 0.33690748 0.018209271
0002f0 cd a2 b0 bd 54 d7 e4 3e c6 ed 8b be a4 bb 14 3f
       -0.08624802 0.44695532 -0.27329844 0.58098817
000300 31 da 95 3e af db ad ba dc c6 6c bf cd 9d 15 3e
       0.2926803 -0.0013264323 -0.92490935 0.14610977
000310 7f 26 aa 3e 2b 0b 25 bf a1 ac 20 be dc d9 56 be
       0.33232495 -0.64470166 -0.15690853 -0.20981544
000320 e8 f8 aa bf ee 03 6b be 83 7b 5b be f1 af ba bd
       -1.335721 -0.22950718 -0.21433835 -0.091155894
000330 b8 76 eb be a5 7a 7f 3e 20 b2 20 bf ce 43 75 bf
       -0.45989013 0.24949129 -0.627718 -0.95806587
000340 9b 99 9a 3e d2 01 05 3f 45 d7 29 3e 10 5d 51 be
       0.30195317 0.519559 0.16586025 -0.20445657
000350 91 ef c3 be c9 76 d9 3e c8 f0 fc be bc 4c d5 3d
       -0.38268712 0.42473438 -0.49402452 0.104150265
000360 54 d7 26 bf cb 0e 25 3e f0 77 81 3b 1d 6f 31 bf
       -0.65172315 0.16118924 0.0039510652 -0.6931017
000370 43 71 5a bf 50 9e ef be f4 3f 98 be 0f df 80 3d
       -0.85329074 -0.4680047 -0.29736292 0.06292545
000380 27 b9 0c be c2 0b 74 3e 6b 7f ee 3d ee 9e 65 bf
       -0.13742505 0.2383261 0.11645397 -0.8969563
000390 48 1d b6 be 6d 24 8d be 25 db 2c bf 54 8c e4 bd
       -0.35569215 -0.27566853 -0.6752189 -0.11159578
0003a0 b1 a6 dc 3e 28 b6 a2 be 07 06 7a 3e 25 29 d8 be
       0.43095925 -0.317796 0.24416362 -0.4221889
0003b0 cf a4 e7 bd e4 0c 13 bf a6 d3 50 3e ad a5 89 bf
       -0.113107316 -0.57441545 0.20393237 -1.0753685
0003c0 61 de 1a bf 21 2d fd 3d 88 2c 98 be 90 bc 0c 3f
       -0.60495573 0.12362123 -0.29721475 0.54975224
0003d0 3e ee 47 bf 1c cf d4 be 32 d5 8a be 3b b2 d6 3c
       -0.78097904 -0.41564262 -0.2711578 0.026208034
0003e0 b5 f3 8a 3e 4e 31 0a bf 1d e6 a2 be 07 18 4c 3f
       0.2713906 -0.53981483 -0.31816188 0.7972416
0003f0 b4 26 8e 3c 01 19 c8 3d ca d8 c3 be bd 47 28 bf
       0.01735244 0.09770394 -0.38251334 -0.65734464
