checkpoint_critic.pth (torch_old, 549546 bytes, 9 tensors)

fc1.weight f4 [400, 33]
0	0xbf0e76d0	-0.55650043
1	0x3e7ecef3	0.24883632
2	0x3f9a9063	1.2075313
3	0x3f5619e9	0.83633286
4	0x3e81cd21	0.25351813
5	0xbe2f56e1	-0.17122985
6	0x3ea8f38b	0.3299831
7	0xbdf44dc8	-0.11928898
8	0x3f335f12	0.7006694
9	0x3f21b697	0.63169235
10	0xbdc0ec09	-0.0942002
11	0xbe1d8225	-0.15381677
12	0x3d38f8fd	0.04515933
13	0xbe06e5ec	-0.13173646
14	0xbe713071	-0.23553635
15	0x3f02a237	0.5102877
16	0xbea48c7e	-0.32138437
17	0xbf3a9a27	-0.7289147
18	0xc045f646	-3.0931563
19	0xbf8138f9	-1.0095512
20	0x3c40be52	0.011764126
21	0x3ea1a0a5	0.31567875
22	0x3d443cd9	0.04790959
23	0x3e84fe2d	0.2597517
24	0xbc2e9526	-0.010655677
25	0x3d8e8b4a	0.06960161
26	0x3e98854d	0.297892
27	0x3f62abc6	0.88543355
28	0xbdb6620a	-0.08905418
29	0xbd0dcc83	-0.034618866
30	0xbf74d0b9	-0.95630985
31	0x3ba7b510	0.00511802
32	0xbee500c4	-0.44727147
33	0x3e95f56a	0.292888
34	0xbeea8d9a	-0.45811158
35	0xbe856fcd	-0.2606186
36	0xbf7f3277	-0.9968638
37	0x3e4c985d	0.19979997
38	0xbf7f24e6	-0.9966568
39	0x3f5095a9	0.81478363
40	0x3e529f56	0.20568594
41	0xbf07cb7c	-0.5304487
42	0x3fac63d6	1.3467968
43	0x3eb17b32	0.34664303
44	0x3d1a5c3d	0.03768562
45	0xbeb63654	-0.35588324
46	0x3f126e5b	0.5719964
47	0x3f222a31	0.6334563
48	0xbec9ac02	-0.39389044
49	0xbf028d53	-0.50996894
50	0x4009a37e	2.1506038
51	0xbf715af6	-0.9427942
52	0x3f0ecc3f	0.55780405
53	0xbd6bd521	-0.057576302
54	0xbea5514b	-0.32288584
55	0x3e159762	0.14608529
56	0x3f083e2b	0.5321986
57	0x3ebdd787	0.37078497
58	0xbc64f9df	-0.01397559
59	0xbe5238c6	-0.2052947
60	0x3f7d59fa	0.9896542
61	0xbe8b7400	-0.27236938
62	0x3d056c59	0.03257403
63	0xbf7d645c	-0.9898126
64	0xbd286196	-0.04110869
65	0xbf9094f4	-1.1295457
66	0xbd9dc9cb	-0.077045046
67	0xbef31e8a	-0.47484237
68	0x3eab3a82	0.33443075
69	0xbf1bc51a	-0.6084763
70	0xbe38980d	-0.18026753
71	0x4026f78b	2.6088588
72	0x3fe8e9cd	1.819635
73	0xbe2e165d	-0.17000718
74	0xbe890258	-0.267596
75	0x3ef2779b	0.47356877
76	0x3ea4e632	0.32206875
77	0xba2a3393	-0.00064926705
78	0xbc5c11d1	-0.013431982
79	0x3d15b9a2	0.036553986
80	0x3dd06d7c	0.101771325
81	0x3f0c2a69	0.5475221
82	0xbf7dbb91	-0.9911433
83	0x3fce85f1	1.6134626
84	0xbd25bdd0	-0.040464222
85	0xbebd8cd6	-0.37021512
86	0x3c9e12ce	0.019296076
87	0x3e59df29	0.21276535
88	0xbe6d170b	-0.23153321
89	0x3e27e813	0.16397123
90	0xbcae5015	-0.02127842
91	0xbec17ea7	-0.3779194
92	0x3d2684bf	0.04065394
93	0x3f6e9057	0.93188995
94	0xbf03986e	-0.51404464
95	0xbc0532c8	-0.008129783
96	0xbf81aaf4	-1.0130296
97	0x3d221f67	0.03958073
98	0x3fbd7af9	1.4803153
99	0xbec55c40	-0.38546944
100	0x3dcf38c5	0.1011825
101	0x3ec84cfb	0.3912123
102	0x3f89e134	1.0771852
103	0xbea85dee	-0.32884163
104	0x401816e9	2.3763983
105	0x3f987ec2	1.1913683
106	0x3da8e208	0.08246237
107	0xbcb96669	-0.02263184
108	0x3f34b886	0.7059406
109	0x3b7ad54c	0.0038274108
110	0xbd8698f2	-0.06572141
111	0x3e8ba62a	0.2727521
112	0xbdc32d99	-0.095301814
113	0x3f0d2f48	0.5515027
114	0x3dac4cbc	0.084130734
115	0x3ff4348a	1.9078534
116	0xbfefd2cb	-1.8736204
117	0x3e204a45	0.15653332
118	0x3f10a9ba	0.5650898
119	0xbbe0dd8e	-0.006862349
120	0x3ed796d7	0.4210727
121	0xbb1709d9	-0.002304664
122	0xbe79c691	-0.24392153
123	0x3e3a8272	0.18213823
124	0x3be5c26f	0.0070117037
125	0x3f0f3188	0.55934954
126	0x3f504a02	0.81362927
127	0x3dbe0384	0.09278014
128	0xbd371b80	-0.04470396
129	0xbf3b515a	-0.7317101
130	0xbd119d6d	-0.035550524
131	0x3f0adf38	0.54246855
132	0xbe62f1b6	-0.22162518
133	0x3f710ed6	0.9416326
134	0xbec6dc81	-0.38840106
135	0x3f01d182	0.5071031
136	0xbf0fd896	-0.5618986
137	0x3f5642d7	0.8369574
138	0x3f60e64a	0.87851393
139	0xbc0a30d8	-0.008434497
140	0x3e15ab98	0.14616239
141	0x3f0bb0c3	0.5456659
142	0x3e1eb0a1	0.15497066
143	0xbeb06647	-0.3445303
144	0x3ea0f36a	0.3143571
145	0xbf041b76	-0.516044
146	0xbda654dc	-0.081216544
147	0xbdc01b91	-0.09380258
148	0xbf5cface	-0.863202
149	0x3f8e56bb	1.1120218
150	0xbfd31c0a	-1.6492932
151	0xbf008075	-0.5019601
152	0xbe3a23fe	-0.18177792
153	0xbeabdcf4	-0.3356701
154	0xbd253203	-0.040330898
155	0x3ef8ba4c	0.48579633
156	0xbda0450e	-0.07825671
157	0xbe426096	-0.18982157
158	0x3ebf8a2c	0.37410104
159	0x3fa0c010	1.2558613
160	0x3eb1c06a	0.34717113
161	0x3c117e60	0.008880228
162	0xbfa7a428	-1.3096972
163	0xbaaf86a0	-0.0013391562
164	0x3fa05473	1.2525772
165	0x3dd189a4	0.10231331
166	0x3e5ec970	0.2175653
167	0x3ea30b1c	0.31844413
168	0x3ef7298e	0.4827389
169	0xbfc709eb	-1.5549902
170	0x3f6efc02	0.93353283
171	0x3f86c2e0	1.0528221
172	0xbe1913e4	-0.14948994
173	0x3d670630	0.056402385
174	0xbe79978b	-0.24374215
175	0xbed762e4	-0.42067635
176	0x3e1b9e8c	0.151972
177	0x3e887d10	0.26657915
178	0xbea55dad	-0.3229803
179	0x3f87086c	1.0549445
180	0xbeeefeef	-0.46678874
181	0xbe3a3be4	-0.18186909
182	0x400d194f	2.2046697
183	0xbf82c609	-1.0216686
184	0x3e912a78	0.28352714
185	0x3ec8be67	0.39207765
186	0xbe6a1114	-0.22858077
187	0x3d6dc5e7	0.058050063
188	0xbe6d386d	-0.23166056
189	0x3ebe4ed8	0.37169528
190	0xbef20200	-0.4726715
191	0x3e41af91	0.1891463
192	0x3ec7e770	0.3904376
193	0x3f2571ac	0.64626575
194	0x3d11d4b9	0.03560326
195	0xbebb2abb	-0.36556038
196	0x3d0eb45d	0.034839977
197	0x3e9380bb	0.2880915
198	0xbe233c0b	-0.15940873
199	0x3fa04dde	1.2523763
200	0x3e5538c4	0.20822436
201	0xbee52721	-0.44756415
202	0xbf18c6f5	-0.59678584
203	0xbef2b157	-0.47400925
204	0xbe28052d	-0.16408224
205	0x3c59a2e9	0.01328347
206	0x3e08ed5b	0.13371794
207	0xbeb720cd	-0.35767213
208	0xbd8bb36d	-0.06821332
209	0xbe426335	-0.18983157
210	0x3dcb2699	0.09919471
211	0x3e834928	0.2564175
212	0xbfeb04e2	-1.8360865
213	0xbe3fd408	-0.18733227
214	0x3ebc2164	0.36744225
215	0x3e5cc6d3	0.2156022
216	0xbe53b9a1	-0.2067628
217	0x3da939b7	0.08262961
218	0x3d589759	0.05287871
219	0x3d434c27	0.047680046
220	0x3c33dd93	0.01097812
221	0x3e791719	0.24325217
222	0xbf03ec1c	-0.5153215
223	0xbdb65f56	-0.08904903
224	0xb9196011	-0.00014627005
225	0x3ec4a061	0.3840361
226	0x3db16e0f	0.0866357
227	0xbc81082a	-0.015750963
228	0xbeccfb9f	-0.40035722
229	0xbc1b1b74	-0.009466995
230	0xbf1f6830	-0.6226835
231	0x3ed67f51	0.4189401
232	0x3e518c95	0.20463784
233	0x3e499c0a	0.1968843
234	0x3d32e9cb	0.043679994
235	0xbeee140c	-0.4649967
236	0x3f2b6c14	0.6696179
237	0x3ae9f209	0.0017848621
238	0xbed6aaeb	-0.41927275
239	0x3e1393b3	0.14411812
240	0x3f15702c	0.58374286
241	0xbe068cf9	-0.13139714
242	0x3dac056f	0.08399474
243	0x3f1df3eb	0.61700314
244	0xbd8e7e2a	-0.06957658
245	0xbeea14b0	-0.45718908
246	0x3dff9b8a	0.124808386
247	0x3dd19a3b	0.10234495
248	0x3fa0afbe	1.2553632
249	0xbbcdaa1e	-0.006276383
250	0x3f85dfb9	1.04589
251	0x3e4aa5c2	0.19789794
252	0x3e643583	0.22286038
253	0x3f26a689	0.6509786
254	0x3e156869	0.1459061
255	0xbeaa7132	-0.33289486

fc1.bias f4 [400]
0	0xbf43d3ba	-0.76494944
1	0xbf59c105	-0.8506015
2	0xbf7bc3f7	-0.98345894
3	0xbf6944e4	-0.91120744
4	0xbfb6766f	-1.4254893
5	0xbe9bbcc7	-0.30417463
6	0xbed0d8e3	-0.4079047
7	0xbfd17a97	-1.6365536
8	0xbf0066a2	-0.50156605
9	0xbf7a4af8	-0.97770643
10	0xbef0b81f	-0.47015473
11	0xbf9be669	-1.2179691
12	0x3d8907c5	0.06690935
13	0x3f30b707	0.6902928
14	0xbf503f94	-0.8134701
15	0xbec0abdf	-0.37631127
16	0xbf069ad6	-0.5258001
17	0xbf27f97b	-0.6561505
18	0xbf9d03e6	-1.2266815
19	0xbf7f78e5	-0.99793845
20	0xbf797b2c	-0.9745357
21	0xbe8c4ec8	-0.27403855
22	0xbf375d59	-0.7162681
23	0xbf899a08	-1.0750132
24	0xbfc11a6f	-1.5086192
25	0xbf8035bf	-1.0016402
26	0xbf13f406	-0.57794225
27	0xbf5f308d	-0.8718346
28	0xbf4e9114	-0.8069012
29	0xbf0bdc43	-0.5463297
30	0xbfb8f395	-1.4449335
31	0xbefee8d9	-0.49787024
32	0xbf396b1b	-0.72429055
33	0x3e85f150	0.2616067
34	0xbfad0266	-1.3516357
35	0xbed1404d	-0.4086937
36	0xbf46d08e	-0.7766198
37	0xbd4cda6b	-0.050012987
38	0xbf2d4020	-0.6767597
39	0xbf7ec771	-0.99523073
40	0xbfd4c980	-1.6623993
41	0xbf19dfc3	-0.6010706
42	0xbed93ab1	-0.4242759
43	0xbf05b9a1	-0.5223637
44	0xbeb4b706	-0.35295886
45	0xbf16bc5c	-0.58881164
46	0xbf541e7c	-0.82859015
47	0xbf1967a7	-0.59923786
48	0xbfa93671	-1.3219739
49	0xbf1b91e2	-0.60769475
50	0xbf4d91c6	-0.8030056
51	0xbf361c1d	-0.7113665
52	0xbfa5f984	-1.2966771
53	0xbfef14dc	-1.8678241
54	0xbf2a7b31	-0.66594225
55	0xbf76687a	-0.9625317
56	0xbf487b32	-0.7831298
57	0x3ebb2776	0.36553544
58	0x3e1b6195	0.15173943
59	0xbfc24e5b	-1.5180162
60	0xbfe9bfd4	-1.8261666
61	0x3e7fd401	0.24983217
62	0xbe5e38e4	-0.2170139
63	0xbf53ddfa	-0.82760584
64	0xbf9bed3e	-1.2181776
65	0xbfb68262	-1.425854
66	0xbfcc917c	-1.5981898
67	0xbec95948	-0.3932593
68	0xbecb9233	-0.3975998
69	0xbf323b13	-0.6962139
70	0xbf5bf288	-0.8591695
71	0xbf31d15b	-0.69460076
72	0xbf45e896	-0.7730802
73	0xbef720b5	-0.4826714
74	0xbf73ef09	-0.95286614
75	0xbf55aa16	-0.83462656
76	0xbf39bcb6	-0.72553575
77	0xbd9b8a59	-0.07594747
78	0xbee0db19	-0.43917158
79	0xbde30765	-0.11085395
80	0xbf23eb9c	-0.64031386
81	0xbefd00a0	-0.4941454
82	0xbf1e1555	-0.617513
83	0xbf75094e	-0.9571732
84	0xbf9831d7	-1.189021
85	0xbf84b6d7	-1.0368298
86	0xbf9a63e2	-1.2061732
87	0xbf556a24	-0.8336508
88	0xbf6a8ca2	-0.9162084
89	0xbf87cbb2	-1.0609038
90	0xbf06e6ab	-0.5269572
91	0xbf4b50d4	-0.7942021
92	0xbded2779	-0.115797944
93	0xbf4e09b1	-0.8048354
94	0xbf49030f	-0.7852029
95	0xbf1b1bc9	-0.6058927
96	0xbfed65eb	-1.8546728
97	0xbf5b3dda	-0.85641253
98	0xbf8bfde5	-1.0936857
99	0xbfa91388	-1.3209085
100	0xbfa5c6fe	-1.2951353
101	0xbf39502d	-0.72387964
102	0xbf1977ad	-0.59948236
103	0xbf490e50	-0.78537464
104	0xbf0d06af	-0.55088323
105	0xbfa91117	-1.320834
106	0xbf68a32f	-0.90874
107	0xbfb90a18	-1.4456205
108	0xbf953d45	-1.1659323
109	0xbf4824c4	-0.781811
110	0xbe89ebff	-0.26937863
111	0xbf3855ea	-0.72006094
112	0xbe352a09	-0.17691816
113	0xbf8f3393	-1.1187614
114	0xbf7af183	-0.9802477
115	0xbfbf166e	-1.492872
116	0xbf109b62	-0.56487095
117	0xbed6536b	-0.41860518
118	0xbf9ccba2	-1.2249644
119	0xbe73d145	-0.23810299
120	0xbfa3656a	-1.2765324
121	0xbf3394d4	-0.7014897
122	0xbf0b276a	-0.54357016
123	0xbf4c00a4	-0.7968848
124	0xbf501f45	-0.81297714
125	0xbf9e4674	-1.236525
126	0xbeea8fa2	-0.45812708
127	0xbefab722	-0.48967844
128	0xbfb71e4b	-1.430612
129	0xbf29950f	-0.6624307
130	0xbe8a3016	-0.26989812
131	0xbf9503d3	-1.1641792
132	0xbf539562	-0.82649815
133	0xbf141141	-0.5783883
134	0xbf864628	-1.049016
135	0xbfa9c233	-1.326239
136	0xbf8bdcfe	-1.0926816
137	0xbffd3e73	-1.9784683
138	0x3815d1ba	3.571969e-05
139	0xbf30f422	-0.6912252
140	0xbf89477e	-1.0724943
141	0xbfa558bd	-1.2917706
142	0xbf56e37f	-0.8394088
143	0xbf1b5172	-0.6067115
144	0xbfa75f47	-1.3075951
145	0xbf610451	-0.8789721
146	0xbf8798b1	-1.0593473
147	0xbf39ebbe	-0.7262534
148	0xbf4620cb	-0.7739379
149	0xbf88bd99	-1.0682861
150	0x3cdb5873	0.026775574
151	0xbf61ad4c	-0.88155055
152	0xbf44f301	-0.76933295
153	0xbf6256f3	-0.88413924
154	0xbf9ffdbf	-1.2499312
155	0xbf55b5c2	-0.83480465
156	0xbf2def20	-0.67943
157	0x3ee67ea2	0.45018488
158	0xbf1474d8	-0.5799079
159	0xbfde7c9e	-1.738178
160	0xbf8f27fb	-1.1184076
161	0xbf05127b	-0.51981324
162	0xbf669ee2	-0.90086186
163	0xbefc2915	-0.49250093
164	0xbf770d6c	-0.96504855
165	0xbf4405d4	-0.76571393
166	0xbfa817e1	-1.3132287
167	0xbf613bc5	-0.87981826
168	0xbf6fcf36	-0.93675554
169	0xbfaacac4	-1.3343129
170	0xbede391e	-0.43402952
171	0xbf44e857	-0.7691702
172	0xbfd432f2	-1.6578047
173	0xbfb8b912	-1.4431479
174	0xbf831402	-1.0240481
175	0x3c3dbb83	0.011580351
176	0xbf8713c9	-1.0552913
177	0xbf96801e	-1.1757848
178	0xbf3a038e	-0.72661674
179	0xbee33123	-0.44373426
180	0xbf0b49eb	-0.54409665
181	0xbfb235ac	-1.3922629
182	0x3e13bf5b	0.14428465
183	0xbe101918	-0.14072073
184	0xbf76c83c	-0.96399283
185	0xbf46144c	-0.7737472
186	0x3e08c272	0.13355425
187	0xbf633b12	-0.8876201
188	0xbf7754fc	-0.9661405
189	0xbf385ffd	-0.72021466
190	0xbf7ab46d	-0.9793156
191	0xbedaa3f3	-0.42703208
192	0xbf8b8732	-1.0900633
193	0xbe9bd7a8	-0.3043797
194	0xbfabb57b	-1.3414758
195	0xbf270eb4	-0.6525681
196	0xbedbce0c	-0.4293064
197	0xbf1a87a3	-0.60363215
198	0xbf8e664f	-1.1124972
199	0xbf01c19c	-0.5068605
200	0xbf94eb96	-1.1634395
201	0xbf21bafb	-0.63175935
202	0xbf8a62a7	-1.0811356
203	0xbf298dd9	-0.6623207
204	0x3e52df21	0.2059293
205	0xbfc4dfdd	-1.5380818
206	0xbf452fc1	-0.7702599
207	0xbf7b07c2	-0.9805871
208	0xbfae05c7	-1.3595513
209	0xbef1ad96	-0.47202748
210	0xbf964802	-1.1740725
211	0xbf46a959	-0.77602154
212	0xbf28d682	-0.6595231
213	0xbfe063ff	-1.7530516
214	0xbf4898fd	-0.7835844
215	0xbfdb281d	-1.7121617
216	0xbf3f61f2	-0.7475883
217	0xbfa7b0bf	-1.3100814
218	0xbf60d371	-0.87822634
219	0xbfb94acb	-1.447595
220	0x3e8309a0	0.2559328
221	0xbfb32354	-1.3995156
222	0xbf977d14	-1.1835046
223	0xbfa09afe	-1.25473
224	0xbf5c0c22	-0.85956013
225	0xbf606d34	-0.8766663
226	0x3e210f00	0.15728378
227	0xbeba2a60	-0.36360455
228	0xbf8bb307	-1.091401
229	0xbf45dcb3	-0.77289885
230	0xbf3dc05b	-0.74121636
231	0xbf8526aa	-1.0402424
232	0xbed3b6ce	-0.41350406
233	0xbf2c6640	-0.6734352
234	0xbfad5f52	-1.3544714
235	0xbfb94b12	-1.4476035
236	0xbe7956f4	-0.24349576
237	0xbf494048	-0.7861371
238	0xbd508e6d	-0.050917078
239	0xbf9c3d42	-1.2206194
240	0xbfa46428	-1.2843065
241	0xbf83a4d2	-1.0284674
242	0xbfab5241	-1.3384477
243	0xbf5ff2a2	-0.87479603
244	0xbf4c9236	-0.799106
245	0xbf9d3735	-1.2282473
246	0xbfc9433c	-1.5723643
247	0xbfb49dd1	-1.4110662
248	0xbf8b168b	-1.0866255
249	0xbf0ff998	-0.56240225
250	0xbf9a45e2	-1.2052577
251	0xbf896faa	-1.0737202
252	0xbf4107a9	-0.75402313
253	0xbfbf8c55	-1.4964701
254	0xbf082a07	-0.5318913
255	0xbf28212e	-0.6567563

bn1.weight f4 [400]
0	0x3e64c0db	0.22339194
1	0xbe496398	-0.19666898
2	0x3e5cc77e	0.21560475
3	0x3e891c62	0.26779467
4	0xbe57c24b	-0.2107021
5	0x3e5db865	0.21652372
6	0x3eeffc2c	0.4687208
7	0xbe29e9e1	-0.16593124
8	0x3e9bd0a8	0.3043263
9	0x3e8acb8f	0.27108428
10	0x3e637f60	0.22216558
11	0x3e1c3e52	0.15258148
12	0x3e453852	0.19259766
13	0x3e2cacd0	0.16862798
14	0x3e599a6f	0.21250318
15	0x3e65bd04	0.22435385
16	0x3e5742c8	0.21021569
17	0x3facedc4	1.351006
18	0x3e25fb15	0.16209061
19	0xbe36c374	-0.17847997
20	0x3e4dd1ab	0.20099513
21	0x3eb928ae	0.3616385
22	0x3e6eaf44	0.23309046
23	0x3df68ae2	0.120382085
24	0x3e3dfc53	0.18553285
25	0x3f0cf2c3	0.55057925
26	0x3e6b0905	0.2295266
27	0x3e6bae4a	0.23015705
28	0x3e5a755e	0.21333835
29	0x3e8bf810	0.27337694
30	0x3ea23c99	0.31686857
31	0x3e4004a2	0.18751767
32	0x3e4c2e8c	0.19939631
33	0x3e521f99	0.20519866
34	0x3e9a9633	0.30192718
35	0x3e372f45	0.17889126
36	0x3e8c091d	0.27350703
37	0x3ecb7d39	0.39743975
38	0x3e5d0c1e	0.21586654
39	0x3ecb3b71	0.39693788
40	0x3e321a2c	0.17392796
41	0x3e4a2cbe	0.1974363
42	0x3e9da292	0.30788094
43	0x3e669bb5	0.22520335
44	0x3e12dc10	0.1434176
45	0x3e425eab	0.18981425
46	0x3e4608c4	0.19339281
47	0x3e4dcba9	0.20097221
48	0x3e3ad2fd	0.18244548
49	0x3e6ab48b	0.22920434
50	0x3e327cfc	0.1743049
51	0x3f63c5f6	0.8897394
52	0x3e8e339a	0.27773744
53	0x3e17266a	0.14760748
54	0x3ea82e22	0.32847697
55	0x3f6ffab8	0.9374194
56	0x3e26a5ea	0.16274229
57	0x3e3f368c	0.18673152
58	0x3e47b660	0.19503164
59	0xbe1c0bb6	-0.15238842
60	0x3db0e71a	0.08637829
61	0x3e7bcdf2	0.2459028
62	0x3e7e982a	0.24862733
63	0xbe2ee31b	-0.17078821
64	0x3e7a84b4	0.24464685
65	0x3e41804a	0.18896595
66	0x3df80319	0.12109966
67	0x3e3bb7e5	0.18331869
68	0x3f85817b	1.0430139
69	0x3e7050ac	0.23468274
70	0x3ec83e5b	0.39110073
71	0xbe36155e	-0.17781588
72	0x3e958044	0.2919942
73	0x3f8b5aea	1.088712
74	0xbe490c8a	-0.1963369
75	0x3e649d53	0.2232564
76	0x3e96cddb	0.2945393
77	0x3e8334eb	0.2562631
78	0x3e79ff47	0.24413787
79	0x3e67358f	0.22579025
80	0x3e083d86	0.1330472
81	0x3e1ff940	0.15622425
82	0x3e2ca4d7	0.16859756
83	0x3e586991	0.2113402
84	0x3e87d5f9	0.26530436
85	0xbe3071c1	-0.17230894
86	0x3e8e3dc5	0.277815
87	0x3ddc2b11	0.10750402
88	0x3e658aa4	0.22416168
89	0x3e685baf	0.22691225
90	0x3e658683	0.22414593
91	0x3e43af41	0.19109823
92	0x3e53b794	0.20675498
93	0x3def7e22	0.1169398
94	0x3f028aed	0.50993234
95	0x3e55e2f7	0.20887361
96	0xbe04b6da	-0.12960377
97	0x3e669fc7	0.22521888
98	0xbe18abf8	-0.14909351
99	0x3e699f54	0.22814685
100	0xbd965f1b	-0.07342359
101	0x3eb02e52	0.3441034
102	0x3e6143aa	0.21998468
103	0x3e55e226	0.2088705
104	0x3e708c48	0.23491013
105	0x3e46c673	0.1941164
106	0x3e86f26f	0.26356837
107	0x3e59bb83	0.21262936
108	0x3e6aac69	0.22917332
109	0x3e4cf237	0.20014273
110	0x3e6db66f	0.23214124
111	0x3e69aeaf	0.22820543
112	0x3e04fecc	0.12987822
113	0x3e344d95	0.1760772
114	0xbe872812	-0.2639776
115	0x3e061c5d	0.13096757
116	0x3e5a3427	0.21308957
117	0x3e2ab0ae	0.1666896
118	0x3e270b88	0.16312993
119	0x3e1d4756	0.15359244
120	0x3f41be47	0.75680965
121	0x3e1ba38f	0.15199111
122	0x3e5b9858	0.21444833
123	0x3e3e1df0	0.18566108
124	0x3e943094	0.28943312
125	0x3e32ad64	0.17448956
126	0x3e9d2021	0.30688575
127	0xbe03b370	-0.12861419
128	0x3e15e303	0.1463738
129	0xbe2ab3a1	-0.16670085
130	0x3e6e55ad	0.2327487
131	0x3e625d36	0.2210587
132	0x3e1776fa	0.1479148
133	0x3e93db50	0.2887826
134	0x3e01799a	0.12644044
135	0x3e6bdf87	0.23034488
136	0x3e95ced9	0.29259375
137	0x3eaa6df6	0.3328702
138	0x3e76413a	0.2404832
139	0x3e345fd2	0.17614678
140	0x3ec6472a	0.3872617
141	0x3e8f1cbe	0.27951616
142	0x3e6c96c1	0.23104383
143	0x3e6954da	0.22786275
144	0x3e325d96	0.17418513
145	0x3e5aceb3	0.21367912
146	0x3e7173f9	0.23579396
147	0x3e0fcd85	0.14043243
148	0x3ebae9fd	0.36506644
149	0x3e84531e	0.25844663
150	0x3e8c3f3f	0.27392003
151	0x3e4eef98	0.20208585
152	0x3e53a636	0.20668873
153	0x3ddbd0ad	0.10733161
154	0x3f211e34	0.6293671
155	0x3dfac5aa	0.12244733
156	0x3dfc858c	0.123301595
157	0x3ea5487f	0.32281873
158	0x3e4bc450	0.19899106
159	0xbe538763	-0.20657115
160	0x3e4571e0	0.19281721
161	0x3e845d7c	0.25852573
162	0x3e128426	0.14308223
163	0x3e0c029c	0.1367287
164	0x3e53c7f4	0.20681745
165	0xbe094559	-0.1340536
166	0x3e368a13	0.17826109
167	0x3e87e336	0.26540536
168	0x3e6fb389	0.23408331
169	0x3e7cac90	0.24675202
170	0x3ea1e7d7	0.31622192
171	0x3e3bd92c	0.18344563
172	0x3e3bf4ed	0.1835515
173	0xbe114665	-0.1418701
174	0x3e9abb4c	0.3022102
175	0x3e6ba418	0.23011816
176	0xbe8757f9	-0.26434305
177	0x3e869c97	0.26291344
178	0x3f9f2245	1.2432333
179	0x3e4cde14	0.20006591
180	0x3e5aa399	0.2135147
181	0xbdfffa56	-0.1249892
182	0x3e51a30f	0.20472358
183	0x3e29cb6e	0.16581509
184	0x3e6eed79	0.23332776
185	0x3e165357	0.14680229
186	0x3f6e432e	0.9307126
187	0x3e74c44f	0.23903011
188	0x3ec19ee7	0.37816545
189	0x3f0d1703	0.5511324
190	0xbe21b319	-0.15790977
191	0x3e6f3eb1	0.23363759
192	0x3e4ee64e	0.20205042
193	0x3e292d53	0.16521196
194	0x3e6cce2a	0.2312552
195	0x3e2de504	0.16981894
196	0x3ede7f4e	0.434565
197	0xbe5ec616	-0.21755251
198	0x3e57b845	0.21066387
199	0x3e8c4968	0.27399755
200	0x3e5ab653	0.21358614
201	0x3e2fb942	0.17160514
202	0x3e84abcc	0.2591232
203	0x3e42d58e	0.19026777
204	0x3e91dff4	0.28491175
205	0x3dd3f9b7	0.10350364
206	0x3dc48db9	0.09597344
207	0x3e08bef0	0.13354087
208	0x3dfd3ac4	0.12364724
209	0x3e26b18e	0.16278669
210	0x3dec4087	0.11535745
211	0x3e61621c	0.22010082
212	0x3e8d5350	0.27602625
213	0xbe1c016a	-0.15234914
214	0x3ea5256b	0.3225511
215	0x3e2a5190	0.16632676
216	0x3e5b5748	0.21420014
217	0x3eb0d993	0.34540996
218	0x3e80f233	0.25184783
219	0x3e870fcb	0.26379237
220	0x3fa155cf	1.2604312
221	0x3e8a2d16	0.26987523
222	0x3e55f8bb	0.20895664
223	0x3e60e8fe	0.2196388
224	0x3e4cd749	0.20004
225	0x3e7c0e3b	0.24614803
226	0x3e509c98	0.20372236
227	0x3e5f4a40	0.21805668
228	0x3e89ca91	0.26912358
229	0x3e5f96db	0.2183489
230	0x3e273bd0	0.1633141
231	0x3e8fabab	0.2806066
232	0x3e1a607b	0.15075867
233	0x3e93dcd8	0.28879428
234	0x3e290857	0.16507088
235	0x3e8e0c31	0.27743676
236	0x3e7c75ec	0.24654359
237	0xbe4235d8	-0.18965852
238	0x3ee9d0ea	0.456672
239	0x3eae6895	0.34064165
240	0x3e0e70d3	0.13910227
241	0x3e8a52df	0.2701635
242	0x3e52e025	0.20593317
243	0x3e88c324	0.2671138
244	0x3e2131bb	0.15741627
245	0x3e3a66c0	0.18203259
246	0xbe523522	-0.20528081
247	0x3e6c5e43	0.23082833
248	0x3e827258	0.25477862
249	0x3eb0e9e7	0.34553453
250	0x3e48a797	0.1959518
251	0x3e1fce12	0.15605953
252	0x3e6377a3	0.22213607
253	0x3e4ff280	0.2030735
254	0x3ec85b5d	0.39132205
255	0x3e4a4ee1	0.19756652

bn1.bias f4 [400]
0	0x3dab10c2	0.08352806
1	0xbd9d9ba4	-0.07695702
2	0x3d42e876	0.047584973
3	0x3dc33f42	0.0953355
4	0xbd06c63a	-0.032903887
5	0x3d8e80a2	0.069581285
6	0x3da591fb	0.08084484
7	0xbd072b1c	-0.033000097
8	0x3e131bd4	0.14366084
9	0x3dc5bc24	0.096550256
10	0x3d43e7ac	0.04782836
11	0x3d2c9b12	0.042140074
12	0x3ce78045	0.028259406
13	0x3c1ac083	0.009445312
14	0x3d15c5f3	0.036565732
15	0x3d8d0537	0.0688576
16	0x3d9cbb08	0.07652861
17	0x3e9b2ff8	0.30310035
18	0xbb3a83f7	-0.0028460005
19	0xbeb09482	-0.34488302
20	0x3cea375a	0.028590847
21	0x3d485bd4	0.0489157
22	0x3ce733d0	0.028222948
23	0x3bdffea6	0.0068357764
24	0x3c65b749	0.014020749
25	0x3e17c4e1	0.14821197
26	0x3db10b78	0.086447656
27	0x3d7bf055	0.061508495
28	0x3d55885b	0.05213199
29	0x3d8ca144	0.068666965
30	0x3dadff4f	0.08495962
31	0x3b7d3f8f	0.003864262
32	0x3d48a423	0.048984658
33	0x3d865040	0.06558275
34	0x3e28314a	0.16425052
35	0x3d2ad9a5	0.04171147
36	0x3e086445	0.133195
37	0x3d26d142	0.040726908
38	0x3ccfe97e	0.025379892
39	0x3e2b4749	0.16726412
40	0x3d165df7	0.036710706
41	0x3da1c7f7	0.078994684
42	0x3d2e5ed8	0.04257092
43	0x3cfe2039	0.031021224
44	0x3c3055f3	0.010762679
45	0x3d81f398	0.0634529
46	0x3cffbe05	0.031218538
47	0x3da066b8	0.07832092
48	0x3c82b6bc	0.015956275
49	0x3dbb781d	0.09153769
50	0x3d12794a	0.0357602
51	0x3ec6ea00	0.38850403
52	0x3db0f9c0	0.08641386
53	0x3d6804d0	0.056645215
54	0x3d996623	0.07490184
55	0x3e9cd0b2	0.30627972
56	0x3da79350	0.081823945
57	0x3d93cead	0.07217155
58	0x3d72c3ae	0.059268646
59	0xbd1a1e79	-0.037626717
60	0x3c2e5207	0.010639674
61	0x3cc126c1	0.02357805
62	0x3d838902	0.064226165
63	0xbcd19ea1	-0.025588335
64	0x3da9cb18	0.0829069
65	0x3d719075	0.058975656
66	0x3c6998a4	0.014257584
67	0x3dc29d33	0.095026396
68	0x3ea98637	0.3311021
69	0x3e1a3fa2	0.15063336
70	0x3dc2b1c4	0.09506562
71	0xbd241549	-0.04005936
72	0x3da667b5	0.08125249
73	0x3e9efc09	0.31051663
74	0xbd88ed2b	-0.06685861
75	0x3d50ee11	0.051008288
76	0x3e48c1d3	0.19605188
77	0x3de943ca	0.11389883
78	0x3ddb60af	0.107118
79	0x3dc33940	0.09532404
80	0x3d2ed64c	0.04268484
81	0x3d82bc33	0.063835524
82	0x3da008cf	0.0781418
83	0x3d716cb1	0.058941547
84	0x3d923daa	0.07140668
85	0xbd3c19bc	-0.04592298
86	0x3dd384a9	0.10328037
87	0x3cf0d35a	0.029397655
88	0x3d987692	0.074444905
89	0x3dc4755c	0.09592697
90	0x3d6e1f04	0.058135048
91	0x3d25b6fe	0.040457718
92	0x3cd153be	0.025552627
93	0x3c7a1297	0.015263221
94	0x3e7017c8	0.23446572
95	0x3d9291fd	0.07156751
96	0xbcfe17e6	-0.031017255
97	0x3e3dd4b5	0.18538173
98	0xbcb1eb7f	-0.021718739
99	0x3db0c10f	0.08630573
100	0xbc1d43f6	-0.009598723
101	0x3e15ad6d	0.14616938
102	0x3d98013a	0.07422109
103	0x3dc31078	0.095246255
104	0x3d90bd3c	0.070673436
105	0x3ce28a8a	0.027653951
106	0x3d40363e	0.04692673
107	0x3c8acd76	0.016943675
108	0x3dc74ddf	0.097316496
109	0x3d6260bd	0.055268038
110	0x3d2db105	0.042405147
111	0x3bf9d34f	0.007624067
112	0x3c6eeea0	0.01458326
113	0x3d915bb7	0.07097571
114	0xbd9544fc	-0.07288548
115	0x3d2e5cdd	0.04256903
116	0x3d89ecc8	0.067346156
117	0x3d25a19a	0.04043732
118	0x3d1d1b43	0.038356077
119	0x3cb9b8fd	0.022671217
120	0x3e8edf05	0.27904525
121	0x3d1b5a28	0.037927777
122	0x3d9b119b	0.07571717
123	0x3c68ae2d	0.014201683
124	0x3dd327a7	0.103102975
125	0x3cc99909	0.024609106
126	0x3cd5aabc	0.026082389
127	0xbd601636	-0.054708682
128	0x3d4db4f3	0.050221395
129	0xbd862b56	-0.065512344
130	0x3c41b2d3	0.01182242
131	0x3eca262d	0.3948225
132	0x3cd6f3d9	0.026239322
133	0x3df280db	0.118409835
134	0x3cf57745	0.029964099
135	0x3d4ebaf8	0.050471276
136	0x3d54958d	0.051900435
137	0x3df47204	0.11935809
138	0x3d4e37cb	0.050346177
139	0x3dbfb30b	0.093603216
140	0x3dc3182d	0.095260955
141	0x3e04c831	0.12966992
142	0x3d81aa82	0.0633135
143	0x3e008660	0.1255126
144	0x3d4bfe6f	0.049803194
145	0x3da8e74b	0.08247241
146	0x3de5f53d	0.11228416
147	0x3d21677c	0.03940533
148	0x3e6f8706	0.23391351
149	0x3da961c5	0.08270601
150	0x3d47dc4f	0.048794087
151	0x3d84fa4a	0.06493051
152	0x3da7e86c	0.08198628
153	0x3cac6236	0.021042924
154	0x3e94d828	0.29071164
155	0x3c728ff6	0.014804831
156	0x3d12b873	0.035820436
157	0x3db257b2	0.08708133
158	0x3dd0f6bd	0.102033116
159	0xbd8e2473	-0.06940546
160	0x3d8f1512	0.06986441
161	0x3d437d5d	0.047726978
162	0x3cbcdff7	0.023056014
163	0x3d0e57e2	0.03475178
164	0x3da7e9ea	0.081989124
165	0xbd55a952	-0.05216343
166	0x3d3c844c	0.046024606
167	0x3e0a73ee	0.13520786
168	0x3d6a1c20	0.05715573
169	0x3dc15fd0	0.09442103
170	0x3df40701	0.119153984
171	0x3d97addf	0.0740621
172	0x3d825176	0.06363194
173	0xbc819dce	-0.015822317
174	0x3d7115b5	0.058858592
175	0x3e289a0b	0.16465013
176	0xbd92e1f9	-0.07172007
177	0x3d2c5a21	0.04207814
178	0x3eeea089	0.46606854
179	0xbcaa4628	-0.020785406
180	0x3de98b3d	0.11403511
181	0xbdfa43e8	-0.12219983
182	0x3c53bb50	0.012923077
183	0xbe6e420b	-0.23267381
184	0x3d46c93c	0.048531756
185	0x3cc5cdaa	0.02414592
186	0x3eb61f80	0.35570908
187	0x3dfd2c9e	0.12362026
188	0x3dcb7d6f	0.09936034
189	0x3e42fcc3	0.19041733
190	0xbd031d93	-0.032010626
191	0x3d87503e	0.06607102
192	0x3da0ab34	0.078451544
193	0x3d826195	0.063662685
194	0x3d7e8622	0.062139638
195	0x3d537f4f	0.051635083
196	0x3d614aed	0.055003095
197	0xbd3b919b	-0.045793157
198	0x3d50e174	0.05099626
199	0x3dcfb92e	0.10142742
200	0x3db0a0bb	0.08624407
201	0xbc345c63	-0.011008355
202	0x3dd93b52	0.106070176
203	0x3d12ef96	0.03587302
204	0x3dd2487b	0.10267731
205	0x3c889dc3	0.01667679
206	0xbc8f7b6b	-0.017514905
207	0x3cfbce9e	0.030738171
208	0x3c882b1d	0.01662212
209	0x3d9f7306	0.07785611
210	0x3c87b02a	0.016563494
211	0x3db4a9b2	0.08821429
212	0x3e053275	0.13007529
213	0xbcd6d12b	-0.026222786
214	0x3df283fc	0.1184158
215	0x3d59bda9	0.05315939
216	0x3da03398	0.07822341
217	0x3e97ddc9	0.29661396
218	0x3d8bbb23	0.06822803
219	0x3dc39686	0.095501944
220	0x3e7d722d	0.24750586
221	0x3da1e226	0.079044625
222	0x3d2559ac	0.04036872
223	0x3d596c0e	0.053081565
224	0x3befc2ea	0.0073169367
225	0x3d45f168	0.048325926
226	0xbe29ee5c	-0.16594833
227	0x3d763cb1	0.060116474
228	0x3d868796	0.0656883
229	0x3d24676f	0.040137704
230	0x3c8f7188	0.01751019
231	0x3e188ed9	0.14898242
232	0x3d493572	0.049123235
233	0x3e1b8fa7	0.15191518
234	0x3d8d12a5	0.06888322
235	0x3dbec806	0.09315495
236	0x3e07870c	0.1323511
237	0xbd04639a	-0.03232155
238	0x3e37dd67	0.17955552
239	0x3de1b2de	0.11020444
240	0x3d58203b	0.052765112
241	0x3de7ce36	0.113186285
242	0x3d8d8f2e	0.06912075
243	0x3d679287	0.056536224
244	0x3d0bfea7	0.034178402
245	0x3daf5ee8	0.08563024
246	0xbd82afea	-0.06381209
247	0x3d5c9330	0.053851306
248	0x3db37990	0.087634206
249	0x3df9ffce	0.12206994
250	0x3d53e671	0.051733438
251	0x3cfcd3cd	0.030862713
252	0x3d837051	0.06417907
253	0x3d942272	0.072331324
254	0x3e235057	0.15948616
255	0x3df53149	0.11972291

bn1.running_mean f4 [400]
0	0x3fbdd83c	1.4831614
1	0x3f00dfff	0.5034179
2	0x3eec3837	0.4613664
3	0x3eeeeb82	0.46664053
4	0x3e3e49ed	0.18582888
5	0x3f0e21b7	0.55520195
6	0x40098a59	2.149069
7	0x3ea76378	0.32693076
8	0x3f8c86b1	1.0978605
9	0x3f44233f	0.7661628
10	0x3f6359a2	0.88808644
11	0x3ed0803f	0.40722844
12	0x3f3646b5	0.7120164
13	0x3f5a9cd2	0.8539554
14	0x3f8b2a1f	1.0872229
15	0x3fb8fb78	1.4451742
16	0x3f46c7a7	0.77648395
17	0x3f5c2188	0.85988665
18	0x3ea7367b	0.32658753
19	0x3ea0eec1	0.31432155
20	0x3f4a3d22	0.7899953
21	0x3ea077af	0.3134131
22	0x3eea24e7	0.4573128
23	0x3e227603	0.1586533
24	0x3e23cb40	0.15995502
25	0x3e8eed5d	0.2791547
26	0x3fa55cbe	1.2918928
27	0x401b9ef7	2.4315774
28	0x3eb0700a	0.3446048
29	0x3edc7cc8	0.4306395
30	0x3ea27aed	0.3173441
31	0x3ed908a1	0.42389396
32	0x3e4aee11	0.19817378
33	0x3f47a8cf	0.77991956
34	0x3f0d8bf1	0.5529166
35	0x3f045e0d	0.5170601
36	0x3eea2807	0.45733663
37	0x3f045109	0.5168615
38	0x3f717a41	0.9432717
39	0x3f13aeec	0.57688785
40	0x3e791361	0.24323799
41	0x3f2d236c	0.67632174
42	0x3e9d05e1	0.30668548
43	0x3ff684b9	1.9259254
44	0x3f0326b3	0.51230925
45	0x3f1f3968	0.6219697
46	0x3f00bdaf	0.50289434
47	0x3f5eeaad	0.87076837
48	0x3e0a4051	0.13501097
49	0x3f9c35eb	1.2203954
50	0x3ff8e4d0	1.9444828
51	0x3f417715	0.7557233
52	0x3e5e7a54	0.21726352
53	0x3ea5fccf	0.3241944
54	0x3ec6f88b	0.38861498
55	0x3f0f1770	0.5589514
56	0x3f074634	0.52841496
57	0x3f2d98b3	0.67811126
58	0x3fb6b6fb	1.4274591
59	0x3e8197a0	0.25310993
60	0x3e1900b7	0.14941679
61	0x3f3bfe3f	0.73434824
62	0x3f86a0a9	1.051778
63	0x3ed99f2a	0.42504245
64	0x3eea7da3	0.45798978
65	0x3e631acf	0.22178195
66	0x3e4b334b	0.19843785
67	0x3f816a27	1.011052
68	0x3fc5028f	1.5391406
69	0x405bd8dc	3.435111
70	0x3f225862	0.6341611
71	0x3e88da4e	0.26729053
72	0x3f044f13	0.5168316
73	0x3f7cbb99	0.9872375
74	0x3f610e41	0.87912375
75	0x3e62228f	0.22083496
76	0x3fb1b78e	1.3884141
77	0x3f9fee79	1.2494651
78	0x3f18f067	0.59741825
79	0x3fb779a1	1.4333993
80	0x3f095c9a	0.53656924
81	0x3e4b26d9	0.19839038
82	0x3ea4bd2c	0.32175577
83	0x3f3f13e1	0.7463971
84	0x3f6cad1e	0.92451656
85	0x3ea66a1f	0.3250284
86	0x3f1771ec	0.59158206
87	0x3e8cf270	0.27528715
88	0x3eaf22df	0.34206292
89	0x3e9ec01a	0.31005937
90	0x3f347568	0.7049165
91	0x3eaac1af	0.33350894
92	0x3fa4ed73	1.2884964
93	0x3f0e1d81	0.5551377
94	0x3f5afba4	0.85540223
95	0x3f63401c	0.887697
96	0x3e252929	0.16128983
97	0x3fd97ad5	1.699061
98	0x3df089eb	0.11745056
99	0x3f7f431b	0.9971177
100	0x3d03ade0	0.032148242
101	0x3ee5dc43	0.4489461
102	0x3ee6da39	0.45088366
103	0x3f544a9f	0.8292636
104	0x3f010db7	0.5041155
105	0x3f11ec8c	0.57001567
106	0x3f4166e9	0.75547653
107	0x3e83e0dc	0.25757492
108	0x3f21134f	0.6292009
109	0x3ec73031	0.38903955
110	0x3f8da75e	1.1066701
111	0x3eb8a0eb	0.3606027
112	0x3f0312a0	0.51200294
113	0x3ece9ec4	0.40355504
114	0x3eb64179	0.35596827
115	0x3e8f7f24	0.28026688
116	0x3eeb5ca9	0.45969132
117	0x3ea8a068	0.3293488
118	0x3ecf860a	0.4053195
119	0x3fa08875	1.2541643
120	0x3efd7639	0.4950426
121	0x3f92088a	1.1408856
122	0x3f12fc2f	0.5741605
123	0x3efe8a42	0.49714857
124	0x3f1d450f	0.614335
125	0x3f20e662	0.62851536
126	0x3f9804d4	1.1876473
127	0x3f704166	0.9384979
128	0x3f06179b	0.5237977
129	0x3f02e291	0.5112696
130	0x3f7eb1f9	0.99490315
131	0x3f5cad0d	0.86201555
132	0x3ea53902	0.32270056
133	0x3e9d272c	0.30693948
134	0x3ee5c50f	0.44876906
135	0x3e6e1eb4	0.232539
136	0x3f94a1bf	1.1611861
137	0x3e0f5a6c	0.13999337
138	0x3f496260	0.78665733
139	0x3f53e0ac	0.827647
140	0x3e8a1925	0.2697231
141	0x3e977fd7	0.29589722
142	0x3eacd85a	0.33758813
143	0x3f9601ec	1.1719337
144	0x3f9e16a9	1.2350665
145	0x3eb5f2cc	0.35536802
146	0x3f48813f	0.78322214
147	0x3fdddc32	1.7332823
148	0x3f93531b	1.1509737
149	0x3fb0e7e4	1.3820767
150	0x3f615abc	0.88029075
151	0x3f598b6d	0.8497837
152	0x3f6a772b	0.91588086
153	0x3f74f3cd	0.9568451
154	0x3ed8bcab	0.42331442
155	0x3f7aea88	0.98014116
156	0x3ed3eae4	0.41390145
157	0x3f7f1b66	0.9965118
158	0x3f65051e	0.89460933
159	0x3e93146c	0.28726518
160	0x3ef16f6d	0.47155324
161	0x3e3c2cea	0.18376508
162	0x3e5c077e	0.21487233
163	0x3e6cda99	0.23130263
164	0x3ef99ca0	0.48752308
165	0x3e1bdf61	0.15221931
166	0x3e679752	0.22616318
167	0x3fd9ee73	1.7025894
168	0x3f5e69bb	0.8688008
169	0x3eb0edde	0.34556478
170	0x3f296006	0.66162145
171	0x3e509801	0.20370485
172	0x3e874e3d	0.2642688
173	0x3e1de8ad	0.1542079
174	0x3ee0f4b5	0.43936697
175	0x3fa87bb5	1.3162752
176	0x3ea7b016	0.3275153
177	0x3ebc32df	0.36757562
178	0x3f2d225f	0.6763057
179	0x3f4375b7	0.76351494
180	0x3fa11a23	1.2586101
181	0x3e4ae84b	0.19815175
182	0x3f050669	0.51962906
183	0x3f56adce	0.83858955
184	0x3ed70fe0	0.420043
185	0x3eb85d07	0.36008474
186	0x3ffe1d3f	1.9852675
187	0x3fb6aad9	1.4270889
188	0x3e93acdb	0.28842816
189	0x3f404c00	0.75115967
190	0x3e8ce610	0.27519274
191	0x3ea8c501	0.32962802
192	0x3eab4f28	0.3345883
193	0x3f4d76b0	0.8025923
194	0x3ea017e5	0.3126823
195	0x3f0b794a	0.5448195
196	0x3f96828c	1.175859
197	0x3ecd2d43	0.40073594
198	0x3f03ef3f	0.51536936
199	0x3f241589	0.6409536
200	0x3eeb170b	0.45916018
201	0x3edc8e35	0.43077245
202	0x3f7ba503	0.9829866
203	0x3e753519	0.23946036
204	0x3fb802b2	1.4375823
205	0x3e1de181	0.15418054
206	0x3ea34d55	0.31894937
207	0x3ed9364f	0.42424247
208	0x3df4b280	0.11948109
209	0x3f5f8e1f	0.87326235
210	0x3dee541a	0.11637135
211	0x3f4df819	0.8045669
212	0x3f03b5c0	0.51449203
213	0x3e37ee46	0.17961988
214	0x3f192a39	0.5983005
215	0x3ed3a4a5	0.4133655
216	0x3ee0df8f	0.43920562
217	0x3f3cf734	0.738147
218	0x3ec62432	0.3869949
219	0x3ebd42a6	0.3696491
220	0x3fd75376	1.6822345
221	0x3ea5cfb6	0.32385033
222	0x3e8395a7	0.25700113
223	0x3ec7c318	0.39016032
224	0x3efe3f14	0.496575
225	0x3f29dbb4	0.66350865
226	0x3fcaf161	1.5854913
227	0x3e94500e	0.28967327
228	0x3e465634	0.19368821
229	0x3e8220db	0.25415692
230	0x3e018095	0.12646706
231	0x3f6f86e5	0.9356521
232	0x3efc6ab7	0.49300167
233	0x3f838c74	1.0277238
234	0x3f1e26d4	0.61777997
235	0x3eeb248a	0.45926315
236	0x3fd80ec5	1.6879507
237	0x3e6cc3f5	0.23121627
238	0x3faa0acc	1.3284545
239	0x3e2a1ad9	0.16611804
240	0x3e8d507e	0.27600473
241	0x3ecff246	0.40614527
242	0x3ef4038b	0.47658953
243	0x3ecb22c9	0.39674976
244	0x3e8c209d	0.27368632
245	0x3f40b12d	0.7527035
246	0x3eb4ded7	0.35326263
247	0x3ec256f8	0.37956977
248	0x3f530248	0.82425356
249	0x3ea4db63	0.3219863
250	0x3e817194	0.25281966
251	0x3ecf78a7	0.40521738
252	0x3e740bc0	0.23832607
253	0x3f4f5134	0.8098328
254	0x3f0633c8	0.5242276
255	0x3f7430a2	0.9538671

bn1.running_var f4 [400]
0	0x40b2e4fd	5.5904527
1	0x4034d171	2.8252833
2	0x3fd806f7	1.6877126
3	0x3fc78013	1.558596
4	0x3f6359fc	0.8880918
5	0x404de131	3.2168696
6	0x411c60d2	9.773638
7	0x40129b9b	2.2907474
8	0x4087c93a	4.243314
9	0x400c09a6	2.188089
10	0x4069b823	3.6518638
11	0x3fdd2503	1.727692
12	0x407f08bd	3.9849083
13	0x406b4f0d	3.6766999
14	0x40a84017	5.2578235
15	0x40bb1b1b	5.847059
16	0x402921e4	2.6426935
17	0x401fc5bb	2.4964435
18	0x3f61858e	0.88094413
19	0x3fb701e2	1.429745
20	0x4040fe72	3.01553
21	0x3f7281df	0.9472942
22	0x4036d9c6	2.8570418
23	0x3f57838c	0.841851
24	0x3f7cd172	0.9875709
25	0x3f469474	0.7757027
26	0x40d53b15	6.663462
27	0x4151f0de	13.121305
28	0x3fa7a482	1.3097079
29	0x3fe421d2	1.7822821
30	0x3f718c8f	0.943551
31	0x40145c32	2.3181272
32	0x3f47f009	0.7810064
33	0x40a5c1d8	5.1799126
34	0x401ab929	2.4175513
35	0x400a2716	2.1586356
36	0x3fc288d9	1.5198013
37	0x4004dc60	2.0759506
38	0x407da81b	3.9633853
39	0x3fbb8f63	1.4653133
40	0x3f1fbc4f	0.6239671
41	0x3febee40	1.8432083
42	0x3f5e3b2d	0.86809045
43	0x40e13c2a	7.0385942
44	0x3fc80f64	1.5629697
45	0x404cd0a4	3.2002344
46	0x4026a265	2.6036618
47	0x401ce953	2.451741
48	0x3f0e6b06	0.55632055
49	0x4079f34e	3.9054751
50	0x413db84c	11.857494
51	0x4025a393	2.5881088
52	0x3f2da3a2	0.6782781
53	0x3f95b857	1.1696881
54	0x3fe15488	1.7603922
55	0x3fca86d0	1.5822392
56	0x3ffcb19f	1.9741706
57	0x406a98a1	3.6655657
58	0x40db50f3	6.8536315
59	0x3f70c157	0.94045013
60	0x3f367912	0.7127849
61	0x4077ed53	3.8738601
62	0x40fabbf6	7.8354445
63	0x4015840a	2.336184
64	0x40005590	2.0052223
65	0x3f21b479	0.63166004
66	0x3f61cec8	0.8820615
67	0x409ec37b	4.9613624
68	0x40a34c27	5.103046
69	0x4190676b	18.050497
70	0x3fb5c26b	1.4199957
71	0x3fbf6cc3	1.4955066
72	0x3fb65afc	1.4246516
73	0x40309ab2	2.7594419
74	0x40638113	3.554753
75	0x3f0eb0cc	0.5573852
76	0x409dc7c1	4.930634
77	0x40bb0968	5.844898
78	0x3fc13c57	1.5096539
79	0x40e5c419	7.1801877
80	0x3febc7e4	1.8420377
81	0x3fa4b9c3	1.286919
82	0x3fc19cd6	1.5125988
83	0x4093d6a3	4.619951
84	0x40921fc2	4.5663767
85	0x3fad3747	1.3532494
86	0x3fff611d	1.9951512
87	0x3fa65341	1.2994157
88	0x4000be43	2.0116127
89	0x3fabb265	1.3413817
90	0x403688f1	2.8521082
91	0x3f810e1c	1.0082431
92	0x40655621	3.583382
93	0x403bb03a	2.932631
94	0x4032e75f	2.7953718
95	0x40635752	3.5522046
96	0x3f706536	0.93904436
97	0x40eed328	7.463276
98	0x3ed9dd77	0.42551777
99	0x40c9ad48	6.3024025
100	0x3f6d54fb	0.92707795
101	0x3fbbde61	1.467724
102	0x3faaeb35	1.335303
103	0x403c03ac	2.937724
104	0x3fb960b0	1.4482632
105	0x3fc9c01c	1.5761752
106	0x40032995	2.049413
107	0x3f7e3a6a	0.9930788
108	0x3ff8415b	1.9394945
109	0x3fb69fb5	1.4267489
110	0x4099ca7a	4.8059664
111	0x3fe14328	1.759862
112	0x3ff482f4	1.9102464
113	0x3f8dd0df	1.1079367
114	0x3f95b98c	1.169725
115	0x3f7e8ee7	0.994368
116	0x3fe73917	1.8064297
117	0x3fba886a	1.457288
118	0x3fa86a02	1.3157351
119	0x40c6538f	6.1977
120	0x3fe107df	1.7580527
121	0x40af49e9	5.477772
122	0x3ff30b09	1.8987743
123	0x3fecfd9b	1.8514894
124	0x3fcfe1c5	1.6240774
125	0x40154caf	2.3328054
126	0x40b7e94d	5.747229
127	0x409a71b3	4.8263793
128	0x40203b87	2.5036333
129	0x40123444	2.28444
130	0x405e4aaf	3.4733083
131	0x4090c8b6	4.524501
132	0x3f8b257f	1.0870818
133	0x3f973608	1.1813364
134	0x3fe8d3c5	1.8189627
135	0x3f52a9ee	0.8229054
136	0x409e0006	4.937503
137	0x3ec66e39	0.38755968
138	0x402286b7	2.5394723
139	0x406ec333	3.730664
140	0x3f50d3ec	0.8157337
141	0x3f6946d5	0.91123706
142	0x3fb82967	1.4387635
143	0x4080b353	4.02189
144	0x40cf1efb	6.472532
145	0x3f79eab9	0.97623783
146	0x40428136	3.0391364
147	0x412f6c35	10.963918
148	0x405f30fb	3.4873645
149	0x40aa075b	5.313398
150	0x40629a15	3.5406544
151	0x406929eb	3.6431835
152	0x40ad07a1	5.4071813
153	0x40904cb7	4.5093646
154	0x3fb828bd	1.4387432
155	0x40b27b0e	5.5775213
156	0x401e8a72	2.4772
157	0x409f5213	4.978769
158	0x403730d3	2.862355
159	0x3f42335c	0.7585962
160	0x3fb21f01	1.3915712
161	0x3f1a3969	0.6024385
162	0x3f4ef19f	0.80837435
163	0x3fa9a4f1	1.3253461
164	0x3ff6ba18	1.9275541
165	0x3f287ffb	0.6582028
166	0x3f44ac12	0.7682506
167	0x40a4df51	5.1522603
168	0x402aea93	2.6705673
169	0x3fa0f6b3	1.2575287
170	0x4010af70	2.2607079
171	0x3f4e38fd	0.8055571
172	0x3f835d49	1.0262843
173	0x3f349db8	0.7055316
174	0x3fbb3c98	1.4627867
175	0x407b2131	3.9239008
176	0x3fe9f889	1.8278972
177	0x3fc2b353	1.5210975
178	0x3fd9fee2	1.7030909
179	0x40318967	2.7740114
180	0x4088a4e6	4.270129
181	0x3f8fe9cb	1.1243223
182	0x3fbc56ed	1.4714028
183	0x4024603e	2.5683742
184	0x3fc8962b	1.5670828
185	0x3f90a98b	1.130174
186	0x40be7b8f	5.952583
187	0x40b886e8	5.766468
188	0x3f4d5c98	0.8021941
189	0x401736a2	2.3627095
190	0x3fa3c051	1.2793065
191	0x401f65c1	2.4905856
192	0x3f920029	1.1406299
193	0x402ac188	2.6680622
194	0x3f778ac5	0.9669612
195	0x3ffdd573	1.9830765
196	0x408bff11	4.374886
197	0x405bf9b3	3.4371154
198	0x3fd27e87	1.6444863
199	0x400d8558	2.2112637
200	0x403ac83c	2.9184713
201	0x3fc776f6	1.5583179
202	0x40670295	3.6095326
203	0x3f29533c	0.6614263
204	0x40bdbdd4	5.9294224
205	0x3f2cab27	0.6744866
206	0x3fba7442	1.4566729
207	0x40012be5	2.018304
208	0x3ec5214c	0.38501966
209	0x40481ae5	3.1266415
210	0x3f3c3488	0.73517656
211	0x40283ab4	2.628583
212	0x3fb4466f	1.4083995
213	0x3f35723b	0.70877427
214	0x3fc31a30	1.5242367
215	0x3fe5fa2b	1.796697
216	0x3fbf2946	1.4934471
217	0x405fa00a	3.494143
218	0x3fbd1438	1.4771795
219	0x3f820b57	1.0159711
220	0x40b06b8d	5.5131288
221	0x3f9e1323	1.234959
222	0x3f69a8df	0.912733
223	0x3fb4a08d	1.4111496
224	0x400013b2	2.001202
225	0x400667d4	2.1000872
226	0x4105c79b	8.361232
227	0x3f9d3b6f	1.2283763
228	0x3f40609e	0.75147426
229	0x3f4322e1	0.76225096
230	0x3ee8184c	0.45331037
231	0x403ee333	2.9826171
232	0x3faa7f67	1.332013
233	0x4023bb2a	2.5582986
234	0x4034fe83	2.8280342
235	0x3fce4c4f	1.6117038
236	0x40b71e27	5.7224307
237	0x4001a061	2.0254138
238	0x40977c91	4.733956
239	0x3ef302a0	0.4746294
240	0x3fc498f3	1.5359176
241	0x3fa57109	1.292512
242	0x3faf3051	1.368662
243	0x3fab13ac	1.3365378
244	0x3fb4f07b	1.4135889
245	0x408509fc	4.157469
246	0x3fce6174	1.612349
247	0x3fd9600d	1.6982437
248	0x401068c1	2.2563937
249	0x3f9180c2	1.1367419
250	0x3f94e754	1.1633096
251	0x3fc83b47	1.564309
252	0x3fac183f	1.3444899
253	0x404fae36	3.245008
254	0x3fe1c03f	1.7636794
255	0x402f1448	2.7356129

fc2.weight f4 [300, 404]
0	0xbebb364c	-0.36564863
1	0x3eb8e57c	0.36112583
2	0xbd896728	-0.067091286
3	0x3f751913	0.95741385
4	0xbe7bb111	-0.24579264
5	0xbe8806b5	-0.26567617
6	0xbeb0f732	-0.34563595
7	0xbcef68c6	-0.029224765
8	0x3e80ddd0	0.2516923
9	0xbf200053	-0.62500495
10	0xbf1e2f98	-0.6179137
11	0xbf5feb88	-0.8746877
12	0x3d42cbf6	0.047557794
13	0xbecdbcb1	-0.40183023
14	0x3a183921	0.0005806853
15	0xbf0cbdc9	-0.5497709
16	0xbeb07095	-0.34460893
17	0xbc523b65	-0.012831544
18	0x3e16f315	0.14741166
19	0x3ec21cf8	0.37912726
20	0x3e8134a7	0.25235483
21	0xbec23b75	-0.37935987
22	0x3e956e78	0.29185843
23	0xbdfcbcb2	-0.12340678
24	0x3e7356f4	0.23763639
25	0x3ebbb53f	0.36661717
26	0xbed4b7cc	-0.41546476
27	0xbd0c7d1d	-0.034299005
28	0x3b884252	0.0041582966
29	0xbd6637de	-0.056205623
30	0xbf16694c	-0.5875442
31	0xbcea6854	-0.0286142
32	0xbf12204e	-0.57080543
33	0x3e1d947d	0.15388675
34	0xbe1b922a	-0.15192476
35	0x3f35614b	0.7085158
36	0x3ed97591	0.4247251
37	0xbf2a816d	-0.6660374
38	0xbd8bd58f	-0.068278424
39	0x3ec5d155	0.3863627
40	0xbd93827b	-0.072026215
41	0x3bf1fbfb	0.0073847747
42	0xbf2f9e54	-0.68600965
43	0x3a4fb0f4	0.00079227914
44	0x3d06e5c3	0.03293396
45	0xbd9fa17c	-0.077944726
46	0x3efd1d08	0.49436212
47	0xbf74b04b	-0.955815
48	0xbf21d9d8	-0.6322303
49	0x3ecb903b	0.39758477
50	0xbd00f106	-0.031479858
51	0xbf0a8a6a	-0.54117453
52	0xbdedd514	-0.11612907
53	0xbe95d9db	-0.29267773
54	0x3e165738	0.14681709
55	0x3dd51f76	0.10406391
56	0x3d8fc636	0.070202276
57	0xbc47ecf6	-0.012202492
58	0xbdf90dca	-0.12160833
59	0x3ecd4c06	0.40097064
60	0x3ef98fe5	0.48742595
61	0xbeef031d	-0.46682063
62	0xbcf19c3f	-0.02949345
63	0x3e8c9fef	0.2746577
64	0x3e8f4541	0.27982524
65	0x3f53f1c1	0.8279076
66	0x3f035d89	0.513146
67	0xbd75f350	-0.060046494
68	0x3ec9176d	0.39275685
69	0xbed20ba6	-0.41024512
70	0xbdb9a0b5	-0.090638556
71	0x3e6bebfc	0.2303924
72	0xbef7fa1f	-0.48433015
73	0xbf43690e	-0.76332176
74	0xbeb2ebba	-0.3494547
75	0x3f17795a	0.5916954
76	0x3e2b69ef	0.16739629
77	0xbeb22f3a	-0.34801656
78	0xbf81713c	-1.0112681
79	0xbf4a6c2d	-0.79071313
80	0xbeb76b61	-0.3582411
81	0xbe404334	-0.18775636
82	0xbd8f76ed	-0.07005105
83	0x3ed600d0	0.41797495
84	0x3f046d14	0.5172894
85	0x3c88c7c6	0.016696822
86	0x3e3cf46c	0.18452615
87	0x3e2835ca	0.16426769
88	0xbecf8888	-0.40533853
89	0x3f04d43c	0.51886344
90	0x3df8fc73	0.12157526
91	0x3f75394b	0.9579055
92	0xbd879f23	-0.0662215
93	0x3e8b2156	0.2717387
94	0x3e8ff2f4	0.28115046
95	0xbf6473e2	-0.89239323
96	0xbecfbd2c	-0.40574014
97	0xbe8fa6ba	-0.2805689
98	0xbe657d39	-0.2241105
99	0x3f17485b	0.5909478
100	0xbcc7487d	-0.024326557
101	0xbf873331	-1.0562497
102	0xbe9e6944	-0.30939686
103	0xbf465d04	-0.7748568
104	0x3e419588	0.18904698
105	0x3e8ca108	0.27466607
106	0xbeaa204c	-0.33227766
107	0x3f20325c	0.6257684
108	0xbf580cad	-0.8439434
109	0xbf6fc86c	-0.93665195
110	0xbcc052f2	-0.023477051
111	0x3e0ceaa3	0.13761382
112	0x3df83ea6	0.12121324
113	0xbd4f9c09	-0.050685916
114	0xbd3df70b	-0.046378177
115	0x3eba2a69	0.3636048
116	0xbdacf27f	-0.0844469
117	0x3c585783	0.013204458
118	0x3e47665c	0.19472641
119	0xbe96e859	-0.29474142
120	0xbf462080	-0.7739334
121	0x3ebb2fe9	0.3655999
122	0x3e426984	0.18985564
123	0xbf6d682a	-0.92737067
124	0xbf580d9b	-0.8439576
125	0x3d3a6234	0.04550381
126	0xbef67ba6	-0.4814121
127	0xbf09b9eb	-0.53799313
128	0x3f41984d	0.7562302
129	0x3f1aff7a	0.60546076
130	0xbd54b804	-0.051933303
131	0xbec21624	-0.37907517
132	0xbfb81c2d	-1.4383599
133	0xbd827df6	-0.063716814
134	0xbeb959e5	-0.36201397
135	0xbf3199f7	-0.69375557
136	0x3e50216e	0.20325252
137	0xbd66a86c	-0.056312963
138	0xbf3fa0f0	-0.74854946
139	0xbe92559d	-0.28580943
140	0x3ec08a07	0.37605307
141	0xbd4bf4cb	-0.049794
142	0x3e8d9d8d	0.27659264
143	0xbeb5a6d3	-0.3547884
144	0x3ecd060c	0.40043676
145	0x3c4c1aae	0.012457533
146	0x3c369b9d	0.0111455
147	0xbf251b2a	-0.64494574
148	0xbf336720	-0.7007923
149	0xbf0d6fa9	-0.55248505
150	0xbe05d8d7	-0.13070999
151	0xbf31176d	-0.6917637
152	0x3e60bbe7	0.21946679
153	0xbe3d553a	-0.18489543
154	0xbf05d3e4	-0.52276444
155	0xbe832497	-0.25613853
156	0x3eb75c92	0.35812813
157	0xbcfa6521	-0.0305658
158	0x3e3dafa1	0.18524028
159	0x3c170ac9	0.00921888
160	0xbf3c0a2e	-0.7345303
161	0x3ebeaed2	0.37242752
162	0x3d70ce55	0.058790524
163	0x3e9d2d49	0.30698612
164	0x3ebd4892	0.3696943
165	0x3e753471	0.23945786
166	0xbf812906	-1.0090644
167	0xbe48b2bc	-0.19599432
168	0xbebfaebf	-0.37438008
169	0xbf8e07a3	-1.109608
170	0x3f01aee8	0.5065751
171	0xbe748054	-0.23877078
172	0xbd38ad06	-0.045086883
173	0xbf01a9f9	-0.5064998
174	0x3ee376ad	0.4442648
175	0xbd2a010c	-0.041504905
176	0xbed3eda1	-0.41392234
177	0xbe833279	-0.25624445
178	0xbeab62bc	-0.33473766
179	0xbf839d9f	-1.0282477
180	0x3e40116f	0.1875665
181	0x3f11a54d	0.56892854
182	0xbf8a01cf	-1.0781802
183	0x3e8dcba4	0.27694428
184	0xbf8838c1	-1.064232
185	0xbebbcf37	-0.3668153
186	0xbf1dfe57	-0.61716217
187	0xbeb56841	-0.35431102
188	0xbdb3afbd	-0.08773754
189	0x3f146926	0.57972944
190	0xbe27acb9	-0.16374482
191	0xbe7d81d2	-0.24756554
192	0xbed4f08b	-0.4158977
193	0x3c718f2d	0.014743608
194	0x3b8b61e4	0.004253613
195	0x3d97a2e4	0.07404116
196	0xbe0fc888	-0.1404134
197	0xbef6a352	-0.4817148
198	0xbf4061ca	-0.75149214
199	0xbf125660	-0.5716305
200	0xbed4d334	-0.41567385
201	0xbebb0622	-0.36528116
202	0x3e990451	0.29886106
203	0xbf08c493	-0.5342495
204	0xbe268576	-0.16261849
205	0xbd4c9ddb	-0.04995523
206	0x3ef2639f	0.4734163
207	0x3de65ce8	0.11248189
208	0x3ddf51c0	0.109042645
209	0xbde8bdff	-0.11364364
210	0xbec0e176	-0.37672013
211	0x3dffa39a	0.124823764
212	0xbf9c0834	-1.2190003
213	0x3d8e2f8b	0.06942662
214	0x3e934dbd	0.28770247
215	0x3e877787	0.2645838
216	0xbe59f2df	-0.21284054
217	0xbdbefa37	-0.093250684
218	0x3e340088	0.17578328
219	0xbf893e38	-1.0722113
220	0xbd6b7260	-0.057482123
221	0xbe6fdddf	-0.23424481
222	0xbebb669f	-0.3660173
223	0x3e326083	0.17419629
224	0x3e6b217f	0.22961996
225	0x3e0170f4	0.12640744
226	0xbdba6ad5	-0.09102408
227	0xbe73285e	-0.23745868
228	0x3e310b75	0.17289527
229	0xbe250594	-0.16115409
230	0x3eb7fb71	0.35934022
231	0x3e442686	0.1915532
232	0xbcc78e9a	-0.02435999
233	0xbf81d7b9	-1.0143958
234	0x3e6b42f1	0.22974755
235	0xbd866195	-0.06561581
236	0xbf2c0d2d	-0.67207605
237	0x3f088833	0.53332824
238	0xbe647b5b	-0.22312681
239	0x3ea2c699	0.31792143
240	0xbdf4b6a2	-0.11948897
241	0xbf8bc675	-1.0919939
242	0x3f23238f	0.63726133
243	0xbf2ebecd	-0.6825989
244	0xbed7ec0d	-0.4217228
245	0xbf3fc91e	-0.74916255
246	0x3dfa344c	0.12217006
247	0x3e50a918	0.20377004
248	0x3f44bdda	0.7685219
249	0x3e2ed3b7	0.1707295
250	0xbda301af	-0.079593055
251	0xbd621509	-0.055195842
252	0x3f2c8276	0.6738657
253	0xbde9f598	-0.114237964
254	0x3e1868e6	0.14883766
255	0x3f47d0ef	0.7805318
