checkpoint_critic.pth (torch_old, 549546 bytes, 9 tensors)

fc1.weight f4 [400, 33]
0	0x3ecdfd15	0.4023215
1	0x3f10ef0c	0.56614757
2	0x3f4520e7	0.7700333
3	0x3f51bb2b	0.8192622
4	0xbe4d0edc	-0.200252
5	0xbefebfa4	-0.49755585
6	0x3fc28535	1.5196902
7	0x3c98006b	0.018554887
8	0x3e6e4678	0.23269069
9	0xbeb462b9	-0.3523157
10	0x3e145d00	0.14488602
11	0x3eb00aa3	0.34383115
12	0x3e8cb969	0.27485207
13	0xbf0d6c42	-0.55243313
14	0xbeaa047f	-0.33206555
15	0x3eb66e2b	0.35630926
16	0x3fbc737f	1.4722747
17	0xbffaa24a	-1.9580777
18	0x3f80af99	1.0053588
19	0xbe8d7bf9	-0.27633646
20	0xbd0998a4	-0.033592835
21	0xbeb47e95	-0.35252824
22	0x3dbc83ad	0.09204803
23	0xbe3e388a	-0.18576255
24	0xbe26ce1c	-0.16289562
25	0xbe5219d8	-0.20517671
26	0xbce272a7	-0.027642561
27	0x3fb72064	1.430676
28	0xbc3eae14	-0.011638183
29	0xbd0dcc83	-0.034618866
30	0xbfc032ca	-1.50155
31	0x3ba7b510	0.00511802
32	0x3ff5bc99	1.919818
33	0xbeb8e6ad	-0.36113492
34	0x3f405870	0.75134945
35	0xbe076d04	-0.1322518
36	0x3f94fbbc	1.1639323
37	0x3f8633c0	1.0484543
38	0x3d8782cb	0.06616744
39	0xbfc226b1	-1.5168058
40	0xbd2a108f	-0.041519698
41	0xbe55e706	-0.2088891
42	0xbf277a5f	-0.654211
43	0x3ed64d7c	0.4185599
44	0xbed904f4	-0.4238659
45	0xbeff5f8f	-0.49877593
46	0x3cc2627a	0.023728598
47	0xbf7f6360	-0.9976101
48	0xbeb04a80	-0.3443184
49	0x4010055c	2.250327
50	0x3dec98fd	0.11552618
51	0xbf2d358e	-0.6765984
52	0x3fb23e7d	1.392532
53	0x3e1d8f6d	0.15386744
54	0xbe2497f2	-0.16073588
55	0xbee2fabe	-0.44331926
56	0xbe32a925	-0.17447336
57	0xbd804555	-0.06263224
58	0xbca5a5fe	-0.020220753
59	0x3e9841d8	0.29737735
60	0x3f752242	0.957554
61	0xbee82b44	-0.4534551
62	0x3d056c59	0.03257403
63	0xbf752ca0	-0.9577122
64	0xbd286196	-0.04110869
65	0xbf7ce2d9	-0.9878364
66	0xbf7fcf1b	-0.9992539
67	0x3da0e897	0.07856863
68	0x3e18dc11	0.14927699
69	0xbf0edd8c	-0.55806804
70	0x3f295298	0.66141653
71	0xbf46bb19	-0.7762924
72	0xbe15875c	-0.14602417
73	0x3e284c75	0.16435416
74	0x3f9914ce	1.1959474
75	0x3d22b360	0.039721847
76	0x3e87c79f	0.26519486
77	0xbd5864f5	-0.052830655
78	0x3df0f04c	0.11764583
79	0x3f51badc	0.8192575
80	0xbe3f388a	-0.18673912
81	0xbf1f3ff2	-0.6220695
82	0x3f073de4	0.5282881
83	0xbfce589c	-1.6120791
84	0xbfd91bad	-1.6961571
85	0xbf088814	-0.5333264
86	0x3efb78cc	0.49115598
87	0x3e915540	0.28385353
88	0xbf2e76ec	-0.6815021
89	0x3e13befe	0.14428326
90	0xbe6c42e5	-0.23072393
91	0xbe8a038e	-0.26955837
92	0xbec6f624	-0.38859665
93	0x3f730bab	0.9493968
94	0x3e93ac25	0.28842273
95	0xbc0532c8	-0.008129783
96	0xbf83e8cf	-1.0305423
97	0x3d221f67	0.03958073
98	0xbf193e7a	-0.59860957
99	0x3f1c3163	0.6101286
100	0xbf1b732a	-0.607226
101	0x3f33842f	0.7012357
102	0xbf76c29b	-0.96390694
103	0x4005e1f4	2.091916
104	0x3f355b4d	0.7084244
105	0xbf98b1a6	-1.1929214
106	0x3f3887d4	0.7208226
107	0x3d7404cc	0.059574887
108	0x3e036e81	0.12835123
109	0xbef19553	-0.47184238
110	0x3e294c67	0.16533051
111	0xbeb2dbec	-0.34933412
112	0xbeb5cb07	-0.3550646
113	0x3e5d8b71	0.21635224
114	0x3e8f14c0	0.27945518
115	0xc03fe995	-2.9986317
116	0x3d4f3ced	0.050595213
117	0xbf92487b	-1.1428369
118	0x3f707f1e	0.93943965
119	0xbebc337e	-0.36758035
120	0x3e6f4d46	0.23369321
121	0xbd816f00	-0.0632
122	0x3f1dce8f	0.6164331
123	0x3c84a7ef	0.016193358
124	0x3d5f94f2	0.054585405
125	0x3eb5cc07	0.35507223
126	0x3f429b27	0.76017994
127	0xbecea3f5	-0.40359464
128	0xbd371b80	-0.04470396
129	0xbf2da287	-0.6782612
130	0xbd119d6d	-0.035550524
131	0xbeab6539	-0.33475664
132	0x3f4bc43f	0.7959632
133	0x3eb38d27	0.35068628
134	0xbf8eb2e7	-1.1148347
135	0xbf074001	-0.5283204
136	0x3e83c0cb	0.25733027
137	0xbf0c50dd	-0.5481089
138	0xbff57123	-1.9175152
139	0x3d91a00e	0.07110606
140	0xbe66ce68	-0.22539675
141	0xbfa4d96b	-1.2878851
142	0xbee8ff62	-0.45507342
143	0x3ef82518	0.484658
144	0x3dde0e5b	0.10842582
145	0xbe6d6fd2	-0.23187187
146	0x3e805c96	0.25070637
147	0x3ea1bd4e	0.3158974
148	0xbf907717	-1.1286343
149	0x3f9fdf60	1.2490044
150	0xbf04b621	-0.51840407
151	0xbda4b005	-0.080413856
152	0x3d25d7df	0.040489074
153	0x3e22ce66	0.15899047
154	0x3ec00941	0.3750706
155	0xbf9c9182	-1.2231905
156	0x3e44848f	0.19191192
157	0xbf069e74	-0.5258553
158	0xbe2b7456	-0.16743597
159	0xbe899a6e	-0.26875633
160	0x3ed59994	0.41718733
161	0x3c117e60	0.008880228
162	0x3e5c12a4	0.21491486
163	0xbaaf86a0	-0.0013391562
164	0xbf202813	-0.6256115
165	0x3f32698d	0.6969231
166	0xbf9841d6	-1.1895092
167	0xbf1a45db	-0.6026284
168	0xbf990124	-1.1953473
169	0xbfe1b597	-1.7633542
170	0x3e7a15b8	0.24422348
171	0x3bef920e	0.0073111122
172	0xbe5af530	-0.21382594
173	0x3eab96e8	0.3351357
174	0xbf278b32	-0.6544677
175	0x3dc7684c	0.0973669
176	0xbece779d	-0.40325633
177	0xbe14fb82	-0.14549068
178	0xbf40eca1	-0.7536107
179	0x3f45a2e6	0.7720169
180	0xbe11ce27	-0.14238797
181	0xbee8f4d0	-0.45499277
182	0xbf8f4253	-1.1192116
183	0xbf52f083	-0.8239824
184	0x400a583c	2.1616354
185	0xbd7e9d57	-0.06216177
186	0x3d8aa8da	0.06770487
187	0x3e206d78	0.15666759
188	0xbea233e2	-0.31680208
189	0xbca83520	-0.020533144
190	0xbdd78766	-0.10523872
191	0x3e2dbd8a	0.16966835
192	0x3f38cad6	0.72184503
193	0xbe018c62	-0.12651208
194	0x3d11d4b9	0.03560326
195	0xbf326c97	-0.69696945
196	0x3d0eb45d	0.034839977
197	0xbf48cb9f	-0.784357
198	0x3f7fc9d2	0.9991733
199	0x3f887326	1.066014
200	0xbf1124db	-0.5669686
201	0x3fcc562f	1.5963801
202	0xbf2fb171	-0.6863013
203	0xbf1804f2	-0.59382546
204	0x3f5851a2	0.8449956
205	0x3f048e3a	0.5177952
206	0x3f128f16	0.5724958
207	0x3e3aeb8e	0.1825392
208	0x3e521dbd	0.20519157
209	0xbec989c5	-0.39362922
210	0x3f48834a	0.7832533
211	0xbcb0757a	-0.021540392
212	0xbe83d59e	-0.25748914
213	0xbdecca3a	-0.11562009
214	0xbf658d73	-0.8966896
215	0x3d8349a5	0.06410531
216	0x3f8c7ad6	1.0974987
217	0x3cab5a44	0.020917065
218	0xbf23267b	-0.6373059
219	0xbfdb1479	-1.7115623
220	0xbf2ae2f7	-0.6675257
221	0xbe23a5e9	-0.15981258
222	0x3d87f32b	0.066381775
223	0xbe4c2fd0	-0.19940114
224	0xbdf28a64	-0.11842802
225	0x3f088061	0.5332089
226	0x3eeba599	0.46024778
227	0xbc81082a	-0.015750963
228	0xbf0cadca	-0.5495268
229	0xbc1b1b74	-0.009466995
230	0x3f126618	0.5718703
231	0x3da12c8c	0.07869825
232	0xbea31261	-0.3184996
233	0xbe5289a9	-0.20560326
234	0x3f62c166	0.8857635
235	0xbfcda0fb	-1.6064752
236	0xbeea907e	-0.45813364
237	0x3f3b460d	0.73153764
238	0x3e1a6a4d	0.15079613
239	0x3f2e9ad3	0.68204993
240	0x3f433817	0.7625746
241	0xbd943bfe	-0.07238005
242	0xbe8b73b5	-0.27236715
243	0x3bdc17d9	0.00671671
244	0xbf0f1909	-0.55897576
245	0x3efcaf20	0.4935236
246	0x3f140a7f	0.57828516
247	0x3fe7925a	1.8091538
248	0xbfe71dcf	-1.8055972
249	0xbf363837	-0.7117953
250	0x3f512bc3	0.817074
251	0x3ddf3d85	0.10900406
252	0x3e03bb6d	0.12864466
253	0xbd5f5d97	-0.054532614
254	0xbe652b42	-0.22379783
255	0x3ee9d3fa	0.45669538

fc1.bias f4 [400]
0	0xbfa7b464	-1.3101926
1	0xbf5188f8	-0.8184962
2	0xbf801fd1	-1.000971
3	0xbf5b9685	-0.8577655
4	0x3dcaf5e2	0.0991018
5	0xbf22b5e4	-0.63558793
6	0xbf0e9c7e	-0.5570754
7	0xbf443dc0	-0.76656723
8	0xbf92d346	-1.1470726
9	0xbf8261a9	-1.0186054
10	0xbfa8d15c	-1.3188891
11	0xbf545b32	-0.82951653
12	0xbf43c105	-0.764664
13	0xbedea6bc	-0.43486583
14	0xbfd6f9d1	-1.6794988
15	0xbf44c392	-0.76860917
16	0xbf3c8075	-0.7363351
17	0xbe3a0fe6	-0.18170127
18	0xbea9a2cc	-0.33132017
19	0xbfb6cfd5	-1.4282175
20	0xbf2c2582	-0.6724473
21	0xbf2d9705	-0.6780856
22	0xbfb71e43	-1.430611
23	0xbf8fa39c	-1.1221805
24	0xbf8f7a7d	-1.1209255
25	0xbf6ba65a	-0.9205071
26	0xbfbf8aff	-1.4964293
27	0xbf179189	-0.59206444
28	0xbf81baf0	-1.0135174
29	0xbf37d0e7	-0.71803135
30	0xbf8eae02	-1.1146853
31	0xbf548883	-0.830208
32	0xbfb491cd	-1.4106995
33	0x3ec0760f	0.37590072
34	0xbee26bd5	-0.44222894
35	0xbf86a2af	-1.0518397
36	0xbf4294b0	-0.7600813
37	0xbf1613ef	-0.58624166
38	0xbea9f3d9	-0.33193853
39	0xbecd88a8	-0.40143323
40	0xbeb35914	-0.350289
41	0xbf08624a	-0.5327498
42	0xbf5cd3ce	-0.8626069
43	0xbf99c2c0	-1.2012558
44	0xbf7c51b3	-0.98562163
45	0xbfa39b7c	-1.2781825
46	0xbf4d6fbe	-0.8024863
47	0xbf41eb5f	-0.7574977
48	0xbecb2413	-0.3967596
49	0xbdf1c1b8	-0.11804527
50	0xbf4d2885	-0.8013995
51	0xbf647f6f	-0.8925695
52	0xbeb2092c	-0.34772623
53	0xbef1adf7	-0.47203037
54	0x3df761c5	0.12079195
55	0xbfb35361	-1.400982
56	0xbf393eae	-0.72361267
57	0xbd8d04dc	-0.068856925
58	0xbfbdf2bd	-1.4839703
59	0xbee06b1c	-0.43831718
60	0xbed2adb2	-0.41148144
61	0x3e00110c	0.12506503
62	0xbefc7d89	-0.49314526
63	0xbf76c1fa	-0.96389735
64	0xbe9c1330	-0.3048339
65	0xbdcb8b30	-0.09938657
66	0xbfcb5b2b	-1.5887197
67	0xbf4bd4d9	-0.79621655
68	0xbf246488	-0.642159
69	0xbc652e88	-0.013988145
70	0xbf9b6c31	-1.2142392
71	0xbf301b91	-0.68792063
72	0xbfeda22b	-1.8565115
73	0x3e0f9bb7	0.14024244
74	0xbf9da169	-1.2314883
75	0xbf5ec3cb	-0.87017506
76	0xbfb77632	-1.4332945
77	0xbeef70fe	-0.46765894
78	0xbf11015c	-0.566427
79	0x3e8ceeec	0.27526033
80	0xbf83658b	-1.0265363
81	0xbf01aaee	-0.50651443
82	0xbfb895d1	-1.442072
83	0xbf967810	-1.175539
84	0xbf8b4e9a	-1.0883362
85	0xbf661768	-0.89879465
86	0xbf60ed48	-0.8786206
87	0xbf98b43c	-1.1930003
88	0xbecab722	-0.39592844
89	0xbf7cfc91	-0.98822886
90	0xbf175397	-0.5911192
91	0xbf769373	-0.9631874
92	0xbf807df9	-1.0038444
93	0xbe60bf54	-0.21947986
94	0xbf4c0bbc	-0.79705405
95	0x3e72bacf	0.23704074
96	0xbee68d3e	-0.45029634
97	0xbf0151ca	-0.50515425
98	0xbf860c75	-1.0472552
99	0xbf4a2019	-0.7895523
100	0xbf8574ab	-1.0426229
101	0x3e462cd8	0.19353044
102	0xbf290836	-0.66028154
103	0xbe47bd75	-0.19505866
104	0xbf23a804	-0.63928246
105	0xbd4906fc	-0.049078926
106	0xbfdb3186	-1.7124488
107	0xbfddea17	-1.7337064
108	0xbf5a4bc2	-0.8527185
109	0xbf3363bb	-0.7007405
110	0xbea8d79c	-0.32976997
111	0xbf6215f6	-0.8831476
112	0xbef8bfb7	-0.48583767
113	0xbf2b81d2	-0.66994965
114	0xbfd2aca9	-1.6458942
115	0xbf91cdb2	-1.1390898
116	0xbf4016d3	-0.75034827
117	0xbf245749	-0.64195687
118	0xbe002dd1	-0.12517478
119	0xbe7cdc8c	-0.24693507
120	0xbeed117f	-0.4630241
121	0xbf51c40a	-0.81939757
122	0xbee16a8f	-0.4402661
123	0xbf41e564	-0.7574065
124	0xbf94bbfd	-1.161987
125	0xbf8a687a	-1.0813134
126	0xbf19ad0f	-0.6002969
127	0xbecffec0	-0.40624046
128	0xbf0e1d87	-0.55513805
129	0xbfa1e2a6	-1.2647293
130	0xbbd77b32	-0.0065759653
131	0xbf4904da	-0.7852303
132	0xbfcde247	-1.6084679
133	0x3b659415	0.003503089
134	0xc00e539a	-2.2238526
135	0xbf21ea43	-0.6324808
136	0xbfd65bb9	-1.6746742
137	0xbf56b9e2	-0.83877385
138	0xbf80f33c	-1.0074229
139	0xbf1cf0e0	-0.61305046
140	0xbfb9c8bd	-1.4514385
141	0xbf05f1bc	-0.5232198
142	0xbf5ad1f9	-0.8547664
143	0xbfa5b8fc	-1.2947078
144	0xbf172ec4	-0.59055734
145	0xbea0e19e	-0.31422132
146	0xbfb7d320	-1.4361305
147	0xbe2aba3e	-0.16672608
148	0xbf818d60	-1.0121269
149	0xc003af8f	-2.0575902
150	0xbe6176a1	-0.2201791
151	0xbf75865a	-0.9590813
152	0xbf15b8ad	-0.5848492
153	0xbf5518db	-0.8324105
154	0xbf979430	-1.1842098
155	0xbfb1dc40	-1.389534
156	0xbfacc17f	-1.349655
157	0xbff12487	-1.8839272
158	0xbf342bd0	-0.7037935
159	0xbeb7438f	-0.3579373
160	0xbf89cc55	-1.0765482
161	0xbdf30282	-0.11865713
162	0xbfa394bb	-1.2779764
163	0xbfb0a08a	-1.3798993
164	0xbfae030b	-1.3594679
165	0xbfcce16c	-1.6006293
166	0xbf2d221c	-0.6763017
167	0xbf8e5789	-1.1120464
168	0xbf3f279a	-0.746698
169	0x3d7c1fd8	0.061553806
170	0xbfa7eb15	-1.3118616
171	0xbff0472b	-1.8771719
172	0xbef2b8e2	-0.4740668
173	0xbf0d767f	-0.55258936
174	0xbf3cd76b	-0.737662
175	0xbfb24d72	-1.3929884
176	0xbff3e89b	-1.905536
177	0xbeb9a614	-0.3625952
178	0xbf92cee7	-1.1469392
179	0xbf26050a	-0.6485144
180	0xbf98124e	-1.1880586
181	0xbdd6e195	-0.10492245
182	0xbf305dbd	-0.68893033
183	0xbfa24145	-1.2676169
184	0xbfe4dd1b	-1.7879976
185	0xbf9a4fa1	-1.2055551
186	0xbf89a988	-1.0754862
187	0xbf4afed2	-0.79295075
188	0xbf13b760	-0.57701683
189	0xbfb89d29	-1.4422961
190	0xbf5da637	-0.8658175
191	0xbfa0111d	-1.2505223
192	0xbf45b86a	-0.7723452
193	0xbf82de9a	-1.0224183
194	0x3ce8c5d9	0.028414654
195	0xbf1b8483	-0.6074907
196	0xbf0415c6	-0.51595724
197	0xbf31b9c8	-0.69424105
198	0xbf383340	-0.719532
199	0xbf102521	-0.56306654
200	0xbf651713	-0.89488333
201	0xbf319348	-0.6936536
202	0xbee53815	-0.4476935
203	0xbee83ccb	-0.4535888
204	0xbf487af4	-0.7831261
205	0xbf914507	-1.134919
206	0xbf9703d5	-1.1798044
207	0xbf6f465f	-0.9346675
208	0xbeaaa2f1	-0.3332744
209	0xbf1d61c8	-0.6147733
210	0xbe462be6	-0.19352683
211	0xbeda53ff	-0.4264221
212	0xbfc2c5f9	-1.5216666
213	0xbe9a4e73	-0.30137977
214	0xbf57e428	-0.84332514
215	0xbf052391	-0.52007395
216	0xbfafc7ad	-1.3732811
217	0xbf61490b	-0.8800208
218	0xbf852f77	-1.040511
219	0xbf512362	-0.81694615
220	0xbf28db97	-0.6596007
221	0xbeba3a4b	-0.363726
222	0xbfb1bb77	-1.3885335
223	0x3e9d5bbf	0.3073406
224	0xbf5df3f6	-0.8670038
225	0xbf51bed8	-0.8193183
226	0xbf8c4d83	-1.0961155
227	0xbf95a542	-1.1691058
228	0xbfda173e	-1.7038343
229	0x3e5c29d1	0.21500327
230	0xbef4f109	-0.47840145
231	0xbfaffd5d	-1.3749195
232	0xbf28b59d	-0.6590212
233	0xbd7920fd	-0.060822476
234	0xbf1889aa	-0.5958506
235	0xbf33f77f	-0.70299524
236	0xbe8893d4	-0.26675284
237	0xbfecbb5c	-1.8494678
238	0xbf84bb16	-1.0369594
239	0xbf85d51d	-1.0455662
240	0xbe8dd412	-0.2770086
241	0xbf97b04f	-1.185068
242	0x3e0d75e3	0.13814501
243	0xbf9772da	-1.1831925
244	0xbf528b79	-0.8224407
245	0xbf9c9047	-1.223153
246	0xbf762d45	-0.96162826
247	0xbf65d83e	-0.89783084
248	0xbf9a9f4b	-1.2079862
249	0xbeb8bf4c	-0.36083448
250	0xbfc1ad3c	-1.5130992
251	0xbf8a532e	-1.0806634
252	0xbefad7bc	-0.48992717
253	0xbfb4b97f	-1.4119109
254	0xbe93415f	-0.28760812
255	0xbf70db08	-0.94084215

bn1.weight f4 [400]
0	0x3e43ba77	0.191141
1	0x3e717fc9	0.23583902
2	0x3e0a1d2a	0.13487688
3	0x3e1f7583	0.15572171
4	0x3e255e31	0.16149212
5	0x3e3b0cbd	0.18266578
6	0x3e33e623	0.17568259
7	0xbe7b6df5	-0.24553664
8	0x3e34a7b9	0.17642106
9	0x3e583bc2	0.21116546
10	0x3e2ef4ca	0.17085567
11	0x3e6c5aa3	0.2308145
12	0x3e4ea5fd	0.20180507
13	0x3e3b46fe	0.182888
14	0x3e8826dc	0.26592147
15	0x3e281d40	0.16417408
16	0x3e93ce8c	0.2886852
17	0x3e404c92	0.1877921
18	0x3e636802	0.22207645
19	0x3e2a978a	0.1665937
20	0x3e4a8185	0.1977597
21	0x3eb49cac	0.3527578
22	0x3df31a78	0.11870283
23	0x3e32c829	0.17459168
24	0x3e1cadf9	0.1530074
25	0x3e3c8b77	0.18412577
26	0x3e68ebeb	0.22746246
27	0x3eb59a09	0.35469082
28	0x3e6820f3	0.22668819
29	0x3e67acaa	0.2262446
30	0x3eb42ad9	0.3518894
31	0x3e632e0a	0.22185531
32	0x3e076c5a	0.13224927
33	0x3e1a22ad	0.1505229
34	0x3e7543c1	0.23951627
35	0x3e1f3d6a	0.15550771
36	0x3e3f112f	0.18658899
37	0x3e8badd6	0.27281064
38	0x3e338310	0.17530465
39	0x3e4f8525	0.20265634
40	0x3e790baa	0.24320856
41	0x3e4b49b6	0.19852337
42	0x3e94597d	0.28974524
43	0x3e44c5d8	0.19216096
44	0x3e6236b2	0.22091177
45	0x3e6fc65c	0.23415512
46	0x3e6581ba	0.22412768
47	0x3eb2b9d9	0.34907416
48	0x3e35279a	0.17690888
49	0x3e76c851	0.24099852
50	0x3d97338e	0.0738288
51	0x3e082c79	0.13298215
52	0x3e77ba28	0.24192107
53	0x3e8dfd74	0.27732432
54	0x3e7cef9c	0.24700779
55	0x3eaed7fc	0.34149158
56	0x3e90336c	0.28164232
57	0x3e53ef72	0.2069681
58	0x3e626387	0.22108279
59	0xbdda6efd	-0.106657006
60	0x3e5e747f	0.21724127
61	0x3e2b4dea	0.1672894
62	0x3e1b103c	0.15142912
63	0x3e2d5f73	0.16930942
64	0x3e77db64	0.24204785
65	0x3ec3ba90	0.38228273
66	0x3e0a86c0	0.13527966
67	0x3e619463	0.22029261
68	0x3d906103	0.070497535
69	0x3e58bb08	0.21165097
70	0x3e30a708	0.17251217
71	0x3da7ea03	0.08198931
72	0xbd81eccc	-0.063439935
73	0x3e98a90e	0.29816478
74	0x3e1e2f36	0.15447697
75	0x3f64bb58	0.89348364
76	0x3e4955d6	0.1966165
77	0x3e450bbd	0.19242759
78	0x3e473575	0.19453986
79	0x3e90a09d	0.28247538
80	0x3e24c19b	0.1608948
81	0x3e9a27fd	0.30108634
82	0x3e4e80e4	0.20166355
83	0x3ec8f1d6	0.39247006
84	0x3e51fc0a	0.20506302
85	0x3e337238	0.1752404
86	0x3e853086	0.26013583
87	0x3ed45e03	0.41477975
88	0x3e00b3c4	0.12568575
89	0x3e480809	0.19534315
90	0x3e631ef7	0.22179781
91	0x3f619f32	0.8813354
92	0x3e5aeb42	0.21378806
93	0x3e57111d	0.21002622
94	0x3e8784de	0.26468557
95	0x3e715c64	0.235704
96	0x3e29fa48	0.16599381
97	0x3e923a5a	0.28560144
98	0xbe350459	-0.1767744
99	0x3ea132af	0.3148398
100	0x3eb1a948	0.34699464
101	0x3e371b9d	0.17881627
102	0x3e2a332d	0.16621085
103	0x3deb40dd	0.11486981
104	0x3e20b750	0.15694928
105	0x3e2f57fd	0.17123409
106	0x3e1dc04e	0.1540539
107	0x3db29fa4	0.08721855
108	0x3eaa930e	0.3331532
109	0x3de55b1d	0.11199019
110	0x3e4dc312	0.20093945
111	0x3e204827	0.15652524
112	0x3e24705a	0.16058484
113	0x3e7b3367	0.24531327
114	0xbdfcc2e5	-0.12341861
115	0x3e208d79	0.15678968
116	0x3e4e7447	0.20161544
117	0x3e42d909	0.19028105
118	0x3ec92732	0.39287716
119	0x3e1037de	0.14083812
120	0x3ee69a04	0.4503938
121	0x3e1797e5	0.14804037
122	0x3e21d101	0.15802385
123	0x3e177eb8	0.14794433
124	0x3e50fde0	0.20409346
125	0x3e1df11b	0.15424006
126	0x3e4878ea	0.19577375
127	0xbde3367d	-0.11094377
128	0x3e39b375	0.18134864
129	0xbe137ee0	-0.14403868
130	0x3e53afa1	0.20672466
131	0x3e4a7376	0.19770607
132	0x3e503136	0.20331272
133	0x3e4fcdff	0.20293425
134	0xbccf4a4b	-0.02530398
135	0x3fb940a1	1.4472848
136	0xbe075563	-0.13216166
137	0x3e3b94f5	0.18318541
138	0x3e8e2f75	0.27770582
139	0x3e815454	0.2525965
140	0x3e352429	0.17689575
141	0x3dedc415	0.11609665
142	0x3db501a8	0.088382065
143	0x3e30c7d3	0.17263727
144	0x3e0af1ff	0.13568877
145	0x3e60c37f	0.21949576
146	0x3e3ce34b	0.1844608
147	0x3e1ccd71	0.15312745
148	0x3e2b207c	0.1671161
149	0x3e190683	0.1494389
150	0x3e4325c0	0.19057369
151	0x3dcbf5f8	0.09959024
152	0x3ec402d0	0.38283396
153	0x3e199b5c	0.15000671
154	0x3e2d1c80	0.16905403
155	0x3de166df	0.11005949
156	0x3dd7d163	0.10537984
157	0x3e51195e	0.20419833
158	0x3eb01cef	0.34397075
159	0x3e867871	0.26263765
160	0x3e6ef247	0.23334609
161	0x3f9cc7a9	1.2248431
162	0x3e307c78	0.17234981
163	0x3dd3c4d4	0.10340276
164	0x3e9254d1	0.28580335
165	0xbe159427	-0.14607297
166	0x3e805721	0.25066474
167	0x3e75ffa8	0.24023306
168	0x3e143b60	0.14475775
169	0x3e21b8ca	0.15793148
170	0x3e719207	0.23590861
171	0xbe114d27	-0.14189588
172	0x3e2dbca5	0.16966493
173	0xbe117c72	-0.14207628
174	0x3e2dabe4	0.16960102
175	0x3dcb2bd0	0.09920466
176	0xbe1d7872	-0.15377977
177	0x3eaa190d	0.33222237
178	0x3e148c0c	0.14506549
179	0x3e223381	0.1583996
180	0x3e121c18	0.1426853
181	0xbe7e98af	-0.24862932
182	0x3e8fa3b3	0.2805458
183	0x3def3503	0.11680033
184	0x3dd6f485	0.10495857
185	0x3e1a11e0	0.15045881
186	0x3e79bcb4	0.24388391
187	0x3f282db5	0.65694743
188	0x3e640d45	0.22270687
189	0x3e6e61b1	0.23279454
190	0x3e140c27	0.14457761
191	0x3e1f0059	0.15527476
192	0x3e295f32	0.1654022
193	0x3e731380	0.23737907
194	0x3f2a5cb8	0.6654773
195	0x3f5bc675	0.85849696
196	0x3ebb8f0b	0.3663257
197	0xbe623647	-0.22091018
198	0x3e4d8515	0.20070298
199	0xbddb95a1	-0.10721899
200	0x3e7edb0c	0.24888247
201	0x3e146a3e	0.14493653
202	0x3f11d1a8	0.56960535
203	0x3e66a354	0.22523242
204	0x3e6503f3	0.22364788
205	0x3ea255aa	0.31705981
206	0x3e1a9c5b	0.15098707
207	0x3de08222	0.10962321
208	0x3e37abb9	0.179366
209	0x3e53865f	0.20656727
210	0x3e84ddec	0.25950563
211	0x3e4e100a	0.20123306
212	0xbe2d6e2b	-0.16936557
213	0x3e16d9e1	0.14731552
214	0x3e3c23d9	0.1837305
215	0x3e433c83	0.19066052
216	0x3ead04b9	0.33792666
217	0x3ead474f	0.33843467
218	0x3e04e41e	0.12977645
219	0x3e4aae57	0.19793068
220	0x3e36b518	0.1784252
221	0x3ea09839	0.31366137
222	0xbe013ca6	-0.12620792
223	0x3e094480	0.13405037
224	0x3e223bcf	0.15843128
225	0x3f4080e4	0.7519667
226	0xbdcd8596	-0.10035245
227	0x3e276fd1	0.16351248
228	0x3deeaa6a	0.11653598
229	0x3e1f3a7f	0.15549658
230	0x3e53b2e7	0.20673715
231	0x3e15c111	0.1462443
232	0x3e8a0572	0.2695728
233	0x3e7a9e48	0.24474442
234	0x3e28b625	0.16475733
235	0x3f44bbcd	0.7684906
236	0x3e9781c7	0.295912
237	0xbe0cfd39	-0.13768472
238	0x3e22d54a	0.15901676
239	0x3e02af54	0.12762195
240	0xbe2e531f	-0.17023896
241	0xbdc64fd5	-0.096831955
242	0x3e464f29	0.19366135
243	0x3e15bf71	0.1462381
244	0x3e8121b2	0.2522102
245	0x3e142572	0.14467409
246	0x3e1b2138	0.1514939
247	0x3e4b8b57	0.19877373
248	0x3e5ccbca	0.21562114
249	0x3e28c334	0.16480714
250	0xbdd3b32e	-0.1033691
251	0x3e0dfaeb	0.13865249
252	0x3e535596	0.20638117
253	0x3e38fe27	0.18065701
254	0x3e783bfc	0.24241632
255	0x3ea4ddd6	0.32200497

bn1.bias f4 [400]
0	0x3bff0fcb	0.007783865
1	0x3f206943	0.62660617
2	0x3ca415a3	0.020029848
3	0x3d23e57f	0.040013786
4	0xbd6cf65b	-0.05785213
5	0x3d4ff8b7	0.050774302
6	0x3d8c1494	0.068398625
7	0xbd9c3c8f	-0.07628738
8	0x3d8f93ce	0.070106134
9	0x3d6acf7f	0.05732679
10	0x3cb35e70	0.021895617
11	0x3d42aeb6	0.0475299
12	0x3d94464f	0.07239973
13	0x3c00db47	0.00786478
14	0x3ddfbdcb	0.10924872
15	0x3d08f585	0.03343727
16	0x3df75143	0.12076046
17	0x3d3e58ce	0.04647141
18	0x3dc7e8a6	0.09761171
19	0x3cda075e	0.026614841
20	0x3cbf4a48	0.02335085
21	0x3e13097d	0.14359088
22	0x3d3c8d9c	0.046033487
23	0x3ccc48f5	0.024937132
24	0x3cb3ba61	0.021939458
25	0x3d18b79f	0.03728449
26	0x3bc244c3	0.005928607
27	0x3d89142e	0.06693302
28	0x3d4d41fc	0.050111756
29	0x3dd26dc2	0.10274841
30	0x3e34d72e	0.1766021
31	0x3d5eff94	0.054442957
32	0x3d30a8a4	0.04312958
33	0x3c86a5c8	0.016436473
34	0x3d157e78	0.036497563
35	0x3d622d54	0.05521901
36	0x3d202647	0.039099004
37	0x3dce37cd	0.10069237
38	0x3d4abf43	0.049498808
39	0x3d7067ed	0.05869286
40	0xbcd812ea	-0.026376206
41	0x3d941f39	0.07232518
42	0x3da1f457	0.07907932
43	0x3d06cb7f	0.032908913
44	0x3d93f500	0.072244644
45	0x3db2c96a	0.08729823
46	0x3dd8ed4c	0.10592136
47	0x3e18a53f	0.14906786
48	0x3bc037f5	0.0058660456
49	0x3d9bf51a	0.07615109
50	0x3c2d8e5b	0.010593022
51	0x3d625f7e	0.05526685
52	0x3d844940	0.06459284
53	0x3dc11282	0.09427358
54	0x3d927c61	0.0715263
55	0x3e06fe2a	0.13182893
56	0x3eb880cb	0.3603576
57	0x3dca2012	0.09869398
58	0x3d70464a	0.058660783
59	0xbc4315e9	-0.011907079
60	0x3da7bcf5	0.081903376
61	0x3d657d65	0.05602779
62	0x3c92786d	0.01787969
63	0x3c8cf63f	0.017207263
64	0x3ddec751	0.1087786
65	0x3ebd8a14	0.37019408
66	0x3cfb0ad3	0.03064481
67	0x3d844639	0.064587064
68	0x3cd33f9a	0.025787164
69	0x3da7cbc0	0.08193159
70	0x3d74366c	0.059622213
71	0x3cca4310	0.024690181
72	0xbc099f68	-0.008399822
73	0x3e012959	0.12613429
74	0x3cf54fbd	0.029945249
75	0x3e957d5e	0.2919721
76	0x3d51b87b	0.051201325
77	0x3d534dd3	0.05158789
78	0x3da28b0d	0.07936678
79	0x3d8f3b0c	0.06993684
80	0xbc0a27f8	-0.008432381
81	0x3dcbd533	0.09952774
82	0x3d207be4	0.03918065
83	0x3e45c3c1	0.19312955
84	0x3d70c3f1	0.058780614
85	0x3d8412dd	0.064489104
86	0x3d5f30d4	0.054489926
87	0x3e3947c3	0.18093781
88	0x3d550643	0.052007925
89	0x3d22eb1e	0.039775006
90	0x3dcb3932	0.099230185
91	0x3e811228	0.25209165
92	0x3d8cda3f	0.06877565
93	0xbc0145bc	-0.007890161
94	0x3d80ec97	0.06295126
95	0x3d90a0d0	0.070619226
96	0x3d25c611	0.040472094
97	0x3e130b5a	0.14359799
98	0xbce7a92c	-0.02827891
99	0x3dbdbccc	0.09264526
100	0x3df90679	0.12159438
101	0x3a4eaa81	0.00078836834
102	0x3dd81343	0.10550549
103	0x3c8d9a05	0.017285356
104	0x3cdfb3e5	0.02730746
105	0x3d08c118	0.033387274
106	0x3d14b4e7	0.036305334
107	0x3afb7781	0.0019185395
108	0x3e432b8f	0.19059585
109	0x3c0929e7	0.008371807
110	0x3d887d75	0.06664554
111	0x3d754a75	0.05988546
112	0x3d15493f	0.036446806
113	0x3e044205	0.1291581
114	0xbbb57c55	-0.005538503
115	0x3d0c2fe4	0.03422536
116	0x3db4ea48	0.08833748
117	0x3d469dbb	0.048490267
118	0x3c5b0e44	0.0133701
119	0x3c8fbf88	0.017547384
120	0x3ce38730	0.027774423
121	0x3c9ea099	0.019363688
122	0x3c9050a8	0.017616585
123	0x3d463afc	0.048396096
124	0x3d3406d5	0.043951828
125	0x3d5725b8	0.052526206
126	0x3d8f963a	0.07011075
127	0xbce7d907	-0.028301729
128	0x3d8298a4	0.0637677
129	0xbd17b127	-0.03703418
130	0x3dd91656	0.10599963
131	0x3d8b2270	0.06793678
132	0x3d912328	0.07086784
133	0x3d3332b0	0.04374951
134	0xbc8b7097	-0.01702146
135	0x3e32290c	0.1739847
136	0xbc64a8d5	-0.013956268
137	0x3cfc96d7	0.030833645
138	0x3db6c0b9	0.08923478
139	0x3e5ad425	0.21369989
140	0x3d2a1c8b	0.041531127
141	0x3bf7ecc7	0.007566068
142	0x3c9f9361	0.019479455
143	0x3d6c9a08	0.057764083
144	0x3d2f6807	0.042823818
145	0x3d8a5d7c	0.06756112
146	0x3df8a974	0.121416956
147	0x3d248cbb	0.040173274
148	0x3c5c4262	0.013443561
149	0x3d327836	0.043571673
150	0x3d06faab	0.0329539
151	0x3ca3920f	0.019967107
152	0x3db31db5	0.087459005
153	0x3d12ff61	0.03588808
154	0x3d81da0d	0.06340418
155	0x3d08c566	0.03339138
156	0xbb58071b	-0.003296322
157	0x3c329ea0	0.010902077
158	0x3e00b60a	0.12569442
159	0x3d33084b	0.04370908
160	0x3d4061f3	0.04696841
161	0x3eb2d8ac	0.34930933
162	0x3d3a7adb	0.04552732
163	0x3c69edad	0.014277858
164	0x3db9fe54	0.09081712
165	0xbcd56a85	-0.026051769
166	0x3dcd7e0b	0.100338064
167	0x3d7cb908	0.061699897
168	0x3cd77d7d	0.026304955
169	0x3cf70c7f	0.030157326
170	0x3ded7716	0.115949795
171	0xbce06a0a	-0.027394313
172	0x3d569fff	0.052398678
173	0xbe2c707e	-0.16839787
174	0x3bfee4f5	0.0077787586
175	0x3c70b787	0.014692194
176	0xbd3df562	-0.046376593
177	0x3dd676df	0.104718916
178	0x3d8f33ed	0.06992326
179	0x3cdc86fc	0.026919834
180	0x3c8077a7	0.015682055
181	0xbd25a9a9	-0.040445004
182	0x3dd612b5	0.10452787
183	0xbd02aa93	-0.031900954
184	0x3c85bc7c	0.016325228
185	0x3d0c58da	0.034264423
186	0x3de75f87	0.11297517
187	0x3e565ad6	0.20933089
188	0x3c8fc582	0.017550234
189	0x3d2eace1	0.04264534
190	0x3c997032	0.018730257
191	0x3d1f4164	0.03888072
192	0x3d616137	0.055024352
193	0x3d99c505	0.075082816
194	0x3e9ba6d2	0.3040071
195	0x3eb7d460	0.35904217
196	0x3e2b1bd9	0.16709842
197	0xbda0bce1	-0.07848526
198	0x3d896ca9	0.067101784
199	0xbced139a	-0.02894001
200	0x3dc45830	0.09587133
201	0x3c677450	0.014126852
202	0x3e97f974	0.29682505
203	0x3d94a289	0.072575636
204	0x3d93935d	0.07205842
205	0x3db9c3d2	0.09070553
206	0x3caed8ef	0.021343676
207	0x3c717dcd	0.014739466
208	0x3d2c3acf	0.04204827
209	0x3ce273f0	0.027643174
210	0x3dc44788	0.09583956
211	0x3d9425a4	0.07233742
212	0xbce1fd7f	-0.027586697
213	0x3b19af38	0.0023450386
214	0x3d953a6d	0.072865345
215	0x3d4ba314	0.04971607
216	0x3dd0a741	0.10188151
217	0x3e6582ec	0.22413224
218	0x3b19a502	0.00234443
219	0x3cebb497	0.028772635
220	0x3d9226f6	0.071363375
221	0x3df8c7d3	0.121474884
222	0xbd2e5919	-0.04256544
223	0x3d15e5bb	0.03659604
224	0x3d6fd37f	0.058551308
225	0x3e7b5414	0.24543792
226	0xbcb04cfa	-0.02152108
227	0x3d3a6957	0.045510616
228	0xbc662ab6	-0.014048269
229	0x3d460ec2	0.048353918
230	0x3e0fbb27	0.14036237
231	0x3cbccb75	0.023046235
232	0x3d89bda8	0.06725627
233	0x3de609f6	0.11232369
234	0x3c83930e	0.016061332
235	0x3e78ace6	0.24284706
236	0x3cefaf87	0.029258503
237	0x3c9fa14d	0.019486094
238	0x3c854251	0.016266974
239	0x3d16b068	0.036789328
240	0xbce77b2c	-0.028256975
241	0xbc9c49e0	-0.019078195
242	0x3bf5b736	0.007498647
243	0x3d4e2c1a	0.050335027
244	0x3d995b9e	0.07488178
245	0xbc54a4bf	-0.012978732
246	0x3eaabf6c	0.33349168
247	0x3da18f2c	0.07888636
248	0x3db677cc	0.08909568
249	0x3d75234f	0.059848126
250	0xbcfb9d16	-0.030714553
251	0x3cd12fe2	0.025535528
252	0x3db146bf	0.08656072
253	0x3cca0022	0.024658266
254	0x3e2b0002	0.16699222
255	0x3df26978	0.11836523

bn1.running_mean f4 [400]
0	0x3ea6307c	0.32458866
1	0x402a6343	2.6623085
2	0x3ec0eb03	0.376793
3	0x3f1f66fc	0.62266517
4	0x4006a407	2.1037614
5	0x3f0d5327	0.55205005
6	0x3f3cc722	0.7374135
7	0x3f136867	0.5758118
8	0x3f5b9aa4	0.8578284
9	0x3f0a9d23	0.5414602
10	0x3e15fc83	0.14647107
11	0x3f0ed63c	0.55795646
12	0x3eb8e93e	0.3611545
13	0x3f252842	0.64514554
14	0x3f042c72	0.5163032
15	0x3eb1ca34	0.3472458
16	0x3f9bae62	1.2162592
17	0x3f527fb1	0.8222609
18	0x3f56afca	0.8386198
19	0x3e6df4fc	0.23237985
20	0x3e9a8ec3	0.30187044
21	0x3f5bfcc2	0.8593255
22	0x3e496bfd	0.196701
23	0x3f27ffda	0.65624774
24	0x3f7cca51	0.9874621
25	0x3f1a3713	0.60240287
26	0x3f80f7aa	1.0075581
27	0x3f28047c	0.6563184
28	0x3f0cba93	0.5497219
29	0x3f925deb	1.1434911
30	0x3f9a7f0e	1.2070024
31	0x3f76cdfb	0.9640805
32	0x3e2fc74d	0.17165871
33	0x3f17b54a	0.59261
34	0x3ef3cea1	0.47618583
35	0x3f8f0f90	1.1176624
36	0x3f496a99	0.7867828
37	0x3e7a38ae	0.24435684
38	0x3ef59a16	0.4796912
39	0x3f5a1beb	0.8519885
40	0x3f8e4ebe	1.111778
41	0x3eddfe68	0.4335816
42	0x3e9f31b2	0.31092602
43	0x3edf09d6	0.43562192
44	0x3ea6833f	0.32522008
45	0x3f29cb58	0.663259
46	0x3f00fc75	0.5038522
47	0x3f72346a	0.9461123
48	0x3fa13773	1.2595047
49	0x3fe4f3e1	1.7886926
50	0x3ee3648c	0.4441265
51	0x3f6eca4b	0.93277425
52	0x3eccdc2e	0.40011734
53	0x3f250a75	0.6446908
54	0x3ee62ccd	0.44956055
55	0x3edba64b	0.4290031
56	0x4039c368	2.9025517
57	0x3f8aaab7	1.0833348
58	0x3d9daa79	0.07698531
59	0x3f211973	0.6292946
60	0x3fcd003a	1.6015694
61	0x3fb3755b	1.4020189
62	0x3eceea22	0.40413004
63	0x3ea6c089	0.32568768
64	0x401093b1	2.2590144
65	0x408c8fec	4.3925686
66	0x3e85f687	0.26164648
67	0x3fc9f4b7	1.5777806
68	0x3f3d3bdb	0.7391946
69	0x3ef7209a	0.4826706
70	0x3f610f40	0.87913895
71	0x3f8215ea	1.0162938
72	0x3d8179e5	0.06322078
73	0x3eedcbe0	0.46444607
74	0x3e4b157e	0.19832417
75	0x3f7802d4	0.96879315
76	0x3dc512cf	0.09622728
77	0x3e4d998a	0.20078102
78	0x3f304916	0.6886152
79	0x3f1931bc	0.59841514
80	0x3e83decb	0.25755915
81	0x3f183760	0.59459496
82	0x3e3dcf61	0.1853614
83	0x3f96ca12	1.1780417
84	0x3eccafb3	0.39977798
85	0x3f089835	0.5335725
86	0x3f086efa	0.53294337
87	0x3f247937	0.6424746
88	0x3f7431ad	0.953883
89	0x3e9e76a1	0.30949882
90	0x3f9128b6	1.1340549
91	0x3f3512f6	0.7073206
92	0x3f851d80	1.0399628
93	0x3f5bb864	0.8582823
94	0x3f03eab8	0.5153003
95	0x3fa075ba	1.2535927
96	0x3f8b90b8	1.090354
97	0x3f2c670b	0.6734473
98	0x3f03f762	0.5154935
99	0x3f887181	1.0659639
100	0x3e66ebcb	0.22550885
101	0x404cb3e7	3.1984804
102	0x401892db	2.3839633
103	0x3fcd8149	1.605508
104	0x3eb5e73a	0.35527974
105	0x3ea25bad	0.31710568
106	0x3ea7b34b	0.32753977
107	0x3eef75fe	0.46769708
108	0x3f7d3435	0.98907787
109	0x3f6144cd	0.87995607
110	0x3f40e9f2	0.7535697
111	0x3f696a83	0.9117815
112	0x3ed06aca	0.40706474
113	0x3f277da6	0.654261
114	0x3dd41a15	0.10356537
115	0x3f7d3808	0.9891362
116	0x3f1dc3db	0.61626977
117	0x3f10f9a8	0.56630945
118	0x3f1acc65	0.6046813
119	0x3f1278fb	0.5721585
120	0x3ff4595d	1.9089772
121	0x3ea523cc	0.32253873
122	0x3f044cb6	0.5167955
123	0x3ee9d33e	0.45668977
124	0x3ef95174	0.48694956
125	0x3eb65dad	0.35618344
126	0x4020aa7e	2.510406
127	0x3e6f5666	0.23372802
128	0x3f91b9a2	1.1384776
129	0x3f3fab1f	0.74870485
130	0x3f99ed9c	1.2025638
131	0x3f2668d9	0.65003735
132	0x3f3f7f77	0.7480387
133	0x3fe1c4bb	1.7638162
134	0xbd9c3bf5	-0.076286234
135	0x3f910209	1.1328746
136	0x3ddae7cf	0.10688745
137	0x3fea28d7	1.8293713
138	0x3fa2045e	1.2657583
139	0x3fc20f53	1.5160927
140	0x3e3da80e	0.18521139
141	0x3ebd93bb	0.37026772
142	0x3f0f9704	0.56089807
143	0x3f02cf59	0.5109764
144	0x3e912002	0.28344733
145	0x3efb6794	0.4910246
146	0x4002c4c1	2.043259
147	0x3ebb8ac6	0.36629313
148	0x3f0c4f93	0.5480892
149	0x3e4a6c2f	0.19767831
150	0x3e77402a	0.2414557
151	0x3d902a02	0.07039262
152	0x3fcd9570	1.606123
153	0x3f77af86	0.967522
154	0x3f9ae324	1.2100568
155	0x3e4ab253	0.19794588
156	0x3e049505	0.12947471
157	0x3e23a2df	0.15980099
158	0x3f0cc164	0.5498259
159	0x3f286fbc	0.65795493
160	0x3f0ff5fc	0.5623472
161	0x3fe12c5f	1.7591666
162	0x3f3ae4b8	0.7300525
163	0x3f2a6121	0.66554457
164	0x3cfa4fdd	0.03055566
165	0x3e764750	0.24050641
166	0x3efacc0d	0.48983803
167	0x3f1095b8	0.5647845
168	0x3f899372	1.0748122
169	0x3f6b2733	0.9185669
170	0x40398d4f	2.8992498
171	0x3e3de2f8	0.18543613
172	0x3f6267e4	0.88439775
173	0x3f2f6a50	0.68521595
174	0x3ef8863e	0.4853992
175	0x3ebaab70	0.3645892
176	0x3ea9ab2f	0.33138415
177	0x3e87b0b6	0.26502007
178	0x3f000d4d	0.50020295
179	0x3f4bf180	0.79665375
180	0x3dee9199	0.11648864
181	0x3f931093	1.1489433
182	0x400bed6b	2.1863658
183	0x3f5064d7	0.8140387
184	0x3e07c9e2	0.13260606
185	0x3f1f32a3	0.6218664
186	0x3f5f475a	0.8721825
187	0x3f53ac05	0.82684356
188	0x3e8c39d8	0.2738788
189	0x3ea56036	0.32299966
190	0x3e1da575	0.15395148
191	0x3f83c62d	1.0294853
192	0x3f1d0891	0.61341196
193	0x3ed21167	0.41028902
194	0x4019ea33	2.4049194
195	0x3f587f64	0.8456938
196	0x3f9211d1	1.1411687
197	0x3f466a68	0.77506113
198	0x3e9adafd	0.302452
199	0x3ef4f14b	0.47840342
200	0x3f7c1514	0.9846966
201	0x3f33d2c5	0.70243484
202	0x3f604c59	0.876165
203	0x405256e4	3.2865534
204	0x3f4ddff2	0.8041984
205	0x3ef69f70	0.48168516
206	0x3de6cd32	0.11269607
207	0x3efacdb4	0.48985064
208	0x3f5f0769	0.8712068
209	0x3f00ad62	0.5026456
210	0x3f27ac29	0.6549707
211	0x3fb8c4d9	1.4435073
212	0x3dc5e553	0.09662881
213	0x3f6e3afc	0.93058753
214	0x3ef7cee0	0.4840002
215	0x3f287752	0.6580707
216	0x3e653df6	0.22386917
217	0x40263cbb	2.5974567
218	0x3f84a814	1.0363793
219	0x3ecabb24	0.39595902
220	0x3fc72640	1.5558548
221	0x3efffca0	0.49997425
222	0x3f0611ff	0.5237121
223	0x3fb7189e	1.4304388
224	0x3efe6923	0.49689588
225	0x3eed9624	0.4640361
226	0x3e4cba6e	0.19992992
227	0x3ea1bb75	0.3158833
228	0x3f053582	0.5203477
229	0x3fac8a85	1.3479773
230	0x3fedb842	1.8571856
231	0x3e943cb5	0.28952566
232	0x3fb2d3d5	1.3970896
233	0x3f550959	0.8321739
234	0x3eea0aae	0.45711273
235	0x3f553584	0.83284783
236	0x3f889afc	1.0672297
237	0x3e77724f	0.24164699
238	0x3e2e44a1	0.17018367
239	0x3e3db14e	0.18524668
240	0x3ea305e0	0.3184042
241	0x3e384064	0.17993313
242	0x3ebd83d3	0.37014636
243	0x3f859bb3	1.0438141
244	0x3f03ad20	0.5143604
245	0x3e8b3e45	0.27195945
246	0x3fbe659b	1.4874758
247	0x3f22e6a9	0.6363321
248	0x3f7262fc	0.9468229
249	0x3ef5f7a9	0.48040512
250	0x3e272454	0.16322452
251	0x3f063708	0.5242772
252	0x40191e9d	2.3924935
253	0x3e96ccf0	0.2945323
254	0x40054c08	2.0827656
255	0x3f1bbaf1	0.60832125

bn1.running_var f4 [400]
0	0x3f86d059	1.0532333
1	0x413aec5d	11.682706
2	0x3fcb40ac	1.5879111
3	0x40252593	2.5804183
4	0x415ea75d	13.91586
5	0x3fba5148	1.4556055
6	0x40608b8f	3.508518
7	0x3fde828c	1.738359
8	0x403e6b72	2.975308
9	0x40103ecb	2.2538326
10	0x3ed8e0f7	0.42359135
11	0x3fefa0b8	1.8720922
12	0x3fdb4595	1.713061
13	0x402af9b5	2.671491
14	0x3fb94e19	1.4476959
15	0x3fe7387e	1.8064115
16	0x408a1290	4.314766
17	0x40458287	3.0860918
18	0x40309352	2.7589917
19	0x3fa70c67	1.305066
20	0x3fa060b1	1.2529508
21	0x4052ba37	3.2926157
22	0x3f388a60	0.72086143
23	0x4011d6ea	2.2787423
24	0x40395054	2.8955278
25	0x408448cf	4.133888
26	0x407378f8	3.8042583
27	0x40206c85	2.5066235
28	0x3fe70ea0	1.8051338
29	0x4092ae99	4.583813
30	0x409d3a0f	4.913337
31	0x40969a12	4.7063074
32	0x3f6d8171	0.92775637
33	0x4047136d	3.1105607
34	0x400c4406	2.1916518
35	0x40c76ee7	6.232288
36	0x403be853	2.936055
37	0x3f1f9356	0.6233419
38	0x4049acb1	3.1511652
39	0x40a499dc	5.1437817
40	0x4051a365	3.2755978
41	0x3fda2dce	1.7045228
42	0x3fa35e7b	1.2763208
43	0x40130e6b	2.297755
44	0x3f9e4c58	1.2367048
45	0x40257b58	2.5856533
46	0x40057c43	2.0857093
47	0x4060a250	3.5099068
48	0x409d2987	4.9113193
49	0x4118de70	9.554306
50	0x3ff88a2f	1.941717
51	0x4057cbb1	3.3718073
52	0x3fc46d93	1.5345939
53	0x3fd35f29	1.6513416
54	0x406c4b9a	3.6921144
55	0x3fa8e256	1.3194072
56	0x41190350	9.563309
57	0x40ae747c	5.4517193
58	0x3ebc56f9	0.36785105
59	0x402d3584	2.7063913
60	0x40dffff6	6.999995
61	0x4108e144	8.5549965
62	0x4023c7ad	2.5590622
63	0x3fb3486f	1.400648
64	0x4111ba97	9.108054
65	0x4183ae14	16.46
66	0x3f869124	1.0513043
67	0x40c50664	6.15703
68	0x40461398	3.094946
69	0x3ffbb0be	1.9663312
70	0x40882bc3	4.255342
71	0x406cd024	3.700204
72	0x3ef2fc68	0.47458196
73	0x40006c73	2.0066192
74	0x3f5ce4db	0.86286706
75	0x406401fb	3.5626209
76	0x3f0f370a	0.5594336
77	0x3fc32df1	1.5248395
78	0x402f3303	2.7374885
79	0x3fdd1ae1	1.7273828
80	0x3f88e53d	1.0694958
81	0x3ffb1a77	1.9617451
82	0x3f08a927	0.53383106
83	0x4066e729	3.607859
84	0x401e2aa1	2.4713519
85	0x401e2836	2.4712043
86	0x4063d06f	3.5595968
87	0x4012b12a	2.2920632
88	0x4085c768	4.1805916
89	0x3fb6a985	1.4270483
90	0x40409fb0	3.0097466
91	0x40073953	2.1128738
92	0x4073ba23	3.808236
93	0x40466ef8	3.100523
94	0x3ff1a448	1.887826
95	0x40d27ce2	6.5777445
96	0x40820266	4.062793
97	0x3fe91fab	1.8212789
98	0x40377a4e	2.86684
99	0x40c9cd93	6.3063445
100	0x3f2c0658	0.6719718
101	0x41a40d52	20.506504
102	0x41146c9f	9.276519
103	0x41187d38	9.530571
104	0x40090e5a	2.141501
105	0x4032512e	2.7862048
106	0x402d3e96	2.706945
107	0x3fcb6f48	1.5893335
108	0x40721b9c	3.7829351
109	0x4050e4fa	3.2639756
110	0x40683d78	3.6287518
111	0x4023ee29	2.5614111
112	0x3fc8296d	1.5637642
113	0x3ff9f121	1.9526712
114	0x3f08ce38	0.53439665
115	0x40f62461	7.691941
116	0x402f2a34	2.7369509
117	0x402b3ef5	2.6757176
118	0x3fd58183	1.6680149
119	0x4026aa40	2.6041412
120	0x41223123	10.136996
121	0x3f6e4544	0.9307444
122	0x400af399	2.171118
123	0x40459be6	3.0876403
124	0x3ff84fb8	1.9399328
125	0x3fd469a0	1.6594734
126	0x416d394e	14.82649
127	0x403518c1	2.8296359
128	0x408d720d	4.420172
129	0x4039a9e4	2.9009943
130	0x4052efb9	3.2958815
131	0x40278f15	2.618108
132	0x4021de5e	2.5291972
133	0x41028c20	8.15921
134	0x3e03423c	0.12818235
135	0x4058b6f6	3.386167
136	0x400ead95	2.2293446
137	0x40de94ce	6.9556646
138	0x408b8817	4.3603625
139	0x40b6935d	5.7054887
140	0x3f8df0f4	1.1089158
141	0x3fe24be1	1.7679406
142	0x40441b6d	3.064174
143	0x40a4bee4	5.148302
144	0x3fcd3d6a	1.6034367
145	0x406e0bb5	3.7194645
146	0x412b0af0	10.69017
147	0x40145977	2.3179605
148	0x40296a8d	2.6471283
149	0x3f2a95be	0.6663474
150	0x3f81c1f5	1.0137316
151	0x3f432dbf	0.7624168
152	0x40da1c31	6.8159413
153	0x4051c439	3.2776015
154	0x40af2ee7	5.4744754
155	0x3fa67389	1.3004009
156	0x3f891fd0	1.0712833
157	0x3f2c2f00	0.67259216
158	0x3ff47f7a	1.9101403
159	0x3fd57ada	1.6678116
160	0x3fd5a008	1.6689463
161	0x40bb51ad	5.85372
162	0x40056e09	2.084841
163	0x4033a4fd	2.806945
164	0x3e324935	0.17410739
165	0x3f92c3d4	1.1466012
166	0x400598c6	2.0874496
167	0x3fe119b1	1.7585965
168	0x40ad41f2	5.4143
169	0x4090931b	4.517957
170	0x419341c3	18.40711
171	0x3f53059d	0.8243044
172	0x404b4f6a	3.176722
173	0x409354d9	4.6041074
174	0x3feb3c57	1.8377789
175	0x3fd1fe4f	1.6405734
176	0x3f778410	0.96685886
177	0x3f666a71	0.90006167
178	0x4041a1e4	3.025506
179	0x4080c6a9	4.0242505
180	0x3f1a2922	0.60219014
181	0x4024236f	2.5646627
182	0x41104047	9.015693
183	0x40856ec9	4.1697736
184	0x3f32bfba	0.698238
185	0x40b08bb0	5.5170517
186	0x400a0289	2.1564047
187	0x402e29df	2.7213056
188	0x3f85885f	1.0432242
189	0x3f8fdba3	1.1238903
190	0x3f699aa1	0.9125157
191	0x40b538dc	5.663191
192	0x402a4eb0	2.6610527
193	0x3fd6b849	1.6774989
194	0x41056f97	8.339744
195	0x4029756d	2.647792
196	0x4071e719	3.77973
197	0x3fe39136	1.777869
198	0x3fb7fa3f	1.4373244
199	0x408b5503	4.3541274
200	0x408ffcac	4.4995937
201	0x404a4ac6	3.1608138
202	0x402b32a4	2.6749659
203	0x41b2f202	22.368168
204	0x406906a9	3.6410315
205	0x3fbc55e2	1.4713709
206	0x3efb8074	0.4912144
207	0x400baa81	2.1822817
208	0x407d6d28	3.9597874
209	0x40097bea	2.148188
210	0x400097f1	2.0092738
211	0x4025f765	2.5932248
212	0x3f54a4fd	0.8306425
213	0x40b42e33	5.6306396
214	0x400b0832	2.1723752
215	0x4038e477	2.8889444
216	0x3f2e777d	0.68151075
217	0x4180829c	16.063774
218	0x4101de9e	8.11685
219	0x4002a8fc	2.041564
220	0x411fb784	9.982304
221	0x3fafa713	1.3722862
222	0x4015da26	2.3414397
223	0x40f3fb51	7.6244283
224	0x3ff8c9fa	1.9436638
225	0x3fa445a5	1.2833754
226	0x3fa0407a	1.2519677
227	0x3fa2bec9	1.2714473
228	0x3feb788f	1.8396167
229	0x40dd34f0	6.912712
230	0x40e958c3	7.292085
231	0x3fcc3944	1.5954976
232	0x40f8b967	7.772632
233	0x4046e1e5	3.1075375
234	0x403f70da	2.991263
235	0x4032d14b	2.7940242
236	0x40b2b252	5.5842676
237	0x3f67270d	0.9029396
238	0x3f508c0d	0.814637
239	0x3f69f411	0.9138804
240	0x400e6ace	2.2252688
241	0x3f6b1909	0.91835076
242	0x3fc95a76	1.5730731
243	0x404dc502	3.2151494
244	0x4010ace0	2.2605515
245	0x3fce7a84	1.6131139
246	0x40d4dcc9	6.6519513
247	0x3fe4b9de	1.7869222
248	0x40650951	3.5786936
249	0x400be7ea	2.18603
250	0x3f78018f	0.9687738
251	0x4007f539	2.1243422
252	0x416464b7	14.274589
253	0x3f8c8f0f	1.0981158
254	0x4120ca9e	10.049467
255	0x4007c502	2.1213994

fc2.weight f4 [300, 404]
0	0x3e002837	0.12515341
1	0xbdd3be9f	-0.103390925
2	0xbd69b404	-0.057056442
3	0xbe760ca2	-0.24028257
4	0x3e88f1c7	0.2674696
5	0x3f0a2bc2	0.5397302
6	0xbe5beb94	-0.21476585
7	0xbd9baca1	-0.07601286
8	0x3ecbcf04	0.39806378
9	0xbeaa42fd	-0.33254233
10	0xbeccf0d3	-0.40027484
11	0xbebbfa8c	-0.3671459
12	0xbdd1bb42	-0.10240795
13	0x3e0eb3ce	0.13935778
14	0xbf332092	-0.69971573
15	0xbdc2826c	-0.09497532
16	0xbed56c59	-0.41684225
17	0xbcad2c62	-0.021139327
18	0x3ecaf1b8	0.39637542
19	0x3c44318f	0.011974706
20	0xbf4056fd	-0.75132734
21	0x3eea3a84	0.4574777
22	0x3ecec8f0	0.40387678
23	0xbee1bf20	-0.4409113
24	0xbd3eff12	-0.046629973
25	0x3d1910a6	0.037369393
26	0x3e846552	0.2585855
27	0xbf85f5e6	-1.0465667
28	0xbe909673	-0.28239784
29	0xbf21748c	-0.6306846
30	0xbda2e4aa	-0.079537705
31	0xbdee22a7	-0.11627703
32	0xbf2cea8d	-0.67545396
33	0x3efc9564	0.49332726
34	0xbf06a018	-0.52588034
35	0xbf0cb565	-0.54964286
36	0x3df6fdf0	0.120601535
37	0xbf09be65	-0.53806144
38	0xbf13ebb9	-0.5778156
39	0xbe330196	-0.17481074
40	0x3d931d78	0.07183355
41	0x3cabb644	0.020960934
42	0xbdbd3f9b	-0.092406474
43	0xbf1b9fd2	-0.6079074
44	0xbf5a6936	-0.8531679
45	0x3e8a32df	0.26991937
46	0xbcdca978	-0.026936278
47	0x3d30dbee	0.04317849
48	0xbf152173	-0.58254164
49	0x3d49a47e	0.049229138
50	0x3d25b5d4	0.040456608
51	0xbe578d24	-0.21049935
52	0xbf4d7cc3	-0.80268496
53	0xbe951a1f	-0.2912149
54	0x3ddd889c	0.10817072
55	0x3f0ae295	0.54251987
56	0x3e18a42b	0.14906375
57	0x3ee5fc33	0.44918975
58	0x3f0a5eb6	0.5405077
59	0x3e5aff26	0.21386394
60	0x3ea179c2	0.31538206
61	0xbe6b5661	-0.2298217
62	0x3e9d54d1	0.30728772
63	0x3cfb3046	0.030662667
64	0x3e6fe163	0.23425822
65	0x3d8e527d	0.06949327
66	0x3c9cd7a8	0.019145802
67	0x3d75a56e	0.05997222
68	0x3e5b6675	0.21425803
69	0x3d3f621c	0.046724424
70	0x3f435810	0.7630625
71	0x3f188a87	0.59586376
72	0xbe661518	-0.22468984
73	0x3d06b2fa	0.03288553
74	0x3e9e3028	0.30896115
75	0xbfa07f90	-1.2538929
76	0xbdab4176	-0.08362095
77	0xbcd47511	-0.025934728
78	0x3d667da5	0.056272168
79	0xbf3fe756	-0.74962366
80	0xbe63a836	-0.22232136
81	0x3f0c0a9f	0.54703707
82	0xbd43e99f	-0.04783022
83	0xbe90293e	-0.28156465
84	0xbde5446e	-0.111946926
85	0x3d26f42f	0.040760215
86	0xbcb837b7	-0.022487504
87	0x3e0e7bb2	0.13914374
88	0xbed3012f	-0.4121184
89	0x3e468d5d	0.19389863
90	0xbec7128b	-0.38881335
91	0xbe288448	-0.16456711
92	0x3d978866	0.07399063
93	0xbe90b23d	-0.28260985
94	0x3cef1ed7	0.02918951
95	0x3e9d31d5	0.3070208
96	0xbeec7003	-0.46179208
97	0x3e0c8ff2	0.13726786
98	0x3f3f3a99	0.7469879
99	0x3e5e7137	0.21722876
100	0xbf8eaf5a	-1.1147263
101	0xbe12e879	-0.14346494
102	0x3d9c7fe1	0.076415785
103	0x3e04c4d1	0.12965705
104	0xbe22b521	-0.15889408
105	0xbe4d09aa	-0.20023218
106	0xbe9896cf	-0.29802558
107	0x3f1f2c32	0.6217681
108	0x3d757c90	0.059933245
109	0x3e8ac570	0.27103758
110	0x3e3acee3	0.18242984
111	0xbe43d8f2	-0.19125727
112	0xbf11ea2c	-0.5699794
113	0x3ebe618a	0.3718379
114	0xbe967a8a	-0.29390365
115	0xbdcdfe90	-0.100583196
116	0xbee8da64	-0.4547912
117	0x3e3d94a7	0.18513738
118	0xbf36fff4	-0.71484303
119	0xbcf1c1ce	-0.029511359
120	0xbf400a48	-0.7501569
121	0x3ca77007	0.020439161
122	0xbed83a3d	-0.42231932
123	0x3f3477fe	0.70495594
124	0xbea78e2f	-0.32725665
125	0x3f163516	0.5867475
126	0x3ed70ca3	0.4200183
127	0x3f0b5711	0.5442973
128	0xbef9dfd2	-0.48803574
129	0x3ea04674	0.3130375
130	0x3da11e82	0.07867147
131	0x3dd7c8f7	0.10536378
132	0xbb99cf05	-0.004693868
133	0x3e9c201c	0.30493248
134	0xbce078a4	-0.027401276
135	0x3f3034e6	0.68830717
136	0x3dca49e7	0.09877377
137	0xbf0679ee	-0.525298
138	0x3ebafb6b	0.36519942
139	0x3d951eac	0.07281241
140	0x3e199f79	0.1500224
141	0x3e7849cd	0.24246903
142	0x3dbe8aa2	0.09303786
143	0xbdb2b25f	-0.08725428
144	0xbe83e682	-0.257618
145	0xbea3578b	-0.31902727
146	0x3f54652b	0.8296687
147	0x3edb6357	0.42849228
148	0x3e4194a1	0.18904354
149	0x3db9c53b	0.09070822
150	0xbf1cb700	-0.61216736
151	0x3d5fddf0	0.054655015
152	0xbe7d8398	-0.2475723
153	0xbed939a0	-0.42426777
154	0xbdd33ff6	-0.10314934
155	0x3e1b153a	0.15144816
156	0xbf067e15	-0.52536136
157	0xbf289600	-0.6585388
158	0x3ee15c4a	0.44015723
159	0xbe8b39b5	-0.27192464
160	0xbdbdc9be	-0.09266995
161	0xbf4cfb1d	-0.8007067
162	0xbf1512d5	-0.5823186
163	0x3e3c6216	0.18396792
164	0x3f0790db	0.52955407
165	0x3e5f273c	0.2179231
166	0x3eb12351	0.34597257
167	0x3f2c5df2	0.6733085
168	0x3c2541d7	0.010086498
169	0xbe41022e	-0.18848488
170	0xbd74eff3	-0.059799146
171	0xbd25cf84	-0.040481105
172	0xbd65c9d6	-0.05610069
173	0xbe0780d0	-0.13232732
174	0xbf3ee68f	-0.74570554
175	0xbe25c5ce	-0.16188738
176	0x3e7d16cf	0.24715732
177	0xbee37bcd	-0.4443039
178	0x3ae57615	0.0017506505
179	0xbc2619a4	-0.010137949
180	0x3e375aa3	0.17905669
181	0x3eb209fe	0.34773248
182	0xbdb15ab0	-0.086598754
183	0x3dd3e7fd	0.10346983
184	0xbf14b070	-0.5808172
185	0x3e93c775	0.2886311
186	0xbe0a6188	-0.13513768
187	0xbec2272e	-0.37920517
188	0xbd29a2b9	-0.04141495
189	0x3e43105f	0.19049214
190	0x3eb474e9	0.35245445
191	0x3ea9a2cc	0.33132017
192	0x3e624b70	0.2209909
193	0xbf363f08	-0.7118993
194	0xbec7e258	-0.39039874
195	0x3e74c14d	0.23901863
196	0xbe3f185c	-0.18661636
197	0x3e19455b	0.14967863
198	0x3d6f2ab8	0.05839035
199	0xbecd2a17	-0.40071175
200	0x3e55e375	0.20887549
201	0x3ee6037e	0.4492454
202	0xbdb321f8	-0.087467134
203	0xbe1453e3	-0.14485125
204	0x3baa86a7	0.00520404
205	0xbed0d054	-0.40783942
206	0x3e90f81b	0.2831429
207	0x3d078c9f	0.03309309
208	0x3e29b6ce	0.1657364
209	0xbb1bab62	-0.0023753275
210	0x3eb4c799	0.3530853
211	0xbec2f519	-0.3807762
212	0x3e613b5d	0.21995302
213	0xbdcc567c	-0.09977433
214	0x3d8d778a	0.06907566
215	0x3e838706	0.25688952
216	0x3eca759d	0.39542857
217	0xbeb03d84	-0.34421933
218	0xbe2ec67f	-0.17067908
219	0xbd600416	-0.054691397
220	0x3e6050cd	0.21905823
221	0x3e5a0c00	0.2129364
222	0x3f0001b0	0.50002575
223	0xbe0742e1	-0.13209106
224	0xbdd42ac5	-0.1035972
225	0xbe98631b	-0.2976311
226	0x3f202996	0.62563455
227	0x3dd091f9	0.10184092
228	0x3e083cab	0.13304393
229	0x3ea91cb2	0.33029705
230	0x3e85ac46	0.26107997
231	0xbed8c1ca	-0.4233535
232	0xbf2a5144	-0.6653025
233	0xbee1d585	-0.44108215
234	0xbeadae9a	-0.33922273
235	0xbf59ad95	-0.8503049
236	0x3df8de79	0.12151808
237	0xbd713cee	-0.058895998
238	0xbd9d79bb	-0.07689234
239	0x3e0925b1	0.13393284
240	0x3f16763b	0.58774155
241	0x3e2cd796	0.16879115
242	0xbeb5c570	-0.35502195
243	0xbe6fc704	-0.23415762
244	0xbe0a2476	-0.13490471
245	0xbf30c213	-0.69046134
246	0x3e537deb	0.20653503
247	0x3ec95ba8	0.3932774
248	0xbe81d559	-0.25358084
249	0x3c70b5b4	0.014691759
250	0xbe53c680	-0.2068119
251	0x3f32be16	0.698213
252	0x3d74d37a	0.059771992
253	0xbd5a5317	-0.053301897
254	0x3e52dcc6	0.20592031
255	0x3d78cad7	0.06074032
