checkpoint_actor.pth (torch_old, 548358 bytes, 10 tensors)

fc1.weight f4 [400, 33]
000000 fc 35 23 3f 8e 38 42 be f3 9b 12 3f 99 e7 42 3f
       0.6375425 -0.18966886 0.5726921 0.7613464
000010 e1 0c b6 3f b3 e3 65 be 35 10 39 3f 39 e7 94 3e
       1.422268 -0.22450142 0.72290355 0.2908266
000020 f2 af 30 be f5 33 0b 3e e6 d7 2d 3f 7a 0e b0 be
       -0.17254618 0.13594039 0.6790756 -0.34386045
000030 ca 4d ff 3d 36 c5 e1 3e 69 f1 53 3e fd ae 55 be
       0.12466009 0.44095773 0.2069756 -0.20867534
000040 3d 16 f3 bf 5b ce ba bf 5f d8 4f 3f d5 bf bd 3e
       -1.8991162 -1.4594225 0.8118953 0.3706042
000050 6c 25 14 3e ff c0 1d 3f 23 df 25 3e 4a 5d bf bd
       0.144674 0.61622614 0.16198401 -0.09343965
000060 64 3a 37 bd 19 45 10 3f 0a 73 62 bf 94 80 9b 3e
       -0.04473342 0.56355435 -0.88456786 0.30371535
000070 f0 a3 0e 3f 81 44 39 3d 8c dc 83 be f0 35 a1 bc
       0.557189 0.045231346 -0.257542 -0.01967904
000080 24 af e9 bf d7 32 96 3e f9 5b f8 3e d0 f4 41 3d
       -1.8256574 0.29335663 0.4850767 0.047352612
000090 6b e1 3a 3f f2 c8 e7 be 70 f4 e1 bf 32 b4 0b 3e
       0.7300021 -0.45270497 -1.7652721 0.13642958
0000a0 50 1c 9e be 31 e2 a9 bf 67 08 86 3f 59 9c 7f 3f
       -0.30880976 -1.3272153 1.0471314 0.9984794
0000b0 d1 04 7a bf a8 44 38 3d 25 22 09 bf e3 aa 03 3f
       -0.976636 0.04498735 -0.53567725 0.5143263
0000c0 5a 71 52 be cb a4 cc 3e 6c b2 df 3e b0 2b 43 3e
       -0.20551053 0.39969477 0.43690813 0.19059634
0000d0 b1 ab 63 bc 33 2e 2c 3f c3 08 cd 3e 73 d3 8d be
       -0.013895915 0.67257994 0.40045747 -0.27700385
0000e0 ba 40 35 3e ff 12 a9 bc ae a9 36 3f af 85 44 3e
       0.17700472 -0.02063894 0.7135266 0.19191621
0000f0 ea 9b b3 3f 36 95 bc be 08 46 30 bd bb 55 ba bf
       1.4031956 -0.3683259 -0.043035537 -1.4557413
000100 be ba 05 bd 22 fc 33 be 04 c2 96 3e 09 37 c6 3e
       -0.032648794 -0.1757665 0.29444897 0.38713863
000110 70 68 be 3e f7 17 af bf 6c 6d 0a bf a3 88 2f bf
       0.37189054 -1.3679188 -0.54073215 -0.68567866
000120 82 5e 17 c0 e5 9d 5a be 17 a5 be 3f e5 57 d7 3e
       -2.3651433 -0.21349294 1.4894131 0.42059246
000130 92 dd 6c 3e 26 80 45 3f 45 df f2 3d e9 0d 4b bf
       0.23131397 0.77148664 0.118589915 -0.793181
000140 59 d5 be 3e 51 95 9b be b5 0a 83 3f 93 55 b4 3f
       0.37272146 -0.30387357 1.0237643 1.4088615
000150 02 c4 63 bf 05 57 62 bf 21 72 da be 2c 07 46 3e
       -0.8897096 -0.8841403 -0.42665198 0.19338673
000160 14 4a cb 3e c3 0c ec be e3 d1 c0 be ae 36 cf 3e
       0.39704955 -0.46103486 -0.3766013 0.40471405
000170 96 87 71 3e 33 9a 68 3f 20 e7 8c bc 31 92 3d 3d
       0.23586878 0.9086029 -0.017200053 0.046281997
000180 6a 42 61 bf 07 14 42 3d 4d 16 03 3f 54 a5 8f be
       -0.87991965 0.04738238 0.51205903 -0.28055823
000190 eb 6d 5c 3f 39 df 69 3e 2a d0 fb bf dd 40 7e 3e
       0.8610522 0.22839059 -1.9672902 0.24829431
0001a0 e5 bd 4f 40 ac d3 06 c0 ac 8f 91 3e 3a cc e2 be
       3.2459652 -2.1066694 0.28429925 -0.44296438
0001b0 f6 4f 37 3e d0 62 8d be 0b 05 bf 3e 64 55 04 be
       0.17901596 -0.2761445 0.37308535 -0.12923199
0001c0 40 fb 04 3e f9 8b 75 be fb ab 0a 3e a1 fc 01 bf
       0.1298647 -0.23979177 0.13542168 -0.50776106
0001d0 d5 b4 d9 bf 4e ef 72 3e 5e d7 d5 be a6 a6 01 3e
       -1.700831 0.237241 -0.41765875 0.12661228
0001e0 f5 43 68 be e2 26 65 be d7 78 c6 be 4f a6 68 be
       -0.22682174 -0.22378114 -0.38764068 -0.22719692
0001f0 30 a4 c9 bd 29 4c 9c 3e 0a f3 64 3f d4 e4 98 3e
       -0.098457694 0.30526856 0.8943335 0.29862082
000200 2d 90 14 bd d4 23 77 bf df a7 2f 3d 19 36 a0 3f
       -0.03627031 -0.96539044 0.042884704 1.2516509
000210 6d 68 8e 3f 72 ad 08 3f 2e dc 9e 3d 09 f4 fe 3e
       1.1125618 0.53389657 0.0775684 0.4979556
000220 af 78 ab 3f 98 d7 13 c0 04 30 0c 3f f2 32 f8 3b
       1.3396205 -2.3100338 0.54760766 0.0075744325
000230 b9 b4 fc 3e 05 39 3f be ba 0e 0d 3e 55 8f 29 3e
       0.4935663 -0.18674095 0.13775149 0.16558583
000240 4a 63 9d bd 26 9d d1 3e 25 8b 7c 3f e3 32 44 be
       -0.076849535 0.40940207 0.9864982 -0.19160037
000250 0c c9 07 bf 31 07 4e bf f6 b4 37 3e 07 b6 a3 3f
       -0.5304115 -0.80479723 0.17940125 1.2789925
000260 60 5f 1b 3d 93 cf 92 be 98 93 fd 3d 67 b4 a2 be
       0.037932754 -0.28673992 0.12381667 -0.3177826
000270 b1 df c5 3d f1 8f 3e bf e1 a4 9e be fc 83 43 3f
       0.096618064 -0.7443839 -0.30985168 0.7637327
000280 4e 56 3e 3e d0 13 41 bd ee 5d 38 bf d5 dd 34 bd
       0.1858761 -0.047138035 -0.72018325 -0.044156868
000290 be 4f a3 3f 1d f6 07 bf 96 d3 64 be 4c d2 ee bd
       1.275871 -0.53109914 -0.22346339 -0.11661205
0002a0 5d e4 77 3e e6 ba e2 3e f1 df ac bf 6c 32 b9 3f
       0.24208207 0.44283217 -1.3505841 1.4468513
0002b0 da 12 01 3f ce e0 9b 3f f5 db a2 3e ae 3b 0c 3f
       0.5041939 1.217798 0.3180844 0.54778564
0002c0 94 c6 9c bc 22 88 31 bd 70 a8 cf be 0c ab c3 3e
       -0.019137658 -0.043342717 -0.40558195 0.38216436
0002d0 f5 b5 8e 3e bd 69 f0 be 08 00 10 c0 fb f2 ba 3d
       0.27873197 -0.46955672 -2.250002 0.09128376
0002e0 9e e2 49 be 9b 3e b6 bf 26 2f 77 3f d6 c8 1e 3f
       -0.19715354 -1.4237856 0.9655632 0.620252
0002f0 a7 cb 95 3e 54 6e a4 bd ef 96 16 be d4 db 95 bd
       0.29256937 -0.08028856 -0.14706014 -0.073173195
000300 ba a0 77 3f 27 ba 39 3e 80 a5 d5 b9 9b 11 79 bf
       0.96729624 0.18137418 -0.00040749833 -0.9729249
000310 e8 00 38 bd db e3 86 3f 64 70 cb 3e 43 fe 81 be
       -0.04492274 1.0538286 0.39734185 -0.253893
000320 e2 cc a5 3f 1b 20 e3 3e 16 7f 52 3f 33 3a 03 bf
       1.295315 0.44360432 0.8222517 -0.5126068
000330 39 df 05 3f 18 1a 45 bf 7c bd 04 bf eb 21 e0 3e
       0.52293736 -0.7699294 -0.5185163 0.43775877
000340 d7 89 d7 be 19 25 22 3f d2 32 55 3f 8d b2 b9 3d
       -0.4209735 0.63337857 0.8328067 0.09067259
000350 23 b4 6b be a9 75 a2 3d 6a f1 06 c0 f6 a9 ab 3e
       -0.23017935 0.07932598 -2.1084847 0.33528107
000360 d5 2d 20 be be 72 89 bf 11 aa ee 39 97 4a 78 bf
       -0.15642484 -1.0738142 0.00045521607 -0.96988815
000370 ed a9 f0 3e 67 88 62 3f 9f 5c 4a be 17 4a 7d 3e
       0.47004643 0.88489383 -0.19761895 0.24735294
000380 61 fc ae be cf 3a 86 3f 3e 0c 97 be 80 9c 65 ba
       -0.34176925 1.0486697 -0.29501528 -0.0008758977
000390 c8 fb 8e bf 00 56 a7 3b d3 37 f7 be 26 74 d9 be
       -1.1170588 0.0051066875 -0.48284778 -0.42471427
0003a0 e9 c8 ef 3e dc bf 4d 3e 15 f1 26 c0 e4 be d7 3f
       0.4683297 0.2009272 -2.6084645 1.685513
0003b0 51 d2 f9 bf 7b d7 8c 3f cb 4a c0 3c 96 c5 0d 3e
       -1.9517308 1.100326 0.023473164 0.13844904
0003c0 e8 bc 2b 3f be 75 b1 bc 15 4e 4a 3e a8 65 d5 3e
       0.67085123 -0.02166259 0.19756348 0.4167912
0003d0 e9 c9 02 bf e5 d6 ef 3e 24 c1 94 bd 33 71 77 bf
       -0.5108934 0.4684364 -0.07263401 -0.96657103
0003e0 23 21 d6 3f a5 26 bc bf 39 01 1f bf f9 bc 61 3e
       1.6728863 -1.4699293 -0.6211124 0.22044744
0003f0 03 b1 92 bd d9 60 03 3e 98 53 97 3e 4e 56 4f be
       -0.071626686 0.12829913 0.29555964 -0.20247766

fc1.bias f4 [400]
000000 1e 41 12 be c4 97 a4 bf 6b 72 6a bf 84 34 89 bf
       -0.14282653 -1.2858815 -0.9158084 -1.0719151
000010 a4 ca 62 bf 4d ac 51 bf 11 c9 88 bf b6 9a 8e bf
       -0.88590455 -0.81903535 -1.0686361 -1.1140964
000020 6c 1c 06 bf b6 ea a4 bf 4b 1e eb bf ab f6 84 bf
       -0.5238712 -1.2884128 -1.836862 -1.0387777
000030 f3 f3 09 bf ab 23 c4 bd d0 a6 8f bf c4 bb 8b bf
       -0.5388786 -0.095771156 -1.1222782 -1.0916677
000040 57 ab 2e bf 0a d4 aa bf 98 da 8a bf 99 b0 d4 bf
       -0.68230194 -1.3345959 -1.084796 -1.6616393
000050 63 37 3b bf ad 62 ee 3e c2 b4 e0 be a1 b0 45 bf
       -0.7313139 0.4655966 -0.43887907 -0.7722264
000060 9f a6 f3 be 63 8c 23 bf 5f c6 d3 bf 3d 5b 91 bf
       -0.4758806 -0.6388609 -1.6544913 -1.1355969
000070 af e5 1e bf cd 89 66 bf 3d 84 8e bf 21 a5 fa be
       -0.6206922 -0.9005402 -1.1134106 -0.48954108
000080 6c 8f a7 bf 1d bf 87 bf fc 41 90 bf 20 4c 19 bf
       -1.3090644 -1.0605198 -1.1270137 -0.5988178
000090 e9 e6 af bf 8c 0b 9a be c9 99 bf bf 20 f1 61 bf
       -1.3742343 -0.30086935 -1.4968807 -0.8825855
0000a0 d2 77 48 be 3c 0f 91 bf e7 90 8e be fe 0b a4 bf
       -0.19576958 -1.1332774 -0.27844927 -1.281616
0000b0 b6 35 8f bf 66 aa 29 bf dc 42 34 bf a0 d5 ae bf
       -1.1188266 -0.6627563 -0.7041452 -1.3658943
0000c0 99 1d 2c bf ff e7 55 bf 85 db fa be 0d ad 93 be
       -0.6723266 -0.8355712 -0.48995605 -0.28842965
0000d0 49 e0 a4 bf a1 87 1c bf b8 e0 bd bf 6a 26 7b bf
       -1.2880946 -0.61144453 -1.4834204 -0.9810549
0000e0 96 d1 96 bf 93 16 d4 bd 91 3c c4 bf 8d 7c 17 bf
       -1.178271 -0.10355868 -1.5330983 -0.59174424
0000f0 ce 5c 42 bf 37 62 bf be 4c a4 2e bf 31 d2 6b bf
       -0.7592286 -0.3737962 -0.6821945 -0.921176
000100 21 52 ab bf fe 1d 88 bf d0 42 ae bf 71 35 64 bf
       -1.3384439 -1.0634153 -1.361414 -0.89144045
000110 76 26 09 bf e0 7a 32 bf 47 df 72 bf 81 03 5d bf
       -0.5357431 -0.6971874 -0.94871944 -0.8633347
000120 8b 58 55 bf e4 93 95 be 74 ee 85 bf 87 b8 a2 bf
       -0.8333823 -0.29214394 -1.0463395 -1.2712563
000130 5a bd 77 bf ac 08 a5 bf a4 86 a6 bf ce 52 3a be
       -0.967733 -1.2893271 -1.3009839 -0.1819565
000140 4c 7b 3d bf dd 38 a3 bf dc a8 4e bf d8 24 82 bf
       -0.7401626 -1.2751728 -0.8072641 -1.0167494
000150 df 90 35 bf a3 30 b3 bf b0 c7 7e bf 1e 58 06 3e
       -0.7092418 -1.3999218 -0.9952345 0.13119552
000160 d5 b0 10 bf 84 e1 9e bf 4c 47 8f bf 37 11 67 bf
       -0.56519824 -1.2412572 -1.1193633 -0.9026064
000170 7c da f4 be b4 95 a1 bf df 15 e4 be 7c 28 30 bf
       -0.4782294 -1.2623811 -0.44547936 -0.68811774
000180 00 c0 8a bf 4a 04 97 3e f2 dd 23 bf cf 4f 3e bf
       -1.0839844 0.2949546 -0.64010537 -0.7434053
000190 26 fa ac bf 29 c5 90 bf 59 47 3f bf f4 45 82 bf
       -1.3513839 -1.1310169 -0.7471824 -1.0177598
0001a0 52 75 0e be 0e c2 a4 bf 69 66 d2 bf 65 51 85 bf
       -0.13911942 -1.2871721 -1.6437503 -1.0415465
0001b0 b4 da 8d bf 59 45 18 bf 86 dd 3b bf 68 54 8d be
       -1.1082368 -0.59480816 -0.7338489 -0.2760346
0001c0 9d 85 56 bf 27 83 9c 3f 9a 7d a9 bf 4e 48 17 be
       -0.8379763 1.2227525 -1.3241456 -0.14773676
0001d0 37 80 42 bf b5 18 37 bf 95 f8 82 bf 0b 73 a4 bf
       -0.7597689 -0.71522075 -1.0232111 -1.2847608
0001e0 6b 08 e3 be 50 8a 32 bf e2 ec 9d bf 7b 4b c4 bf
       -0.4434236 -0.697423 -1.2337916 -1.5335535
0001f0 b5 0c 4e bf 45 d8 73 bf 35 2b 38 bf fe ac 66 bf
       -0.8048814 -0.95251876 -0.7194093 -0.90107715
000200 35 92 7b bf 94 95 c3 bf b0 07 04 be ca 75 b4 bf
       -0.9826997 -1.5280023 -0.12893558 -1.4098446
000210 19 a7 fc be 86 44 6a bf 55 16 85 be d9 60 12 bf
       -0.49346235 -0.9151081 -0.259936 -0.5717903
000220 c2 6f 3b bf 69 da fb be 08 3f d1 be 12 24 8e be
       -0.73217404 -0.4919007 -0.40868402 -0.27761894
000230 c3 c2 a7 bf 59 7c de be 55 c0 af be d9 f8 57 bf
       -1.3106312 -0.43454245 -0.34326425 -0.84364086
000240 d6 11 8b bf 6c db bc bf 13 81 bd be 70 30 80 bf
       -1.0864818 -1.4754462 -0.37012538 -1.0014782
000250 a8 ab 46 bf fc d4 38 bf b4 9c 4a bf 43 f7 2e bf
       -0.77605677 -0.7219999 -0.7914536 -0.6834604
000260 5e 74 b7 be 64 67 4a bf 48 9c 9b bf ff f9 b2 be
       -0.3583097 -0.7906401 -1.2157068 -0.34956357
000270 2f 2c 0b bf 49 ad f2 be 76 4d 2d bf bb 10 a8 bf
       -0.54364294 -0.4739783 -0.6769632 -1.3130106
000280 6d e1 89 bf 79 01 0d be e7 f2 39 bf 64 41 5e be
       -1.077192 -0.13770093 -0.72636265 -0.21704632
000290 48 48 a4 bf 34 2b 5d bf 22 8c 7a bf fb b6 48 bf
       -1.2834558 -0.8639405 -0.97870076 -0.78404206
0002a0 b9 d3 12 bf 13 1a 12 bf f5 a6 77 bf cc ec 46 bf
       -0.57354313 -0.57071036 -0.9673913 -0.77705073
0002b0 e1 f0 2e bf 59 00 a3 bf 52 a6 a5 be b7 9f e0 be
       -0.683363 -1.2734481 -0.32353455 -0.43871853
0002c0 dc e0 25 bf e6 08 8e bf c9 e6 77 bf ee cc ad be
       -0.64796233 -1.1096466 -0.96836525 -0.3394541
0002d0 ea 3f a5 bf 26 b2 d2 be fc 2a 9b bf c0 e6 a3 bf
       -1.291013 -0.4115154 -1.2122493 -1.2804794
0002e0 d5 41 b8 bf 30 6a 8c bf 66 72 92 bf 18 d5 b0 bf
       -1.439509 -1.0969906 -1.1441162 -1.3815031
0002f0 72 e7 85 bf b6 0f 30 bf 79 e9 81 bf 75 a2 c3 bf
       -1.0461257 -0.68773973 -1.0149375 -1.5283953
000300 ed bf a2 bf d1 1f 5a bf dc 1f 2f be a4 ed 62 bf
       -1.2714821 -0.852048 -0.17101997 -0.8864386
000310 b1 eb a3 bf 61 de 99 bf d9 35 90 bf 23 53 95 be
       -1.2806302 -1.202099 -1.1266433 -0.2916499
000320 9f 36 99 be 0c cf ce be 0e e5 3d bf 92 ea 1a bf
       -0.29924485 -0.4039234 -0.74177635 -0.60514176
000330 08 9f 68 bf 8b 3a 94 bf c5 3b bb bf 46 7b 86 bf
       -0.9086766 -1.1580366 -1.4627615 -1.050637
000340 e0 90 59 bf 37 31 7f bf 0e bc 11 bf 77 7c 2b be
       -0.84986687 -0.9968447 -0.56927574 -0.16746698
000350 9b b0 ab bf 32 f7 5f bf 70 75 1e bf 7f 62 b8 be
       -1.3413271 -0.87486565 -0.61897945 -0.36012647
000360 2a 70 01 bf 57 a2 00 bf f6 53 5b bf d9 be 2a bf
       -0.50561774 -0.5024771 -0.8567499 -0.6669746
000370 3c a0 ea bd 06 ce cb bf 5a cd 28 bf 25 70 3e bf
       -0.114563435 -1.5922248 -0.6593834 -0.7438987
000380 32 79 2d be d5 69 4b bf 8d ad 8f be e1 c8 24 bf
       -0.16940764 -0.7945836 -0.28062096 -0.64369017
000390 21 d5 64 bf 5b d3 5c bf 62 54 a4 be d3 a8 7f bf
       -0.8938771 -0.8626 -0.3209563 -0.9986698
0003a0 2d 30 86 bf 5c 66 89 bf ec e5 40 bf c3 2d 54 bf
       -1.0483452 -1.0734363 -0.7535083 -0.82882327
0003b0 cd 5d 27 bf cf e6 b3 bf d2 b0 d9 bf 69 0c 2b bf
       -0.65377504 -1.4054812 -1.7007086 -0.6681581
0003c0 9f db ff be d9 9f 79 bf 62 d5 cd be de 9c 16 bf
       -0.49972245 -0.97509533 -0.4020186 -0.5883311
0003d0 f9 7a d0 bf fa b6 34 bf 16 59 6d bf f6 c3 ed bf
       -1.6287528 -0.705917 -0.9271406 -1.8575428
0003e0 11 45 3a bf 67 01 a5 bf 2e 96 b4 bf 10 3e 00 bf
       -0.72761637 -1.2891053 -1.4108331 -0.500947
0003f0 47 6f 30 bf 7f 1e 89 bf ba db 08 be be f8 e0 be
       -0.68919796 -1.0712432 -0.13365069 -0.43939775

bn1.weight f4 [400]
000000 b0 7f 0e 3f cd ed 98 3e b9 2f ce 3e 0d af 0d 3f
       0.55663586 0.29868928 0.40270784 0.5534523
000010 71 df 72 3e 41 7a 9a 3e e5 3c 9a 3e bc e4 ab 3e
       0.23718049 0.30171397 0.30124584 0.33572948
000020 76 3a ce 3e cd 1a fe 3e 7a 6e 9a 3e fb 99 98 3e
       0.40278977 0.49629822 0.30162412 0.29804978
000030 4f 01 c4 3e 21 3b bb 3e c2 89 9c 3e f5 0a 5d 3f
       0.38282248 0.3656855 0.3057385 0.86344844
000040 d8 b6 cc 3e 34 ef b2 3e c0 53 16 3f 39 36 a2 3e
       0.3998325 0.34948123 0.5872154 0.31681994
000050 c1 6a f0 3e e3 bb 23 3f 2d c1 cc 3e 86 ba 14 3f
       0.46956447 0.6395857 0.3999113 0.5809711
000060 b7 bb 2c 3f 64 73 bd 3e 75 60 d1 3e 00 00 cd 3e
       0.6747393 0.370021 0.40893903 0.40039062
000070 5f 3a 53 3e 01 09 d3 3e 0a 1b 07 3f 64 0a fd 3e
       0.20627736 0.41217807 0.52775633 0.4942199
000080 4a d3 cc 3e 26 b9 c6 3e 5e fb 87 3e 72 4b 75 3f
       0.4000495 0.38813132 0.26558965 0.95818245
000090 b4 17 ef 3e 4d d9 df 3e 32 bc 41 3f ba 83 55 3e
       0.46697772 0.43720475 0.7567779 0.20851031
0000a0 16 db 2f 3f 7d 04 09 3f d4 b4 e5 3e c9 13 ca 3e
       0.68693674 0.53522474 0.44864523 0.3946822
0000b0 68 35 94 3d e7 df db 3e 1a be 04 3f bd bd b6 3e
       0.07236749 0.4294426 0.5185257 0.35691634
0000c0 a7 ed ea 3e 0f a0 01 3f 49 0c 1f 3f 1c 74 e6 3e
       0.4588444 0.50634855 0.6212812 0.4501046
0000d0 8b af 04 3f c1 e6 c8 3e a6 2c fe 3e fd 70 4a 3e
       0.5183036 0.3923855 0.4964344 0.19769664
0000e0 5f 4a c7 3e e0 e3 33 3f 56 55 d7 3d ba 2e cb 3e
       0.38923928 0.70269585 0.105143234 0.39684087
0000f0 8c be 90 3f b5 f3 15 3f a0 e6 29 3f 3f 31 86 3e
       1.130815 0.5857499 0.6636753 0.26209447
000100 68 14 b9 3e 16 b4 e9 3e f8 33 7e 3e 08 10 17 3d
       0.3614838 0.45645207 0.24824512 0.036880523
000110 0d 6e 3a 3f f2 33 70 3e 3d 92 1a 3f ac 86 23 3f
       0.72824174 0.23457316 0.6037939 0.6387737
000120 4f 43 c0 3e 89 ce f0 3e 40 7a 7c 3e a5 03 fe 3e
       0.37551352 0.47032574 0.2465601 0.49612156
000130 53 72 ac 3e 5f 9a 23 3f c3 cf 81 3e 3a cb 06 3f
       0.33680972 0.63907427 0.25353822 0.5265385
000140 3e 01 a9 3e c0 b0 a8 3e 55 8d 17 3f 1c ee b4 3e
       0.3300876 0.3294735 0.5920003 0.35337913
000150 06 67 05 3f ff 93 20 3e 6d 4a f9 3e 38 5b ca 3e
       0.52110326 0.15681456 0.48689595 0.3952272
000160 58 45 ce 3e 9e 28 e4 3e 13 91 24 3f cb 8c d8 3e
       0.4028728 0.44562238 0.64283866 0.42294917
000170 42 b6 cd 3e cf e7 a7 3e 09 45 5d 3f 77 f4 0d 3f
       0.40178114 0.32794043 0.86433464 0.5545115
000180 8d 34 f3 3e b2 07 19 3f c6 d1 fc 3e 0c 08 1e 3f
       0.4750103 0.5977737 0.49378794 0.6173103
000190 17 f0 a0 3e f1 d3 60 3e 60 c3 90 3e d5 e5 cc 3e
       0.31433174 0.21955849 0.2827406 0.40019098
0001a0 84 a5 2e 3f 59 c2 bf 3e 91 12 03 3f c0 cc 1c 3f
       0.68221307 0.37452963 0.51200205 0.61249924
0001b0 f6 7b 1f 3f 45 dd c4 3e df 7c 9e 3e 82 2e c3 3f
       0.62298524 0.38450065 0.30954644 1.5248568
0001c0 fd 36 de 3e 6a 71 94 3f db 0c 8a 3e d4 87 2d 3f
       0.43401328 1.1597111 0.26962933 0.6778538
0001d0 ab 2e 44 3f b6 e9 ae 3e 35 82 5a 3e 79 75 04 3f
       0.7663371 0.34162682 0.21338733 0.5174175
0001e0 48 52 80 3e e9 81 91 3e 9b 36 05 3f c3 b9 b0 3e
       0.25062776 0.28419426 0.52036446 0.34516725
0001f0 70 b8 0c 3f ca b6 e5 3e ed 6b 47 3f 0f 5f d4 3e
       0.5496893 0.4486602 0.77899057 0.41478774
000200 a7 f8 e3 3e c8 54 4b 3d 5e 6e 08 3f 92 3d 7e 3e
       0.44525644 0.0496414 0.53293407 0.24828175
000210 8c df 44 3f 60 8b df 3e a6 99 d4 3f af ba dc 3e
       0.76903605 0.43661022 1.660939 0.43111178
000220 9f e0 80 3f f5 7f f8 3e 31 13 67 3f 0f 78 20 3f
       1.0068549 0.48535123 0.9026366 0.62683195
000230 66 fc bd 3e 6f db 71 3f 64 d4 04 3f 5d 2d f8 3e
       0.37106627 0.94475454 0.5188658 0.4847211
000240 8d f7 ad 3e d9 4b bc 3e 42 6d 73 3f 6f 6a 13 3f
       0.3397793 0.36776617 0.9508859 0.5758428
000250 e5 1a c7 3e 1d 42 bd 3e 65 c8 9b 3e 11 64 2b 3f
       0.38887706 0.36964503 0.30426326 0.66949564
000260 87 06 0f 3f 55 d2 6e 3e dc fc 26 3f be fe 11 3e
       0.55869335 0.23322423 0.6522958 0.14257333
000270 0a 12 04 3f 54 25 80 3f d8 13 ed 3e e0 dd c5 3e
       0.51590025 1.0011392 0.46304202 0.3864584
000280 f3 36 41 3f 59 c8 eb 3e cf 7b 11 3f a4 49 d7 3e
       0.7547447 0.4605129 0.5682954 0.4204837
000290 23 c7 31 3e 3d b9 1a 3e 57 94 dd 3e f6 72 e3 3e
       0.17361121 0.15109725 0.43277237 0.44423646
0002a0 7c 4d 0f 3f d6 6d a2 3e 57 72 bc 3e ed 02 06 3f
       0.55977607 0.31724423 0.36805984 0.52348214
0002b0 c4 bc 9f 3e 3a ce c6 3e 2c df 4e 3f 24 d9 64 3f
       0.31198704 0.38829213 0.80809283 0.8939383
0002c0 a2 66 c9 3e d4 ad ea 3e 59 f7 1c 3f 73 7f 49 3e
       0.39336115 0.45835745 0.6131492 0.19677524
0002d0 5b 5c 51 3e 91 af 02 3f 3f 2c 5f 3e 18 bf f8 3e
       0.20445387 0.51049143 0.21794222 0.48583293
0002e0 7e e8 2d 3f d6 7d a7 3e 69 bc 75 3e 64 3a 0f 3f
       0.6793288 0.32713193 0.23997654 0.5594847
0002f0 f4 bf c3 3e d6 37 04 3f c5 28 33 3f ee e3 17 3f
       0.38232386 0.516477 0.69984084 0.5933217
000300 8a 33 fe 3e ca 0a be 3e 7b bb b8 3e 69 0c 03 3f
       0.49648696 0.37117606 0.36080536 0.5119081
000310 eb 8e 10 bf 96 bd 06 3f 6a 5f ad 3e 87 06 08 3f
       -0.56468076 0.52633035 0.33861858 0.5313496
000320 9d f5 cd 3e cc 61 1c 3f d0 1f 17 3f 1b 74 a4 3e
       0.4022645 0.61086726 0.5903292 0.3211983
000330 c9 b9 07 3f 00 2a d2 3e 81 48 04 3f 94 05 b3 3e
       0.5301786 0.41047668 0.5167313 0.34965193
000340 9f aa ce 3e 0f b8 21 3d f1 3e d6 3e 1b 79 05 3e
       0.4036455 0.039482173 0.41844895 0.1303448
000350 fb 17 b5 3e 20 bc 85 3f fa e8 f9 3e cc 0b 10 3f
       0.35369858 1.0448036 0.4881056 0.56268
000360 6d 2d c3 3e 77 ae d1 3e 5a 2a 05 3f b3 69 b3 3d
       0.38120595 0.4095342 0.5201775 0.08760395
000370 15 d2 78 3f 98 31 14 3f 81 c6 8a 3e f5 0f 57 3e
       0.9719556 0.57888174 0.2710457 0.21002181
000380 74 9a 95 3e cb d0 d3 3e a4 64 ea 3e 87 53 04 3f
       0.292194 0.41370234 0.45779908 0.5168995
000390 cf 0d a5 3e f6 a4 8e 3e 4c 67 1f 3f c3 8f 3b 3f
       0.32237098 0.2786023 0.62266994 0.7326624
0003a0 91 ee f8 3e ed 48 99 3e 56 f0 ab 3e 56 f0 43 3f
       0.48619512 0.2993845 0.335818 0.765386
0003b0 b7 6f 8c 3e 55 dd bf 3e ce 61 df 3e 69 bb 02 3f
       0.27428982 0.3747355 0.43629307 0.51067215
0003c0 d0 9c dd 3e 25 04 25 3f 94 43 14 3f 89 a9 a3 3e
       0.432837 0.6445945 0.57915616 0.31965283
0003d0 4a 29 a1 3e 52 6a f9 3e 9d 0e fb bd 2c 6e 06 3f
       0.31476814 0.48713928 -0.12258647 0.5251186
0003e0 29 5d 9d 3e 18 a8 4c 3e 87 ee 39 3e d9 fb 37 3f
       0.30735138 0.19985998 0.18157397 0.71868664
0003f0 58 77 8e 3f 35 1b 02 3f 29 5b cb 3e 4a e6 46 3f
       1.1130171 0.50822765 0.39717987 0.77695143

bn1.bias f4 [400]
000000 06 26 b7 3e c2 39 5b bc 3c 9f fa 3d ad c9 3e 3e
       0.35771197 -0.01338047 0.12237403 0.1863162
000010 2f ce 5b bd af 56 07 3d 5c b5 7c bc 41 96 b5 3d
       -0.05366343 0.033041652 -0.015424099 0.08866549
000020 30 0d 0c 3e 52 5d 39 3e c5 02 50 3b 3a 3a 9b 3d
       0.13676906 0.18102005 0.0031739932 0.07579465
000030 b9 49 6d 3d 14 9b 07 3d 5d b1 57 3c 1e 6d 9b 3f
       0.057931636 0.03310688 0.013164845 1.2142675
000040 df dd c2 3c ac d6 87 3c ec 34 90 3e f8 f1 5e bd
       0.023787437 0.016581856 0.28165376 -0.054429978
000050 9e f5 b5 3d 21 4d 52 3e 64 df 36 bc 0e 1b 1e 3e
       0.088847384 0.20537235 -0.011161659 0.15440008
000060 47 72 55 3e ca eb 36 bc 02 16 87 bd a1 e2 87 3c
       0.20844375 -0.011164615 -0.065959945 0.016587557
000070 ea 24 58 bd e1 66 e4 3d 44 32 dd 3d e3 80 93 be
       -0.05276958 0.11152435 0.10800603 -0.2880927
000080 37 da 1d 3d f2 8b 6d be e9 52 4d bd 68 5f cc 3e
       0.038538184 -0.23197916 -0.050127897 0.3991654
000090 c7 e9 20 3e af 65 cd bd 28 da ca 3e dc 45 ad 3c
       0.15714179 -0.1002916 0.39619565 0.021151476
0000a0 08 15 2d bf d5 92 93 3c 53 c6 6b bd 54 f2 a0 3d
       -0.67610216 0.01801435 -0.057562184 0.078587204
0000b0 02 08 ad bb c0 19 8d 3c b8 9e 38 3e 74 2a 7a bb
       -0.0052804956 0.017224193 0.18029296 -0.0038172277
0000c0 cf b8 94 3d da 06 6c 3e b1 5f 96 3e ad 5a 4d 3e
       0.07261812 0.23049489 0.29369882 0.20054121
0000d0 be 8a 9b 3e 47 b5 4f 3d 73 b7 43 3e f3 53 cf bc
       0.3037929 0.05070999 0.19112949 -0.025308585
0000e0 b4 37 c3 bd e7 ac 88 3e 0a dd 05 bd 49 17 b5 3c
       -0.09532109 0.26694414 -0.032681502 0.02210583
0000f0 96 25 1e 3f c4 5b 10 3c b6 ae b0 3e 70 2d 4b be
       0.617761 0.008810941 0.34508294 -0.19841552
000100 47 dc 29 3d ef 7a 7a 3d 62 60 8e 3d d4 87 04 bd
       0.04146984 0.061152395 0.06951977 -0.0323561
000110 0d 75 c3 3e c4 d3 11 bd ba 13 a8 3e c6 9d 93 3e
       0.3817524 -0.035602346 0.3282755 0.2883131
000120 5d 13 21 bf f2 af e0 3d 00 a0 61 3c a3 2d 06 3e
       -0.6292017 0.10971059 0.013771057 0.13103347
000130 f1 da 87 3d d6 26 96 3e 45 25 81 bd 05 3c 39 3e
       0.06633557 0.29326504 -0.06305937 0.18089302
000140 fd c8 16 3d 2e 4c 64 bd 70 bd b5 3e ac 79 a6 3d
       0.03681277 -0.055736713 0.35496092 0.08128676
000150 1b 7d 48 3e 2f 49 ad bc 91 4a 87 3d e6 c6 41 3e
       0.19578974 -0.02115306 0.06606019 0.1892353
000160 2d 8d db 3d 01 3e 1a 3e c7 2d eb 3e a6 49 36 3e
       0.107202865 0.15062715 0.45933363 0.17801532
000170 f4 c5 31 3e b8 bf 82 3d 03 cf 38 3f 3f dd 1a 3f
       0.1736067 0.06384224 0.72190875 0.60493845
000180 da c1 22 3e 62 f5 a1 3e 76 ec 34 be 41 8e da 3d
       0.15894261 0.31632525 -0.17668328 0.10671664
000190 32 f8 d8 3d 70 a6 55 3e c3 18 f5 bb 25 92 82 bc
       0.105942145 0.20864272 -0.0074797585 -0.015938828
0001a0 3a 5c a8 3e a9 d9 d8 3c 92 a6 c2 3d 93 5c 5f 3e
       0.32882863 0.026470976 0.09504427 0.21812658
0001b0 d0 32 b9 3d c9 e0 17 bc 2d db 73 3d d5 02 39 3f
       0.09042895 -0.009269902 0.059535194 0.72269946
0001c0 0c 57 0b bd 4b 8a 05 3f af 3a b3 3d a0 85 70 3d
       -0.03401856 0.52164143 0.087514274 0.058721185
0001d0 f4 ab 30 3e bd 72 06 3e bf 7b d1 bb b0 12 68 3d
       0.17253095 0.13129707 -0.0063929255 0.056658447
0001e0 4e 6e 52 bb d8 50 44 3d b4 59 6a 3e de b7 62 bd
       -0.0032109204 0.04792866 0.22885782 -0.05535113
0001f0 91 b6 d9 3d dd 6e 41 3e 9b 2b 35 3e 43 41 9c 3d
       0.10630525 0.18889947 0.17692415 0.07629635
000200 c6 d5 44 bd 47 7b f8 bd 3d 0f 0f 3d 6f 5b 92 3d
       -0.048055433 -0.12132888 0.03492664 0.07146346
000210 5d 07 6b 3f c1 08 0d 3e 2b eb 5e 3f 6d 73 92 3d
       0.9180811 0.1377287 0.8707759 0.07150922
000220 69 7b 3f 3f e8 bd f7 3d 5e c7 d2 3e ff 46 04 3f
       0.74797684 0.120967686 0.4116773 0.5167083
000230 20 d8 c6 ba 19 e6 d3 3e 64 51 13 3e de da e7 3e
       -0.0015170611 0.41386488 0.14386517 0.4528417
000240 c5 58 1a 3e 7a ae 9c bd b6 e3 60 bb 34 c1 a0 3e
       0.15072925 -0.07650466 -0.0034315414 0.31397402
000250 7e 9e ec 3d 64 d4 61 3d c0 1b 08 bd 03 7f ba 3e
       0.115536675 0.055134192 -0.03322959 0.36425027
000260 b7 7e 13 3e d8 a0 67 3d ae 72 90 3e 53 38 54 3d
       0.14403807 0.056549877 0.28212494 0.051811527
000270 f1 a7 de 3d 7e 5e ee 3e df 93 a6 3e 0d fb 8d 3e
       0.10871876 0.46556467 0.32534692 0.277306
000280 fe d2 83 3e de 3a 38 3e c1 ba 25 3e 73 9f f9 bc
       0.25746912 0.17991206 0.16184522 -0.03047154
000290 a3 23 0d 3c b1 4f ea bc 69 3c 02 3d 2b 97 2e 3e
       0.0086144535 -0.028602453 0.031795893 0.17049854
0002a0 35 05 5f 3d 2b 13 b4 3d f3 3a 29 3d 28 34 0a bd
       0.054448325 0.087927185 0.041315984 -0.033741146
0002b0 6c 2c d1 3d 7a e0 2c 3d 75 33 10 3f 19 6e f8 3e
       0.10213551 0.042206265 0.5632852 0.48521498
0002c0 af 12 96 bd aa 2f 94 3d e1 0b 28 3f 9c 66 7d bd
       -0.07327782 0.07235654 0.65643126 -0.061865434
0002d0 a8 e0 8e ba 27 d8 9c 3d bf 01 ba bb 15 3e ea 3e
       -0.0010900693 0.07658415 -0.0056764777 0.4575049
0002e0 b8 ea 55 3f 29 65 93 3b ad d1 13 3e 89 98 94 3d
       0.8356128 0.004498143 0.14435454 0.07255656
0002f0 8e 19 dd 3d f4 20 da 3d f4 f8 26 3e b4 85 1f 3f
       0.1079589 0.106508166 0.16305906 0.6231339
000300 45 8a e2 3d cb e9 30 3d 70 d3 b4 3c b5 df 91 bd
       0.11061529 0.043191712 0.022073478 -0.07122747
000310 27 7a b3 bd 97 ef 2b 3e 27 c0 92 bd 1c af 63 3e
       -0.08763533 0.16790615 -0.071655564 0.22234768
000320 b7 48 e0 3b 2a 1a 20 3e f0 ac 26 3e 99 72 b8 be
       0.006844606 0.15634981 0.16276908 -0.3602493
000330 51 1f 7c 3e 7a 6c 2b be 26 03 6f 3e 6f 17 7a be
       0.24621321 -0.167406 0.23341045 -0.24423002
000340 22 8b a9 3c 2d 70 c8 3c fd da cd be 0f 48 2a be
       0.020696227 0.024467552 -0.40206137 -0.1662905
000350 30 5e c9 3d 90 3b fa 3e ec e8 23 3e 65 ab 90 3e
       0.09832418 0.48873568 0.16006821 0.28255764
000360 28 d7 af bd a7 a8 c3 bc 5e b7 61 3d 36 22 74 bc
       -0.0858596 -0.02388413 0.055106513 -0.014900735
000370 6a 15 c9 3e 82 52 92 bd cd 61 8a 3d 70 e0 d7 3b
       0.3927415 -0.07144643 0.06756935 0.0065880343
000380 94 d5 84 3d de 40 ce 3d f3 9b 51 3e 48 a0 25 3c
       0.06486049 0.10070966 0.20469646 0.010109015
000390 4d ad 9c 3c 71 21 bc 3d 40 e8 05 3e c2 c2 60 3f
       0.019125605 0.09186066 0.13076878 0.87797177
0003a0 12 09 e7 3c 6a fe 99 3d eb 0a bb 3d 19 10 ff 3e
       0.028202567 0.07519229 0.09132942 0.4981697
0003b0 27 e0 52 3d 52 c0 eb 3d ac b3 20 3f 14 39 6e bc
       0.0514833 0.115112916 0.6277416 -0.014539976
0003c0 c0 c2 d0 3d 54 3c 21 3d ef ce 8f 3e c0 98 e0 3e
       0.101933956 0.039364174 0.28087565 0.4386654
0003d0 dd da e8 bc aa 2c 13 3f 3a e8 d1 3c 46 c5 5a 3e
       -0.028424675 0.57490027 0.02562343 0.21364316
0003e0 14 79 c1 3a aa a3 15 be 76 e4 b0 3c 32 0d ec 3e
       0.0014760816 -0.14613214 0.021593314 0.46103817
0003f0 f1 33 90 3f cd 88 1a 3d 84 fa 30 3e 65 6e 62 3d
       1.1265851 0.03772812 0.17283064 0.05528106

bn1.running_mean f4 [400]
000000 09 51 05 40 af 9c 12 3f 6b bd 82 3e 24 6e 44 3e
       2.083071 0.5727033 0.2553514 0.1918264
000010 72 12 c5 3e 17 ed 83 3f 7f 43 90 3f 36 d8 22 3d
       0.38490635 1.0306729 1.1270598 0.039756976
000020 a8 2d 19 3f 3c 2d 34 3f a8 9d 4d 3e 0f 3c 09 3f
       0.5983529 0.7038152 0.20079672 0.5360727
000030 c3 93 70 3e 30 31 ff 3f 4b e9 08 3f f1 24 2e 40
       0.23493867 1.9936886 0.53480977 2.7210047
000040 66 08 59 3e 98 d4 1c 3f 1c 9c 0e 40 82 5b 87 3e
       0.2119461 0.6126189 2.2282782 0.26437002
000050 5c ef 3c 3e ec ba 3e 40 ac e1 94 3e d2 00 4b 3f
       0.18450683 2.9801588 0.29078424 0.79298127
000060 27 7d 6e 3f 22 42 da 3e 5c 9f cd 3e 5f b5 77 3e
       0.9315972 0.4262858 0.40160644 0.24190281
000070 08 ed c0 3f 2c 5d 9e 3e ad cc ae 3f af 31 fa 3f
       1.5072336 0.3093046 1.3656212 1.9546412
000080 88 2c 72 3f 35 e1 f4 3e 30 f5 97 3e 33 da 28 3f
       0.945992 0.4782807 0.2967925 0.65957946
000090 64 37 83 3e 4a 0f aa 3f cd 24 39 3f 4c 3a bb 3e
       0.25628197 1.3285916 0.7232178 0.36567914
0000a0 1f 22 7d 3f 33 5c 83 3e 0b 23 14 40 24 a1 f0 3e
       0.9888019 0.2565628 2.3146389 0.4699794
0000b0 09 5b 03 3f b9 01 91 3e 72 ba 9f 3f d8 ac 20 3f
       0.51310784 0.28321627 1.2478774 0.6276374
0000c0 82 77 eb 3d 02 ab c9 3e 88 13 87 3f ef d3 c6 3e
       0.11497404 0.3938828 1.0552835 0.38833568
0000d0 88 b4 ba 3f bd 1d 8e 3e a1 5c 51 3e 53 c0 b5 3e
       1.4586344 0.27757064 0.20445491 0.35498294
0000e0 cd bb 03 3f 8b 1d 23 3f 97 c1 0b 3d a2 7f d9 3e
       0.51458436 0.63716954 0.03412017 0.4248019
0000f0 0c f0 51 3f 16 91 f6 3f 41 45 bd 3f 19 a1 44 3f
       0.8200691 1.9263027 1.478676 0.76808316
000100 ec f6 6a 3f 8a 41 3a 3f 13 68 21 3f 94 56 88 3e
       0.9178302 0.72756255 0.6304943 0.26628554
000110 e7 f7 bb 3f 31 bf 78 3e d4 d0 d6 3f f5 27 03 3f
       1.4685029 0.24291684 1.6782479 0.51232845
000120 0f 65 9e 3e 9f 9e 34 3f f5 77 da 3e 72 48 35 3f
       0.30936477 0.70554537 0.42669645 0.7081367
000130 f9 ec bf 3f 6b d0 e0 3f 0e b4 54 3e 41 7f e3 3f
       1.4994193 1.7563604 0.2077181 1.777321
000140 15 60 c9 3e dd 84 a8 3f 30 00 9c 3f 8c 41 86 3f
       0.39331117 1.3165547 1.2187557 1.0488753
000150 98 70 33 3f 8c c5 7d 3f a6 c9 86 3e e4 51 c9 3f
       0.7009368 0.9912956 0.2632572 1.5728116
000160 15 dc 23 3f 46 67 67 3f 28 5f 99 3e 5f 8e cb 3f
       0.64007694 0.9039196 0.2995541 1.5902823
000170 21 e9 b0 3f e5 ff 8c 3d 48 7b 8b 3f 1d 8d 8f 40
       1.3821145 0.068847455 1.0896997 4.4859757
000180 22 21 32 3f 98 57 5d 40 43 55 8c 3f 18 2e 5d 3f
       0.69581807 3.4584713 1.096352 0.8639846
000190 c6 e0 23 3f 02 93 c2 3b 53 40 05 3e 75 ce 74 3e
       0.6401485 0.005937935 0.13012819 0.23906882
0001a0 41 ca 27 3f c7 ae 50 3e a4 55 12 3f bc 14 04 3f
       0.6554299 0.20379172 0.5716193 0.5159414
0001b0 b7 7e 0c 3e 1c 85 a8 3f 3a 87 1b 3f c2 76 a5 3f
       0.13720213 1.3165622 0.60753214 1.2926867
0001c0 2f 2e 63 3f 1f 21 8d 40 d7 aa b3 3e e6 e9 0a 3f
       0.88742346 4.410293 0.35091278 0.5426315
0001d0 13 b6 16 3f 3d fb ba 3f e8 af a1 3e 30 ce 87 3d
       0.58871573 1.4607922 0.31579518 0.06631124
0001e0 06 71 6a 3f e8 dd 92 3e 57 da 2a 3f 2a f5 02 3e
       0.9157871 0.28684926 0.6673941 0.12788835
0001f0 9b 4a 95 3e 0b 71 52 3f 88 ff 51 3f 78 73 bf 3f
       0.29158482 0.8220374 0.82030535 1.4957113
000200 6a 86 88 3f 88 c8 47 3e 70 9d d0 3e 81 24 ef 3e
       1.066602 0.1951009 0.40745115 0.46707538
000210 4a c2 88 3f c2 99 0e 3e f4 c7 8a 3f dd 8a 36 3f
       1.0684292 0.13925841 1.0842271 0.7130564
000220 20 dd 17 40 48 41 63 3f e5 5e 87 3f b1 20 60 3f
       2.3728714 0.88771486 1.0575835 0.87549883
000230 47 bf 7b 3e 88 ff 2a 3f 89 c4 b2 3f a9 77 86 3e
       0.24584685 0.6679616 1.3966228 0.26263168
000240 e4 80 20 3f bc 09 21 3e aa ff 76 3f 30 d2 92 3f
       0.6269667 0.1572637 0.9648386 1.1470394
000250 ed 11 31 3f 2a 41 45 3e f4 71 d6 3e 17 e7 04 40
       0.6916798 0.1926314 0.41883814 2.0766046
000260 9b f9 3d 3f 37 96 35 40 cd 25 d0 3e 15 08 38 40
       0.7420899 2.8372934 0.4065384 2.8754933
000270 9d 26 98 3e 8d 41 27 3f c5 d6 e9 3e d1 08 e7 3f
       0.2971696 0.653344 0.4567167 1.8049566
000280 35 9e b8 3e 28 4a 42 3f 43 b9 c4 3f 6a 73 50 3f
       0.36058202 0.75894403 1.5369037 0.8142611
000290 06 5b cf 3e ce fb c8 3e a5 8a bf 3e 42 81 8f 3f
       0.40499133 0.39254612 0.37410465 1.1211321
0002a0 3f 59 42 3f a4 bf 88 3f ce 39 33 3f 20 af 45 3f
       0.7591743 1.0683484 0.7001008 0.77220345
0002b0 b2 e2 ad 3f e8 06 73 3e 78 10 54 3f d3 b4 05 3f
       1.3584807 0.23733103 0.8283763 0.5222904
0002c0 bc de 40 3e 66 24 e2 3e 97 26 e6 3f fd 7b ed 3f
       0.18834966 0.44168395 1.7980527 1.8553463
0002d0 ea d0 7d 3d be 34 0f 3f cc 26 c2 3d 19 f8 15 3f
       0.061966814 0.55939853 0.09480056 0.5858169
0002e0 68 06 d8 3e 45 05 b9 3f 1e 0a e7 3d 15 e7 0a 3e
       0.42192388 1.4454733 0.112812266 0.13564713
0002f0 22 3a 00 3f 87 04 22 3f 55 4a 82 3e fc c5 ba 3e
       0.50088704 0.6328816 0.25447336 0.36479175
000300 7b fa 5b 3f 63 d0 db 3f 9c 6e da 3e 95 44 79 3f
       0.8592908 1.717297 0.42662513 0.9737027
000310 b5 d0 1d 3f a7 e1 99 3f 9c 92 a3 3f 9d 3d 54 3f
       0.61646587 1.2021989 1.2779117 0.82906514
000320 7c c6 2b 3f 33 e6 c8 3e f4 e6 64 3f 17 15 4d 3e
       0.6709974 0.39238128 0.89414907 0.20027576
000330 b8 97 4d 3f 55 f7 95 3f a6 16 76 3f 60 b5 91 3f
       0.8030963 1.1716105 0.9612831 1.1383476
000340 a1 2d b6 3e c2 2c c0 3e 55 a9 17 3f f7 86 1a 3f
       0.35581687 0.37534148 0.59242755 0.6036219
000350 07 de 46 3f d0 2d 8f 3f 15 71 0e 3f 8c db 7a 3f
       0.77682537 1.1185856 0.556413 0.9799125
000360 9a 0d d1 3f 20 ce 35 3f e8 6b 5e 3f 1f 67 04 3f
       1.6332276 0.71017647 0.868834 0.5171985
000370 19 5f af 3f 46 b8 ac 3f 8a 58 58 3f 30 b8 03 3f
       1.3700897 1.3493736 0.845101 0.5145292
000380 9c 4d 08 3f 90 04 4a 3e bc c0 a3 3f 9b df 11 40
       0.5324342 0.19728303 1.2793193 2.2792728
000390 74 bd 1f 3f 83 dc e4 3e 05 b9 8c 3f df c6 23 40
       0.6239846 0.44699487 1.0993963 2.5590131
0003a0 0c d6 5a 3f ad 98 f2 3d 5f 7d d3 3e e8 49 94 3f
       0.8548286 0.11845527 0.41306588 1.1585054
0003b0 b5 c7 22 3f 78 65 f1 3e bc 8b 53 3d 9c 8b 66 3e
       0.6358598 0.47147727 0.051646933 0.22514194
0003c0 d2 df 3f 3f f9 0c 35 3f 47 2f fd 3f 02 7b 2a 3f
       0.749509 0.7072292 1.9780053 0.66593945
0003d0 64 f2 53 3e b8 99 47 3f 97 a6 8a 3e 58 49 51 3f
       0.20697933 0.7796893 0.27080223 0.8175254
0003e0 1e d2 83 3e 05 c9 a2 3e f0 39 8b 3f d4 b0 85 3f
       0.25746244 0.3179399 1.0877056 1.0444589
0003f0 2e b5 e9 3e c4 c3 ac 3e 72 51 e5 3e 73 4f 2e 3f
       0.45646042 0.33743107 0.447887 0.6808998

bn1.running_var f4 [400]
000000 3c 92 1e 41 af a5 cb 40 6c 2c f4 3f 51 ac 8e 3f
       9.910702 6.363975 1.9076056 1.1146337
000010 bc 28 68 40 eb 7b b2 40 ed 73 eb 40 b0 6f 39 3f
       3.6274862 5.5776267 7.357901 0.72436047
000020 44 ac 53 40 20 de 38 40 c4 99 fa 3f 60 b6 3f 40
       3.3073893 2.8885574 1.9578176 2.9955063
000030 66 6f f3 3f d4 bd d9 40 cb 60 df 40 eb 3d 49 41
       1.9018371 6.8044224 6.9805655 12.577617
000040 17 8f c8 3f d0 b7 38 40 07 c2 29 41 13 cd 03 40
       1.5668668 2.886219 10.60987 2.0593917
000050 cc 93 c5 3f a0 8b 17 41 8b 4e 34 40 ed a6 92 40
       1.5435729 9.471588 2.817294 4.5828767
000060 c8 78 82 40 80 88 45 40 6d 5e 0e 40 ee 20 d3 3f
       4.077244 3.0864563 2.2245133 1.6494424
000070 c7 de 06 41 65 44 c5 3f 1f 6a bd 40 59 e0 e8 40
       8.429389 1.5411497 5.919204 7.277386
000080 02 27 88 40 88 70 58 40 9b 68 47 40 64 11 2c 40
       4.2547617 3.3818684 3.1157596 2.6885614
000090 1d 56 03 40 73 c7 be 40 73 ef 46 40 1b fc 5a 40
       2.052131 5.961847 3.1083648 3.4216373
0000a0 86 21 a3 40 ac 0a 92 3f ab a2 80 41 57 a9 65 40
       5.097842 1.1409507 16.079428 3.5884607
0000b0 e9 69 41 40 ea 27 10 40 61 b2 71 40 10 70 47 40
       3.0220892 2.2524362 3.7765124 3.1162148
0000c0 67 ad 32 3f 16 4d 02 40 b7 f5 b9 40 8c e8 25 40
       0.6979584 2.035955 5.8112445 2.5923185
0000d0 54 dd 09 41 fe 09 13 40 17 87 93 3f 89 aa 20 40
       8.616535 2.2974849 1.1525601 2.5104086
0000e0 7a e3 65 40 dd 49 04 40 a2 a4 68 3f 86 25 05 40
       3.592009 2.0670083 0.9087621 2.0804152
0000f0 48 4d 4c 40 d5 22 d2 40 31 b6 aa 40 ce 7a aa 40
       3.1922169 6.566752 5.33474 5.327491
000100 82 1d 9f 40 9e 3d 5e 40 6f 90 2b 40 c2 9d f9 3f
       4.972352 3.4725108 2.6806905 1.9501269
000110 0b ad 7a 40 b8 4c cd 3f b0 a3 38 41 96 d8 00 40
       3.9168117 1.6039038 11.539963 2.0132194
000120 0c a5 ac 3f d0 52 fb 3f d1 d2 06 40 b9 0d a9 40
       1.3487868 1.9634647 2.1066172 5.282925
000130 3c 77 ee 40 0b 76 3e 41 2c d1 9e 3f c4 7f 03 41
       7.452055 11.903819 1.2407584 8.218693
000140 ca 42 05 40 52 f5 36 41 2e 5f e7 40 f4 a5 c8 40
       2.0822015 11.434893 7.2303686 6.270258
000150 5e 7c 50 40 a0 68 9f 40 53 42 ea 3f 91 89 0a 41
       3.2575908 4.9815216 1.830149 8.658586
000160 7d 6b ec 40 44 45 a1 40 f8 22 ca 3f fb e8 ef 40
       7.388121 5.0397053 1.5791922 7.49719
000170 f5 50 dd 40 a9 aa 17 3f 82 76 78 40 01 31 f9 41
       6.9161325 0.5924478 3.8822331 31.148928
000180 ec 20 9f 40 45 18 01 41 f8 b5 92 40 21 b5 1d 40
       4.972769 8.068425 4.584713 2.4641802
000190 b0 ed 77 40 3f 3b 03 3f d7 b0 d7 3f c4 76 f9 3f
       3.8738823 0.5126228 1.6850842 1.9489369
0001a0 62 6b 75 40 95 f1 83 3f 81 80 8a 40 76 78 1f 40
       3.8346791 1.03081 4.3281865 2.4917274
0001b0 e2 7a ca 3f c9 cc cb 40 5f b6 eb 40 f8 8a 94 40
       1.5818751 6.368748 7.366012 4.641964
0001c0 68 9c b6 40 2e a1 0d 41 93 0a 40 40 fc e4 45 40
       5.7065926 8.8518505 3.0006454 3.092101
0001d0 59 92 68 40 bd 1c 81 41 1f 57 0e 40 83 b9 52 3f
       3.6339324 16.139032 2.2240674 0.8231432
0001e0 90 f8 de 40 fe b6 38 40 2c b7 98 40 e7 d7 cb 3f
       6.967842 2.886169 4.77236 1.5925263
0001f0 54 57 2e 40 29 41 a4 40 09 fa 5b 40 36 f1 fe 40
       2.72408 5.132954 3.437136 7.9669447
000200 bd d2 2d 41 9d 5e d9 3f 80 c5 f4 3f db d7 b6 40
       10.86395 1.6981999 1.9122772 5.7138495
000210 bb 7e db 40 b3 5d 12 40 6a ee 6d 40 43 58 52 40
       6.85922 2.286969 3.7176766 3.286637
000220 cc fa 20 41 2a 6b 47 40 11 6e 60 40 11 cc 59 40
       10.06123 3.1159158 3.506718 3.4030802
000230 98 dc f3 3f 95 64 08 40 cd 27 d7 40 be 26 52 40
       1.9051695 2.131139 6.7236085 3.2836146
000240 a1 9c 29 40 b1 ca 4a 3f 53 a7 7f 40 d7 d6 a0 40
       2.6501849 0.7921553 3.9945877 5.0262256
000250 49 22 1b 40 dc ba 4c 40 bd 38 18 40 52 d6 ae 40
       2.4239676 3.198905 2.378463 5.463662
000260 01 45 41 40 95 83 92 41 03 14 1c 40 00 89 42 41
       3.0198367 18.314249 2.4387214 12.158447
000270 f5 43 c9 3f 22 1c f7 3f 77 28 ec 3f b1 5a 73 41
       1.5723864 1.930546 1.8449849 15.209641
000280 9d e1 9a 3f 6a 88 be 40 76 07 0f 41 96 b1 36 40
       1.2100102 5.954152 8.9393215 2.854589
000290 47 b8 1d 40 ba e8 2d 40 3b b3 22 40 a3 ae dd 40
       2.4643724 2.7173295 2.5421894 6.927568
0002a0 8e ab 8c 40 db 31 97 40 d9 7d b7 40 54 94 63 40
       4.3959417 4.724836 5.7341123 3.5559282
0002b0 42 49 14 41 f0 67 bb 3f 72 64 32 40 ae fe e4 3f
       9.267885 1.4641094 2.7873807 1.7890222
0002c0 36 68 96 3f 4c 0f e1 3f a1 f7 10 41 5b aa 24 41
       1.1750553 1.7582793 9.060456 10.291591
0002d0 a9 a1 bc 3f 86 6f 2e 40 9e 00 6c 3f 0e 59 57 40
       1.4736835 2.7255569 0.9218844 3.3648105
0002e0 7d fd 33 40 ad c9 b3 40 4b 0e 4a 3f 68 a3 19 3f
       2.8123467 5.6183686 0.7892806 0.60014963
0002f0 70 b8 6e 40 9b cc 7e 40 99 06 f0 3f 2c ce c7 3f
       3.7300072 3.9812381 1.8752013 1.5609794
000300 59 9b 86 40 0a c5 14 41 28 cd 68 40 2d 49 9b 40
       4.2064633 9.298105 3.6375217 4.8526826
000310 5e 1d 5c 40 b0 97 96 40 31 d6 ac 40 ea 49 8c 40
       3.4392924 4.7060165 5.4011464 4.3840227
000320 4d 0f 39 40 d9 62 e9 3f 95 93 4c 40 36 a0 4d 3f
       2.891559 1.8233291 3.1965077 0.8032259
000330 37 29 91 40 3d 30 ab 40 b0 7b a0 40 94 d7 ab 40
       4.536281 5.3496385 5.0150986 5.3700657
000340 aa 31 7e 40 3f f5 ac 40 c3 1a 3a 40 b6 87 97 40
       3.9717813 5.4049373 2.9078834 4.7353163
000350 ca 82 99 40 83 52 9b 40 2b 6c 3e 40 97 6a 47 40
       4.7972155 4.853822 2.975352 3.1158807
000360 c3 10 d8 40 5f 8d a4 40 f1 74 bb 40 52 c5 4d 40
       6.752046 5.142257 5.858025 3.2151685
000370 f8 db 86 40 7d 5b de 40 38 7c d4 40 f6 83 24 40
       4.2143517 6.948668 6.6401634 2.5705543
000380 5e ac 60 40 05 17 c3 3f 34 f8 4c 41 24 fe 18 41
       3.5105205 1.52414 12.810596 9.562046
000390 2a dd 36 40 b1 63 19 40 0f 80 6f 40 b8 4e 71 41
       2.8572488 2.3967097 3.742191 15.081718
0003a0 7c 95 75 40 9a 6d 7c 3f 04 81 2c 40 ef b8 c8 40
       3.8372488 0.9860474 2.6953745 6.272575
0003b0 06 d7 a7 40 ed e6 80 40 13 0b 12 3f 98 47 76 3f
       5.244998 4.028189 0.5704815 0.96202993
0003c0 d3 79 79 40 76 40 14 40 b2 48 e5 40 28 88 80 40
       3.8980606 2.3164344 7.165124 4.0166206
0003d0 5f e0 e5 3f f2 fa 94 40 bb 37 11 40 2b 34 58 40
       1.7959098 4.655633 2.2690265 3.378184
0003e0 bf 64 17 40 fb 3e 06 40 79 d5 cd 40 32 02 72 40
       2.365524 2.097594 6.4323087 3.781384
0003f0 98 66 4e 40 79 01 01 40 3d 3c 1f 40 96 86 1e 40
       3.2250118 2.015715 2.4880517 2.4769645

fc2.weight f4 [300, 400]
000000 35 16 53 bf 00 6c 18 3f c3 1d 00 3f 96 ea a5 bd
       -0.8245576 0.59539795 0.5004541 -0.08101384
000010 bb cc a0 bf e8 0e b0 3e ed 69 ee 3e 8c a7 aa 3d
       -1.2562479 0.34386373 0.4656519 0.08332738
000020 7e cf 97 3e 0f 5a 47 be 47 26 af 3f f6 d7 1d be
       0.2965049 -0.19467948 1.3683556 -0.15414414
000030 be 17 45 3d 97 12 48 bf 60 3c 7d be 3d c2 10 bf
       0.048118345 -0.78153366 -0.24730062 -0.56546384
000040 0a da 71 3e 1e 50 ed 3e b2 3c 70 bd 13 1c 26 bf
       0.23618332 0.46350187 -0.058651634 -0.6488659
000050 e1 22 18 3e 49 30 9c 3e 01 83 28 bf 74 57 8b bf
       0.14857055 0.3050559 -0.65824896 -1.0886064
000060 35 9f 07 3c 2b 4e 31 bc 70 a4 4c bf 21 90 dd bd
       0.008277704 -0.010821859 -0.7993841 -0.10818506
000070 62 2a ae bf 10 75 7b 3e 81 cf b5 3d 71 df 7c bf
       -1.3606684 0.24556375 0.08877469 -0.98778445
000080 06 1f 1f be d7 04 31 3f 6a a3 65 3e a3 5b c7 be
       -0.15539178 0.6914801 0.22425619 -0.389371
000090 e2 53 ec bd df 77 67 bf ff c4 b2 3e e6 55 21 3f
       -0.11539437 -0.90417284 0.3491592 0.63021696
0000a0 c6 91 27 bf 5c 84 18 3f 18 56 d6 3d 02 7f 37 be
       -0.6545681 0.59576964 0.1046564 -0.17919543
0000b0 16 af 4a be 8d 7c 2c 3e 29 61 82 3e d9 15 0a bf
       -0.19793352 0.16844387 0.25464752 -0.53939587
0000c0 e2 fd 82 3f a3 47 89 3e 47 10 69 be cb 7b 30 bf
       1.0233729 0.26812467 -0.22760116 -0.68938893
0000d0 ac 87 62 bf df 68 95 bb 53 ce 0a 3f 98 73 85 bf
       -0.8848827 -0.0045596207 0.54221076 -1.0425901
0000e0 9d a1 79 3f ff c3 32 3f 92 da 87 be 9f 1e 88 3f
       0.9751223 0.69830316 -0.26533943 1.0634345
0000f0 6c ea 1a bf 48 52 1c bf 2c 60 21 bf d1 3a 9b bd
       -0.6051395 -0.6106305 -0.6303737 -0.07579578
000100 50 90 20 3f a9 0e 8e 3e 96 86 26 3f f0 5e ec be
       0.62720203 0.2774556 0.6504911 -0.46166182
000110 71 54 c3 bf b5 34 45 bf 95 06 09 3f ed 59 02 bf
       -1.5260144 -0.7703355 0.5352567 -0.50918466
000120 84 98 b1 3e d7 f5 a4 3e 7b 3c 67 be d7 02 b0 bd
       0.34686673 0.3221881 -0.22581665 -0.08594292
000130 bf 8d 08 3f e7 a4 0e bf 2e 72 95 3e c1 05 8c bf
       0.5334129 -0.5572037 0.29188675 -1.0939256
000140 4b a8 0d bf 47 32 b1 bb 18 4a a5 be 2a 71 0a 3f
       -0.5533492 -0.005407605 -0.32283092 0.54078925
000150 5c 0c cf 3e 2a 6d 06 3f 13 74 96 be 90 ed be bf
       0.40439117 0.5251032 -0.29385433 -1.4916248
000160 f3 57 e9 3d da f9 d5 bd 17 e2 88 3d 8e f6 48 bf
       0.11393728 -0.10448046 0.06683748 -0.7850121
000170 49 94 39 3e d5 09 18 3f e0 40 c5 be 11 4c f1 be
       0.18122973 0.5939 -0.38526058 -0.47128347
000180 d5 5a 78 bf 2c 61 94 bf 5d 61 7b bc 3c 47 06 bf
       -0.970136 -1.1592155 -0.015343037 -0.52452445
000190 d0 3a a6 3e 21 85 60 be 66 45 f3 3e a9 71 f6 bc
       0.32466745 -0.21925785 0.47513884 -0.030083494
0001a0 39 3c e0 be 5e ca 4c 3f 96 d7 f7 3e 1d 13 87 3e
       -0.43795946 0.7999629 0.48406667 0.2638177
0001b0 64 38 5e 3f 72 2e a3 be e4 dd 21 bf f0 a2 2a bf
       0.86804795 -0.31871372 -0.63229203 -0.6665487
0001c0 90 b9 a3 3d 41 e3 4a 3f c0 95 72 bf dc 8b 0b be
       0.079943776 0.7925301 -0.9475975 -0.13627571
0001d0 9c 2a 4f bf 52 18 1c bf 96 32 0c 3e 33 27 94 be
       -0.8092439 -0.6097461 0.13691172 -0.28936157
0001e0 e8 82 a3 be 8d ea 82 3a eb ed 0c 3f a7 99 ad bc
       -0.3193581 0.0009988114 0.55050534 -0.021191431
0001f0 b7 35 78 be f2 1c 52 bd 45 f8 ae 3d df 42 18 bf
       -0.2423924 -0.051297136 0.085434474 -0.5947704
000200 8b f9 a9 bd 43 96 c8 bd 6d 67 54 3f 5c d4 88 3e
       -0.0829955 -0.09794285 0.82970315 0.26724517
000210 ee 45 dc bd c3 7b 3e 3d cc fb fc 3d 9f d3 62 bf
       -0.107555255 0.046504747 0.12352714 -0.8860416
000220 1f 4b 17 3e 31 61 0e 3f ee 98 17 bf 4e a5 d5 bf
       0.1477475 0.5561705 -0.5921773 -1.6691072
000230 4e d7 98 3e 58 8a 58 bf 35 b3 3d 3e 02 0f 9a be
       0.29851764 -0.84586096 0.18525393 -0.30089575
000240 62 63 86 bf d0 0b 3b be 47 6c 26 bf 13 8e f8 3e
       -1.0499079 -0.18266225 -0.6500897 0.48545894
000250 68 57 9e 3e 0f ab 17 3f 6c 22 2f bc da 3b 06 3f
       0.3092606 0.5924539 -0.010689359 0.52435076
000260 3d 51 98 be af 2c dd 3e 8f c2 d4 be 92 31 d3 3e
       -0.2974948 0.43198153 -0.41554686 0.41248757
000270 67 1e ab 3e ce 35 c4 be b5 07 f4 3e 91 57 ad be
       0.33421633 -0.383223 0.4766213 -0.3385587
000280 2e 26 b8 be f0 ab c9 be 1d 34 85 bf c0 b2 d1 be
       -0.3596663 -0.3938899 -1.0406529 -0.40956688
000290 22 cd ce bd 8b f1 8c 3e 75 65 b8 3e 2b d2 28 3e
       -0.1009772 0.27528033 0.36014906 0.16486423
0002a0 47 d5 a0 3e f5 7b 77 bf 76 7e a8 3d c2 9e df be
       0.31412718 -0.9667352 0.082272455 -0.4367581
0002b0 ae e0 10 bf a3 8b cb be 71 8d 61 be 7f 20 95 bf
       -0.56592834 -0.39754972 -0.22026612 -1.1650542
0002c0 aa 8c a5 3e c2 0a 75 bf f1 fd 26 bd 70 f7 a8 3d
       0.3233388 -0.9571954 -0.04076952 0.0825032
0002d0 84 d8 dc 3e 13 bc 21 3f 91 cb 92 be cb 16 4a 3e
       0.43133938 0.63177603 -0.28670934 0.19735257
0002e0 87 6a 32 bf 63 80 92 bf a6 0c e2 3e 2c 2a 1d 3f
       -0.696938 -1.144543 0.44150275 0.61392474
0002f0 2f 7b 66 be fe 65 20 3f 37 1a 50 3d 8e 52 0c bf
       -0.22507928 0.6265563 0.05080625 -0.5481347
000300 6f db 5a 3e d0 74 c3 be 54 41 99 3e cc 6c cf be
       0.2137277 -0.38175058 0.29932654 -0.40512693
000310 70 c1 45 be ff ca 11 3f 6f d6 57 3f 2d 51 f5 be
       -0.19312072 0.5695037 0.84311575 -0.47913495
000320 f4 de a4 ba a5 0b 77 bf fd d4 c5 bc a5 b9 fe 3e
       -0.0012578652 -0.96502143 -0.024149412 0.4975101
000330 b0 11 62 3d ea 7c 53 3f 02 b6 07 bf 4e 5f f5 be
       0.05519265 0.8261248 -0.53012097 -0.47924274
000340 29 fb 58 bf 39 90 28 3e 98 54 04 bf ff 94 26 bd
       -0.8475824 0.16461267 -0.5169158 -0.040669437
000350 69 2a ad be fc ff 2a 3f cc 41 86 3e 8d 36 89 bf
       -0.3382142 0.6679685 0.26222074 -1.0719773
000360 9d fd 85 3e 71 fb a6 3d 9a 78 17 bf 90 f3 49 3f
       0.26170054 0.081534274 -0.591684 0.7888727
000370 1f 9a c3 bf 8a c9 40 bf 47 5c 60 3e 01 8d 23 3e
       -1.5281409 -0.75307524 0.21910201 0.15971757
000380 e6 c2 b0 be 0b ce 8b 3e 61 48 6c be 0e ef 01 bf
       -0.34523696 0.27305636 -0.23074485 -0.50755394
000390 9f e2 a4 be bd 99 6a be 0b 9e 19 bf 07 0a 91 bd
       -0.32204148 -0.22910209 -0.6000678 -0.07081991
0003a0 32 7f f3 bd 46 53 01 3f df e5 39 bd ee a3 d1 be
       -0.11889495 0.5051769 -0.045385238 -0.4094538
0003b0 9d d6 3b 3f 0a 8a 39 bf 7a 36 04 be 0c d4 93 3e
       0.7337435 -0.72476256 -0.12911406 0.28872716
0003c0 10 f8 64 be 01 d9 e7 be fb 05 ae 3d 2f 56 cb be
       -0.22360253 -0.45282748 0.084972344 -0.3971419
0003d0 15 8f 7b 3e d4 ed 8f be 93 d4 a7 be 3d 75 a0 bd
       0.245663 -0.28111136 -0.3277937 -0.078348614
0003e0 57 2d b6 3d 8c fe f7 bc e9 48 19 3e bc b9 fa 3e
       0.08895367 -0.030272745 0.1496922 0.4896983
0003f0 b7 d7 ff 3d d0 9a 58 bf 0b 00 84 bf 28 a3 25 bd
       0.12492316 -0.84611225 -1.0312513 -0.0404388
